trained_models/GATv2_10_9_10_2.pt (torch, 6142 bytes, 11 tensors)

gat_layer1.linear_l.weight f4 [8, 8]
-5.3547754 -0.47233406 0.2014771 0.5327239 0.12622707 -0.7207572 -0.8655057 -0.56259686
1.813855 -1.3258048 0.5086678 -1.9362012 -0.8256962 -0.075226545 1.899094 0.5927682
1.6771632 -0.56667435 0.040506005 -1.8616921 -0.34770063 0.14951684 2.1302974 0.39740846
-1.7378963 2.0881453 -0.2301163 1.8417052 0.4732904 -0.31741893 -1.964193 -0.5550405
3.2253191 4.411279 -0.523963 3.6123815 1.9193183 0.68764883 -2.6816812 -0.27645087
-2.4576674 1.9167866 0.20113868 1.0922718 0.4311891 -0.405029 -2.0017822 -0.57222015
-1.8940519 0.9477286 -0.463057 1.6298072 0.5076963 -0.23441644 -1.8060341 0.67143834
1.8530436 -1.4508773 0.1750842 -1.8327593 -0.15846321 0.17632982 2.1150248 0.35330307
00000000: 525a abc0 c5d5 f1be 0350 4e3e 9860 083f
00000010: ab41 013e 8b83 38bf c891 5dbf 5906 10bf
00000020: 672c e83f f9b3 a9bf 0e38 023f 71d5 f7bf
00000030: d360 53bf 6010 9abd 8315 f33f a8bf 173f
00000040: 49ad d63f 9211 11bf a0e9 253d ed4b eebf
00000050: d105 b2be f11a 193e cb56 0840 1f79 cb3e
00000060: 6373 debf 2ca4 0540 9ba3 6bbe ffbc eb3f
00000070: 1f53 f23e bc84 a2be ad6a fbbf 2217 0ebf
00000080: a16b 4e40 3329 8d40 7022 06bf 4231 6740
00000090: 39ac f53f c109 303f aaa0 2bc0 f88a 8dbe
000000a0: 6c4a 1dc0 4359 f53f 4cf7 4d3e 90cf 8b3f
000000b0: d1c4 dc3e f65f cfbe 331d 00c0 057d 12bf
000000c0: 4b70 f2bf 579e 723f cf15 edbe 869d d03f
000000d0: 62f8 013f dd0a 70be 202c e7bf 62e3 2b3f
000000e0: 8830 ed3f 59b6 b9bf 4649 333e db97 eabf
000000f0: 2e44 22be ce8f 343e 915c 0740 24e4 b43e

gat_layer1.linear_r.weight f4 [8, 8]
6.789427 0.5040621 0.18986891 -0.78135467 -0.99823815 1.0150695 2.1719043 0.6853855
4.813189 0.2994914 -0.06619757 -1.5700547 -0.7235339 -0.1611615 2.3125246 0.31087416
0.58134013 -0.044750795 0.031613655 0.18053725 0.029474298 -0.15153636 -0.54556125 -0.3011124
-0.21182738 -2.8794043 -0.11093102 -0.73820996 -0.529252 -0.27882195 -0.42112848 -0.18976955
4.0357995 0.93340373 0.16296849 -1.4519641 -0.7763427 -0.37759236 1.1450917 0.33601588
0.7160763 -0.14726858 0.21637987 -2.7744985 -0.9100386 0.09865334 -0.7967086 -0.5675041
0.83341223 0.058305014 0.026171999 0.005552965 -0.2251651 -0.11529623 -0.50032383 -0.30644998
5.7067447 0.32425767 0.06521797 -0.79484326 -0.8275071 0.12422088 1.6315043 0.38015598
00000000: fc42 d940 370a 013f ff6c 423e dc06 48bf
00000010: 898c 7fbf cced 813f 7b00 0b40 6d75 2f3f
00000020: a505 9a40 f056 993e 9792 87bd 8df7 c8bf
00000030: 8539 39bf 8507 25be 6700 1440 e62a 9f3e
00000040: b5d2 143f 9c4c 37bd 527d 013d c2de 383e
00000050: 1574 f13c 592c 1bbe e7a9 0bbf 682b 9abe
00000060: 47e9 58be 2948 38c0 cd2f e3bd 54fb 3cbf
00000070: 0f7d 07bf c0c1 8ebe 279e d7be f352 42be
00000080: 4525 8140 8cf3 6e3f 36e1 263e f6d9 b9bf
00000090: 65be 46bf c953 c1be 5d92 923f 460a ac3e
000000a0: c750 373f 93cd 16be af92 5d3e 6291 31c0
000000b0: 4af8 68bf c30a ca3d 18f5 4bbf f347 11bf
000000c0: 815a 553f 3dd1 6e3d a966 d63c a6f5 b53b
000000d0: ae91 66be 6e20 ecbd 3915 00bf 03e7 9cbe
000000e0: a79d b640 1a05 a63e 0091 853d d97a 4bbf
000000f0: 81d7 53bf 8467 fe3d 22d5 d03f cea3 c23e

gat_layer1.attn.weight f4 [1, 8]
-5.2501283 2.0204365 1.3982549 -0.8510869 -3.1709201 -2.527016 -1.746527 1.7989901
00000000: 0d01 a8c0 d54e 0140 04fa b23f d5e0 59bf
00000010: 5bf0 4ac0 a1ba 21c0 328e dfbf 4f45 e63f

gat_layer.linear_l.weight f4 [8, 8]
-0.109345905 0.18908142 0.11205081 0.0073406324 -0.05727352 -0.08690212 0.1502662 -0.24310718
-0.089574404 0.2061229 0.26764894 0.028699517 -0.10889831 0.30841267 -0.28563783 0.16508065
0.34893012 0.050286796 -0.06904345 -0.25367624 0.25763997 0.08943325 -0.15502289 -0.28744298
-0.14749631 -0.28165284 0.044804458 0.09687091 -0.1554922 0.116775684 -0.3232529 0.25546524
-0.29937398 -0.0037320612 -0.2768523 -0.09745603 -0.27390188 0.24908808 0.26738086 -0.12463156
0.07023624 -0.21802239 -0.19570513 -0.039428797 0.017000142 -0.0203018 0.077422366 0.03415429
-0.02918193 -0.059283502 0.18991724 0.18396723 0.10468261 -0.21349528 0.07130956 0.057455678
0.00069365284 0.1541024 -0.3062595 -0.068943985 -0.13502641 0.008684906 0.2845042 0.017929396
00000000: bff0 dfbd 8f9e 413e e57a e53d b089 f03b
00000010: a397 6abd bdf9 b1bd 62df 193e 17f1 78be
00000020: c972 b7bd e211 533e 4809 893e 401b eb3c
00000030: 1406 dfbd 44e8 9d3e 1f3f 92be e70a 293e
00000040: f8a6 b23e 87f9 4d3d a766 8dbd dae1 81be
00000050: 63e9 833e c828 b73d 52be 1ebe ba2b 93be
00000060: 4609 17be cd34 90be e184 373d 4164 c63d
00000070: 5939 1fbe 1728 ef3d 6781 a5be 57cc 823e
00000080: 8c47 99be 9995 74bb 96bf 8dbe 0797 c7bd
00000090: de3c 8cbe f210 7f3e 25e6 883e d53e ffbd
000000a0: 05d8 8f3d 4341 5fbe ed66 48be 1780 21bd
000000b0: e243 8b3c f64f a6bc 9e8f 9e3d 5ee5 0b3d
000000c0: f10e efbc 42d3 72bd aa79 423e e861 3c3e
000000d0: d663 d63d 829e 5abe bf0a 923d a556 6b3d
000000e0: 41d6 353a 05cd 1d3e 0cce 9cbe 8132 8dbd
000000f0: 5d44 0abe 234b 0e3c 89aa 913e abe0 923c

gat_layer.linear_r.weight f4 [8, 8]
-0.2803147 -0.06726388 -0.10937111 0.2589002 0.035298027 0.15051748 -0.15521592 -0.28461057
0.22785796 0.065837085 -0.3405476 0.19368137 -0.30649227 0.21555643 0.12804866 -0.2710924
-0.056078024 0.071126685 0.29972818 0.026793215 -0.20372277 -0.23107351 -0.2737015 -0.3314946
0.17229328 -0.11163861 0.17805783 -0.18798013 0.21136066 0.106189445 0.14774911 -0.11732894
0.3233153 0.12968163 -0.16091174 0.30935887 -0.134516 -0.025896626 0.11387834 -0.2035963
-0.2831955 0.029710408 -0.11373841 -0.26765424 0.22669643 0.28775752 0.21803635 -0.22260663
0.25464153 -0.35005987 0.24678522 0.038526896 0.16329531 0.08418057 0.09981726 -0.33316064
-0.3029357 -0.17362718 -0.3142243 0.3113098 0.22376005 0.08064201 0.23673673 0.04340118
00000000: 6985 8fbe a5c1 89bd f6fd dfbd 918e 843e
00000010: aa94 103d 4121 1a3e ecf0 1ebe 7ab8 91be
00000020: 9953 693e 98d5 863d 415c aebe 6954 463e
00000030: 8eec 9cbe d3ba 5c3e 301f 033e a0cc 8abe
00000040: 12b2 65bd deaa 913d f975 993e 727d db3c
00000050: b49c 50be 899e 6cbe 9a22 8cbe a9b9 a9be
00000060: a66d 303e c9a2 e4bd cb54 363e dd7d 40be
00000070: ee6e 583e da79 d93d 8b4b 173e 284a f0bd
00000080: 9589 a53e 43cb 043e 0cc6 24be 4964 9e3e
00000090: 90be 09be 2925 d4bc 0c39 e93d 8c7b 50be
000000a0: 00ff 90be 3e63 f33c afef e8bd fa09 89be
000000b0: 1c23 683e f454 933e ec44 5f3e fef2 63be
000000c0: 6060 823e 0c3b b3be 44b5 7c3e 61ce 1d3d
000000d0: e336 273e dd66 ac3d fe6c cc3d 0894 aabe
000000e0: 631a 9bbe 53cb 31be 02e2 a0be 0064 9f3e
000000f0: 5b21 653e a327 a53d 1d6b 723e 70c5 313d

gat_layer.attn.weight f4 [1, 8]
-0.3297671 -0.18637466 0.19029243 -0.17635477 -0.34879857 -0.27068758 0.09894853 0.11011441
00000000: 3cd7 a8be 00d9 3ebe 05dc 423e 5896 34be
00000010: ba95 b2be 9097 8abe 87a5 ca3d aa83 e13d

gat_output.linear_l.weight f4 [1, 8]
0.07097721 0.08428759 -13.082223 -13.960977 0.08144813 -8.87366 -11.706889 -0.23152803
00000000: 805c 913d f99e ac3d c950 51c1 2960 5fc1
00000010: 47ce a63d 83fa 0dc1 6b4f 3bc1 af15 6dbe

gat_output.linear_r.weight f4 [1, 8]
-1.4731123 -1.6496015 14.426514 14.57632 -1.2989773 14.674714 14.812889 -1.0212702
00000000: f28e bcbf 2426 d3bf 00d3 6641 9b38 6941
00000010: e344 a6bf a1cb 6a41 9801 6d41 fbb8 82bf

linear1.weight f4 [8, 16]
-0.05201748 -0.17431775 -0.19839084 0.17099077 -0.23682207 0.24227127 0.08144501 0.17587736
0.104964316 0.106604874 -0.24503297 0.02856633 0.04489079 -0.2055364 0.22411588 0.238464
0.15204337 0.03539139 -0.11538008 -0.1579909 0.12194738 0.2365391 -0.01710391 0.083162576
-0.0692797 -0.0067715347 0.045823783 0.16015711 0.13652149 -0.077843726 0.2334022 0.19995672
0.037264943 -0.16412032 -0.08803907 -0.15819925 0.17599294 -0.017817855 0.013465583 0.064012885
-0.19759548 0.16229197 0.1792965 0.17791751 -0.24658018 0.03397736 -0.07712984 -0.19373843
-0.16022742 0.02961883 0.23621517 0.02722761 0.24830395 -0.043811083 -0.17192644 -0.21710995
0.0853335 0.059050083 0.1903128 0.10463029 0.21884334 -0.2429528 0.16274649 -0.09045309
0.18638045 0.058941245 0.23916045 0.08701247 0.09200755 -0.12620792 -0.055184484 0.2428957
0.23748738 -0.19299456 0.1662074 0.14078662 -0.15813819 0.007931352 -0.20218053 0.16841194
0.20872238 0.001968056 -0.22812605 0.035934746 0.10210663 -0.24210504 0.2328094 0.2066718
0.16559765 -0.16873547 -0.21682495 0.07921636 -0.11935389 0.2171998 -0.13346791 -0.1131672
-0.23859891 -0.18856353 -0.112679005 0.24756345 -0.22877792 0.2352246 0.14444211 0.17274716
0.064809084 -0.10637933 0.22708955 -0.047511637 -0.029375762 -0.06905043 0.09182605 -0.14656031
-0.18580464 -0.18762901 0.20690435 -0.092463076 0.08783683 -0.12402427 -0.06440112 0.22045365
0.14791724 -0.072672576 0.03628722 -0.0012575388 -0.24911979 -0.028213024 0.022788852 0.142986
00000000: 4810 55bd 5a80 32be f826 4bbe 3418 2f3e
00000010: 7c81 72be f615 783e a4cc a63d 3219 343e
00000020: 88f7 d63d a853 da3d ece9 7abe f003 ea3c
00000030: 68df 373d 2278 52be a27e 653e e82f 743e
00000040: 42b1 1b3e 90f6 103d 644c ecbd 5ec8 21be
00000050: 8cbf f93d 4e37 723e 801d 8cbc 2451 aa3d
00000060: 84e2 8dbd c0e3 ddbb b8b1 3b3d 3a00 243e
00000070: 4acc 0b3e 886c 9fbd fc00 6f3e 74c1 4c3e
00000080: 20a3 183d 280f 28be d44d b4bd fcfe 21be
00000090: 7e37 343e c0f6 91bc c09e 5c3c 3019 833d
000000a0: 7856 4abe de2f 263e 8099 373e 0230 363e
000000b0: 847f 7cbe d82b 0b3d 40f6 9dbd 5e63 46be
000000c0: a812 24be 30a3 f23c 64e2 713e 700c df3c
000000d0: 6443 7e3e 4073 33bd 7c0d 30be 1252 5ebe
000000e0: 54c3 ae3d 80de 713d 5ce1 423e 6848 d63d
000000f0: 7818 603e 9ec8 78be 04a7 263e 783f b9bd
00000100: 84da 3e3e 606c 713d 7ae6 743e 9833 b23d
00000110: 746e bc3d a63c 01be 2009 62bd a6b9 783e
00000120: e42f 733e 5ea0 45be 4632 2a3e 5e2a 103e
00000130: faee 21be 80f2 013c 6a08 4fbe 2e74 2c3e
00000140: 52bb 553e 80fa 003b e099 69be 5030 133d
00000150: 481d d13d 62ea 77be 9665 6e3e c6a1 533e
00000160: 6e92 293e fec8 2cbe 5c07 5ebe 303c a23d
00000170: d06f f4bd a069 5e3e d0ab 08be 34c4 e7bd
00000180: 4653 74be cc16 41be 40c4 e6bd 4681 7d3e
00000190: c244 6abe b8de 703e a2e8 133e a2e4 303e
000001a0: a0ba 843d 68dd d9bd 2a8a 683e 909b 42bd
000001b0: 70a5 f0bc 506a 8dbd 4c0f bc3d e813 16be
000001c0: 9243 3ebe d221 40be bcde 533e 485d bdbd
000001d0: cce3 b33d 7000 febd bce4 83bd 9abe 613e
000001e0: 9e77 173e 5cd5 94bd e8a1 143d 00d4 a4ba
000001f0: 4219 7fbe 001f e7bc b0af ba3c ec6a 123e

linear1.bias f4 [8]
-0.026893526 0.24315977 -0.15609375 -0.16437697 0.024376541 0.07514781 -0.16028324 -0.08688831
00000000: d04f dcbc e0fe 783e 0ad7 1fbe 7052 28be
00000010: 50b1 c73c 18e7 993d 4a21 24be 80f2 b1bd

linear2.weight f4 [1, 8]
0.1328518 0.07088927 0.15138106 0.24058011 -0.08413071 -0.06356828 -0.30856374 0.09202617
00000000: 4d0a 083e 652e 913d a303 1b3e a25a 763e
00000010: b94c acbd 1630 82bd 11fc 9dbe 3778 bc3d
