trained_models/GATv2_10_9_5_5.pt (torch, 6142 bytes, 11 tensors)

gat_layer1.linear_l.weight f4 [8, 8]
000000 c7 ce 85 bf c0 5b ff 3c a3 db ab 3e c0 54 82 40
       -1.0453728 0.03117168 0.33566007 4.0728455
000010 25 b9 e7 3f bb e7 0f bf ae 98 48 3f d4 37 25 be
       1.8103377 -0.5621297 0.7835797 -0.16134578
000020 45 8c 00 40 2f 95 04 c0 ae aa 29 be 9a 19 8e c0
       2.0085614 -2.0716054 -0.16569015 -4.440625
000030 73 a3 0e c0 0c 18 6a 3f 75 27 d5 3e ad b6 2f 3f
       -2.2287261 0.9144294 0.41631666 0.68638116
000040 5a 86 ca bf 52 fd c3 3e 9b 29 85 3d 29 bd 72 40
       -1.5822251 0.38279206 0.06502076 3.7927954
000050 5f 19 8b 3f 1c 15 4b bf f5 0e 7b be f8 29 16 bf
       1.0867118 -0.79329085 -0.24517424 -0.5865779
000060 4c 5e 03 40 c3 63 ab 3e 9c a0 58 be 7b 1d 83 c0
       2.0526304 0.3347455 -0.21155018 -4.0973487
000070 7b 12 e7 bf 99 c4 99 3f 6c 1d db 3e 3b ae 2f 3f
       -1.8052515 1.2013122 0.42795885 0.6862523
000080 ec 24 f6 3f a6 8d 1e bf 3b 89 ab 3e 68 c4 92 c0
       1.9230018 -0.6193489 0.33503136 -4.5864754
000090 cb ef d8 bf 4b 90 f4 3e 83 6c 8b be 17 ad 1c 3f
       -1.6948179 0.47766337 -0.27231225 0.61201614
0000a0 64 3e 18 bf 89 83 aa 3e d0 71 24 be b7 bf 88 40
       -0.594702 0.33303478 -0.16059041 4.2734027
0000b0 c8 e4 0f 40 01 72 a5 be 75 0f 21 be ee 7f 1b 3f
       2.2483387 -0.3231354 -0.15728553 0.6074208
0000c0 70 88 b2 bf 0a 08 4f bf ec e8 f5 be d0 2a 89 40
       -1.3947887 -0.8087164 -0.48029268 4.286476
0000d0 7c 99 db 3f aa 21 95 be 1f 29 37 3e a3 b8 68 be
       1.7156215 -0.29127246 0.1788678 -0.22726683
0000e0 4e b7 e1 3f 0d 4c 07 c0 53 fc d7 be e8 5e 89 c0
       1.7634065 -2.1140168 -0.42184696 -4.292835
0000f0 78 42 08 c0 d5 c4 84 3f e4 d3 33 3f fb 63 6d 3f
       -2.129057 1.0372568 0.70245194 0.92730683

gat_layer1.linear_r.weight f4 [8, 8]
000000 4e 2b f3 3d c8 c8 a1 be b3 48 05 3f 00 37 8c bf
       0.11873494 -0.31598496 0.52064055 -1.0954285
000010 d2 79 39 bf 7b 66 bd be 86 e7 0f bf 97 96 5e bf
       -0.7245151 -0.3699225 -0.5621265 -0.8694853
000020 54 69 f4 3f 97 95 0a 3f 4a c7 0d be 46 06 b9 c0
       1.9094644 0.54134506 -0.13845554 -5.782016
000030 4f 87 5f c0 15 46 97 3f ee c5 de 3e 92 7e 23 3f
       -3.4926336 1.1818262 0.43510383 0.63865006
000040 d6 3d f9 3f d1 43 09 3e 52 34 88 be cc 6b b5 c0
       1.9471996 0.13404776 -0.26602417 -5.669409
000050 98 ac 4e c0 50 f5 82 3f 6a dd e3 3e f9 b9 73 3f
       -3.2292843 1.0231113 0.44504863 0.95205647
000060 5e e9 c1 3f 7f bd 47 3e be 3e ef 3e b7 d7 d1 bf
       1.5149343 0.19505881 0.46727556 -1.6393956
000070 2e 6f e7 bf 25 c1 5f bf f1 00 10 bf 26 52 cf bf
       -1.8080804 -0.8740409 -0.56251436 -1.6196945
000080 d4 90 0e 40 b7 03 c3 3d 79 b0 7e 3e e8 25 ad c0
       2.2275896 0.09522193 0.24872006 -5.410877
000090 b2 7f 43 c0 91 d7 59 3f c7 3e e5 3e ea 06 0d 3f
       -3.054669 0.85094553 0.44774458 0.55088675
0000a0 22 6b af 3f 6f 23 7d 3e e8 fe 0a be ec 61 c0 c0
       1.3704569 0.24720548 -0.13573802 -6.0119534
0000b0 48 8f 5c c0 0f d5 96 3f eb 96 cd 3e d7 3b 09 3f
       -3.4462452 1.178377 0.40154204 0.53606933
0000c0 a4 7f 59 3f 16 6e 57 bf f8 aa c7 3d 7a 5c a8 bf
       0.8496039 -0.8415235 0.097494066 -1.3153222
0000d0 84 68 5b 3e 54 57 df be e7 59 b9 bf ab 6a cc bf
       0.21426588 -0.43621314 -1.4480561 -1.5970052
0000e0 bc db cb 3f 0a db 82 3e 74 58 9b be a7 f9 a6 c0
       1.5926433 0.2555774 -0.30340922 -5.217975
0000f0 0c 6c 5c c0 c8 b5 77 3f 3f d7 83 3d 97 f9 67 3f
       -3.4440947 0.9676175 0.06437539 0.9061522

gat_layer1.attn.weight f4 [1, 8]
000000 0d 43 ab bf 12 67 ec 41 3a e7 f3 bf d9 90 36 40
       -1.3379837 29.550327 -1.905494 2.8525908
000010 a6 e0 cf 3f a9 46 0f c0 58 a0 09 c0 b8 eb 9d 40
       1.6240432 -2.2386878 -2.1504116 4.9350243

gat_layer.linear_l.weight f4 [8, 8]
000000 45 99 83 3e a3 2e a5 3e 31 62 58 3e 1b 17 2e 3e
       0.25702873 0.32262143 0.21131207 0.17001002
000010 4f c3 9d bd 1b 3b 29 be 48 c7 ea 3c ec 69 13 be
       -0.07703268 -0.16526453 0.028659478 -0.14395875
000020 fe e8 09 3e 00 38 49 be 98 b6 5e bd 3d df ed 3d
       0.13467786 -0.19650269 -0.054373354 0.11614845
000030 c2 fd 0e 3e 72 2d 65 bd 7e 90 8f be d8 0c 1b 3e
       0.13963988 -0.055951543 -0.28039926 0.15141618
000040 93 ac 77 be 37 bc 94 be ba be 4b be 7d 36 ba 3c
       -0.24186926 -0.29049847 -0.19896975 0.02273106
000050 1e ae 45 be 9f 50 46 3e fd 3b 53 be 6a 9e ce 3b
       -0.19304702 0.19366692 -0.20628352 0.0063055055
000060 e2 06 1a bd 22 e0 82 be 57 a4 ef bd 3e 31 72 3c
       -0.03760422 -0.25561625 -0.11701267 0.014782248
000070 12 c2 78 3e 6a ac 04 3d d4 54 27 be 1a 8c 81 3e
       0.24292782 0.03239099 -0.16340953 0.25302202
000080 4f 11 0e be e3 88 5c be 3e e4 15 be 06 63 de bc
       -0.1387379 -0.21536593 -0.14637849 -0.027146827
000090 d6 53 a3 3e 95 c2 03 bd c7 32 9d be 63 8e 71 3d
       0.318999 -0.03216799 -0.30702803 0.05897368
0000a0 d7 c5 8c 3e ff 72 63 be 96 b9 73 3e 55 75 a9 3e
       0.2749469 -0.22211836 0.23801264 0.3309733
0000b0 81 96 a0 bd 6c 5c 17 3e 26 e0 cf 3b 13 eb 8a be
       -0.07841206 0.1478135 0.0063438592 -0.27132472
0000c0 fe 7b 3a be 4f 9d 87 3e 51 87 cb bd 40 4e 17 3c
       -0.18211362 0.26487204 -0.09937919 0.009234965
0000d0 b0 eb 59 3e f6 d8 bf bd 7a 4f 7e be e6 6f 18 3e
       0.21281314 -0.09367554 -0.24835005 0.14886436
0000e0 40 4e 60 be a7 58 6c 3c bb 02 00 3e 4f ea 3f be
       -0.2190485 0.014425433 0.12501042 -0.18741725
0000f0 69 16 49 3e 24 91 85 bd 6a 8c 96 bd 4c 54 77 be
       0.19637455 -0.06521824 -0.073510006 -0.2415325

gat_layer.linear_r.weight f4 [8, 8]
000000 36 81 95 3e 39 4f 56 3d a6 1b b4 be bf 56 5c bd
       0.29200143 0.052321646 -0.35177344 -0.053793665
000010 c7 5f 7f 3d d6 af 98 3e 22 ec 9e be 94 e6 5c be
       0.0623472 0.29821652 -0.3103953 -0.21572334
000020 a3 53 b4 3e c3 65 b8 bd 7c 2e 80 be 22 39 35 3e
       0.3522006 -0.090037845 -0.25035465 0.17697576
000030 48 07 c8 bd 56 9b 21 3e 23 ba 97 3e 48 b7 d1 bd
       -0.09767014 0.15781912 0.296342 -0.10240036
000040 81 f7 3e 3e 49 2c 97 3e fa 35 b2 3e 53 f5 af be
       0.18649103 0.29525974 0.34806806 -0.34366855
000050 c7 c1 91 3e 21 e9 04 be 10 45 8b be c4 52 80 3d
       0.28468153 -0.12979557 -0.27201128 0.06265786
000060 ee 0e ae 3e 5f 9e eb bd 00 69 a4 be bf a8 6b be
       0.33995765 -0.11504816 -0.3211136 -0.2301359
000070 35 0d 73 3e 1e 82 85 3d 84 14 7d 3e ce b7 28 be
       0.23735507 0.065189585 0.24714857 -0.16476366
000080 84 e1 b2 be 3a 8a 7b 3d ca 4f 7d 3d f2 7c c0 bd
       -0.3493768 0.06141112 0.06184367 -0.093988314
000090 ca 4e 8f be a7 c3 a3 3b 43 cd 4c 3e 64 a6 6c bd
       -0.279898 0.004997689 0.20000176 -0.05777587
0000a0 a1 46 81 be 01 e5 cc 3c 4d 2c 84 3e e4 b9 8d 3d
       -0.25249198 0.025011541 0.2581505 0.069202214
0000b0 37 f5 7c be 17 46 35 3d 1e bb 86 3e c1 89 a4 bd
       -0.24702917 0.044256296 0.26314634 -0.08034087
0000c0 da 52 af 3d dc b0 92 3e 81 67 a8 be 6e 5f 8c 3d
       0.085607246 0.28650558 -0.32891467 0.06854139
0000d0 fa c3 55 be 19 e7 a9 be f3 d3 60 be 2f ca 4f 3e
       -0.2087554 -0.33184126 -0.21955852 0.2029197
0000e0 12 b8 a4 bd e7 9a 61 3e 82 98 5c bd e3 c3 14 bd
       -0.08042921 0.22031747 -0.05385638 -0.036319625
0000f0 eb ac 2d be 4e c1 af be 6e 08 09 3e 39 7e 45 3e
       -0.16960494 -0.34327167 0.13382122 0.19286431

gat_layer.attn.weight f4 [1, 8]
000000 da d1 40 3e 22 5e 2d 3e 78 89 7e be 3d 25 86 3d
       0.18830052 0.1693044 -0.24857128 0.065500714
000010 c1 81 28 3e e9 db bd bd dc d2 1e be 4e 46 f1 3c
       0.16455747 -0.0927046 -0.15510124 0.02945247

gat_output.linear_l.weight f4 [1, 8]
000000 0f 2a 12 42 ac 6f 20 be 0a b9 bc 3c 32 12 de 41
       36.541073 -0.156676 0.023037452 27.758884
000010 fe 3d 7e be e8 3f 5c be 41 6f e9 41 c2 54 b1 bd
       -0.24828336 -0.21508753 29.179323 -0.086587444

gat_output.linear_r.weight f4 [1, 8]
000000 1e 18 22 42 1a e6 70 bf 85 ff 3f bf e1 86 21 42
       40.523552 -0.9410111 -0.74999267 40.381718
000010 bd d2 60 bf 14 52 80 bf d1 28 21 42 65 01 45 bf
       -0.8782156 -1.0025048 40.28986 -0.7695525

linear1.weight f4 [8, 16]
000000 f2 2f 58 3e c0 0b c8 bb f0 14 36 3e 34 99 57 3e
       0.2111204 -0.0061049163 0.17781425 0.21054536
000010 78 13 8b bd 30 75 3b 3d 62 de 0b be 3a cf 5e 3e
       -0.06790823 0.045766056 -0.13659051 0.21758738
000020 26 ef 41 be 26 93 24 be c6 ce 0e be c0 b7 32 3e
       -0.18938884 -0.16071758 -0.13946065 0.17452908
000030 60 32 3b 3d 84 2e 82 bd e2 40 52 be 7a 64 73 3e
       0.04570234 -0.063565284 -0.20532563 0.23768798
000040 d0 8e 86 3d 44 3a a9 3d 1e 94 3d be c2 f0 1c 3e
       0.06570208 0.082630664 -0.18513533 0.15326217
000050 1c aa 3d be 18 65 33 bd 4c d3 72 be c0 8b 02 3c
       -0.18521923 -0.043797582 -0.23713416 0.007967889
000060 dc b7 54 3e 58 cf 3e bd 7c c2 d2 bd 98 3e e0 3d
       0.20773262 -0.046584457 -0.10291001 0.10949439
000070 f0 7d 8c 3c ec e1 56 be 00 cf d3 bc 0e ae 57 be
       0.017149895 -0.2098462 -0.025855541 -0.2106249
000080 b0 e1 db bc 34 d9 b7 3d da 69 4e be 08 6a 0c 3e
       -0.026841015 0.08976975 -0.20157567 0.13712323
000090 b0 e0 c1 3d 96 3f 2e be ca 63 65 3e d8 1a 3d bd
       0.09466684 -0.17016444 0.22401348 -0.04616818
0000a0 72 19 36 be a0 8a d8 3c f6 78 4d 3e 00 8f 99 bb
       -0.17783144 0.026433289 0.20065674 -0.0046862364
0000b0 54 b1 9f 3d 34 28 52 3e 34 b9 ff 3d a0 f9 46 bc
       0.077974945 0.20523149 0.124864966 -0.012144476
0000c0 fe c8 44 3e 14 0f d0 bd 30 ab 43 be cc 2b 2b be
       0.19217297 -0.10159126 -0.19108272 -0.16715926
0000d0 e2 69 40 3e c0 f8 f9 3b a8 14 14 3d 2c 06 c3 bd
       0.18790391 0.0076285303 0.03615251 -0.095226616
0000e0 24 dd d4 bd 64 d7 03 be a8 f0 b4 bd f4 7d 88 bd
       -0.10393742 -0.12875134 -0.08834964 -0.06664649
0000f0 1a 6f 43 3e 00 c2 ca bb e8 f0 cf bd 38 f0 46 be
       0.1908535 -0.0061876774 -0.10153371 -0.19427574
000100 98 18 9b 3d 64 b9 c0 bd 10 a3 d6 bc 38 b5 22 be
       0.0757305 -0.094103605 -0.026200801 -0.15889442
000110 38 44 4b bd 56 9a 2d be 0c 19 4b 3e 10 02 ae bd
       -0.049625605 -0.16953406 0.19833773 -0.08496487
000120 d0 6b cc 3d 86 6b 24 3e a4 1d 5c 3e fe 60 07 be
       0.09981501 0.16056642 0.21495682 -0.13220593
000130 80 a4 2d 3e a4 4a 6e be 3c 95 32 3e 60 f5 02 3c
       0.16957283 -0.2327066 0.17439741 0.007993072
000140 e8 40 5f 3d 1c 8b 06 3e 38 c4 8f bd 9a 16 5c be
       0.05450526 0.13139004 -0.07019848 -0.21492997
000150 50 58 17 bd 68 20 98 3d c0 6c d3 3c be 5b 2d be
       -0.036949456 0.07428056 0.025808692 -0.16929528
000160 80 7d 99 3c f0 a9 41 be a0 88 fd 3c c0 dd 1f 3c
       0.0187366 -0.18912482 0.030948937 0.009757459
000170 ec 6e f5 3d 3c ee f7 3d 46 fa 59 be 78 52 0e 3e
       0.11984047 0.121059865 -0.21286878 0.13898647
000180 98 a9 1b 3d c2 03 47 3e 90 f1 ea 3c 98 89 2c be
       0.038003534 0.19435027 0.02867964 -0.16849363
000190 b8 64 c7 3d 58 e3 2c be b4 1f 5a be 00 d1 8c ba
       0.097360075 -0.168836 -0.21301156 -0.0010743439
0001a0 48 bd 4f bd 90 19 26 3e c0 00 18 3c 42 b1 1a 3e
       -0.050717622 0.16220689 0.009277523 0.15106681
0001b0 94 c2 74 be 40 ac 94 bc 6c 66 e2 bd 5a c3 75 3e
       -0.2390235 -0.018148541 -0.11054692 0.24000302
0001c0 18 d4 ea 3d 00 17 24 bc b8 93 41 3d 0e 9d 51 be
       0.11466235 -0.010015249 0.047260016 -0.20470068
0001d0 b4 a6 b1 bd cc 30 15 be 92 e8 24 be 72 a6 18 be
       -0.08674374 -0.14569396 -0.16104344 -0.14907244
0001e0 1e 40 78 be 00 a8 b1 bd 3e 4f 18 3e 9e e2 60 3e
       -0.24243209 -0.086746216 0.14873978 0.21961448
0001f0 50 cd e7 bc 30 93 a5 bc 1c a1 ed 3d 98 c8 30 be
       -0.028296143 -0.020211786 0.11602995 -0.1726402

linear1.bias f4 [8]
000000 e6 d5 41 be a8 f7 f6 bd 38 09 28 3d 84 5a 3c 3e
       -0.18929252 -0.120589554 0.041024417 0.18393904
000010 dc 1d c3 3d 38 80 06 bd f4 d6 a4 bd 40 b3 e2 bb
       0.095271796 -0.032837123 -0.080488116 -0.006918341

linear2.weight f4 [1, 8]
000000 17 2b a1 be 22 a7 7c be ea e7 9b 3d eb 22 ef bc
       -0.31478187 -0.24673131 0.076125935 -0.029191455
000010 82 89 aa 3e 0e ea 3f 3e 2e db 9c bd f8 a2 06 be
       0.33308035 0.18741629 -0.07658993 -0.13148105
