trained_models/model_2021-11-29_09-02-17.pt (torch, 75905 bytes, 11 tensors)

gat_layer1.linear_l.weight f4 [64, 8]
-1.6207522e-06 -3.3475106e-05 -2.0899832e-05 2.6001539e-05 4.0392943e-06 2.729436e-05 -6.9464036e-06 1.8768793e-05
-6.1386936e-06 -1.6424781e-05 2.7905295e-05 -7.3120873e-06 2.8002112e-05 7.732124e-06 -8.7970475e-06 1.8003657e-05
-1.3869745e-05 6.297383e-05 -1.7592713e-05 -7.665578e-06 -9.630318e-06 2.9379105e-05 -1.5653683e-05 1.325822e-05
-1.6228463e-05 -3.5095265e-05 1.7690554e-05 1.7436661e-05 2.3915098e-05 2.8299537e-06 -2.654029e-05 -2.7089878e-05
-1.4466461e-05 -1.3933055e-05 -8.4779695e-06 9.89983e-08 -2.244288e-05 -2.5685651e-05 -9.964634e-06 3.3870165e-05
2.4532284e-05 -2.511356e-05 -1.8897694e-05 -6.7510405e-07 2.3589251e-05 2.2729762e-05 -3.5930693e-06 3.4929122e-05
3.7569428e-06 1.2248133e-05 -6.677158e-06 9.863038e-07 7.0626593e-06 -6.198755e-06 -2.8378754e-08 3.162132e-05
-2.9085963e-05 4.3774508e-05 -2.6146285e-05 -1.2844177e-05 3.7073721e-06 -2.5784673e-05 -6.5565846e-06 -5.8466944e-06
-2.691589e-05 3.683356e-05 2.2297372e-05 -2.3639153e-05 -3.481222e-05 -4.645555e-06 3.3337514e-05 -3.9460967e-05
-3.0860167e-07 6.524557e-05 -6.9278963e-06 4.3034062e-05 -2.1612097e-05 1.2087166e-05 3.3827837e-05 8.669855e-06
-2.3244987e-05 -2.2815784e-05 -3.3788896e-05 -9.879122e-06 9.769891e-06 4.811671e-06 1.8086861e-05 -2.6913806e-06
-1.3454702e-05 -3.0258518e-05 -1.33802805e-05 -9.473359e-06 -8.575473e-06 -2.0130246e-05 -8.576399e-06 -3.867783e-06
-1.4203119e-05 -1.4957577e-05 1.3975437e-05 -2.5068995e-05 8.969347e-06 -1.19684855e-05 -1.5658002e-06 2.5790774e-05
8.791175e-06 -1.1386877e-05 -1.8807963e-05 -1.9083665e-05 -1.1360049e-05 -3.3351163e-05 -2.7324017e-05 -2.4511313e-05
-2.9988992e-06 -6.0673847e-05 2.1472048e-05 1.0773604e-05 6.131597e-06 -1.88845e-05 -6.3730113e-06 1.3523305e-06
-1.1764276e-05 5.9088943e-05 8.628941e-06 3.767525e-05 9.205131e-06 -2.0121008e-05 4.192641e-05 2.3004523e-05
1.6108135e-05 4.237217e-05 8.062503e-06 1.3329303e-05 3.0595354e-05 1.8311064e-05 -2.1853088e-05 -1.9666634e-06
5.433453e-06 -1.0197654e-05 9.608806e-06 -6.8002264e-06 3.139513e-05 1.2026543e-05 -3.1026357e-05 7.856865e-06
8.612e-06 -2.2055303e-05 -2.6422884e-05 3.1266262e-07 2.610183e-05 -2.2043881e-05 -1.6836404e-05 -2.531274e-06
1.1095342e-05 7.0750366e-06 -2.7220498e-05 2.4114224e-05 -2.7629134e-05 2.211759e-05 -1.5349771e-06 1.672539e-05
3.6150715e-05 7.705492e-05 7.664705e-06 1.776864e-05 -2.707206e-05 1.5003115e-05 1.0575819e-06 -1.1228067e-05
-2.0379153e-05 7.047997e-05 1.3121797e-05 1.631002e-05 -2.1516818e-05 4.020399e-05 4.5519108e-05 -3.3287062e-05
-1.4886767e-05 -4.487196e-05 -3.200086e-05 -6.9475004e-06 1.7349337e-05 4.8582747e-06 -3.8790877e-05 5.2870288e-05
8.91041e-07 -1.1333303e-05 -1.680628e-05 6.2269924e-06 4.74491e-07 -1.3109514e-05 2.9059283e-05 2.8404585e-05
1.9508529e-05 0.0001111578 -3.6577526e-06 1.925227e-05 -1.1332206e-06 7.93236e-06 -7.7360596e-08 -4.668269e-05
3.25194e-05 0.00010857016 5.395533e-06 1.1061447e-05 -8.923587e-06 2.4533823e-05 3.8307324e-05 -2.5591286e-05
1.636864e-05 -1.4200905e-05 1.7334773e-05 -1.2110849e-05 3.1376443e-05 3.4658224e-05 1.0018024e-05 1.894655e-05
2.2068085e-05 -2.1409332e-05 2.2062844e-05 -3.548565e-05 3.1175e-05 -2.5323247e-05 8.232333e-06 2.8440729e-05
3.2655316e-05 7.003654e-06 -9.554554e-06 -2.4386414e-05 -1.4582949e-05 -2.7020584e-05 -8.844456e-06 -9.5790765e-06
3.4575598e-05 8.0645936e-05 -1.1932742e-05 1.3283292e-05 -1.6250931e-05 5.5550873e-07 -7.594032e-06 -9.862126e-06
-2.474634e-05 -3.129882e-05 -1.6569094e-05 -1.8604527e-05 6.3807897e-06 3.7909228e-06 -2.8678061e-05 3.3174285e-05
3.313137e-06 3.317777e-05 -8.541074e-06 3.7855425e-05 6.193572e-06 -3.6210484e-05 -2.0688996e-05 3.5127837e-06
00000000: 9f88 d9b5 9f67 0cb8 0c52 afb7 e11d da37
00000010: 4689 8736 31f6 e437 2715 e9b6 ad71 9d37
00000020: fafa cdb6 f3c7 89b7 2a16 ea37 5a5a f5b6
00000030: 14e6 ea37 38b9 0137 0897 13b7 8f06 9737
00000040: 1ab2 68b7 d110 8438 1094 93b7 689b 00b7
00000050: e791 21b7 2673 f637 0750 83b7 9f6f 5e37
00000060: 5c22 88b7 4133 13b8 2d66 9437 f244 9237
00000070: 489d c837 3cea 3d36 d7a2 deb7 123f e3b7
00000080: fab4 72b7 04c2 69b7 9a3c 0eb7 e498 d433
00000090: b843 bcb7 8477 d7b7 c72d 27b7 d00f 0e38
000000a0: aeca cd37 f6aa d2b7 7d86 9eb7 cc38 35b5
000000b0: 88e1 c537 cbab be37 7620 71b6 dc80 1238
000000c0: c91f 7c36 557d 4d37 5a0c e0b6 2461 8435
000000d0: c8fb ec36 e6fe cfb6 8ac5 f3b2 22a1 0438
000000e0: a1fd f3b7 859a 3738 b854 dbb7 527d 57b7
000000f0: 2bcc 7836 2a4c d8b7 a200 dcb6 b92e c4b6
00000100: 6fc9 e1b7 bc7d 1a38 3e0b bb37 b24c c6b7
00000110: 5603 12b8 03e1 9bb6 e2d3 0b38 e482 25b8
00000120: e4ad a5b4 73d4 8838 2d76 e8b6 797f 3438
00000130: a04b b5b7 fcc9 4a37 5de2 0d38 be74 1137
00000140: 3bfe c2b7 8664 bfb7 8db8 0db8 82be 25b7
00000150: 5de9 2337 f073 a136 3db9 9737 919d 34b6
00000160: 81bb 61b7 acd3 fdb7 de7b 60b7 c4ef 1eb7
00000170: 60df 0fb7 60dd a8b7 5ae3 0fb7 01c8 81b6
00000180: ee49 6eb7 4ef2 7ab7 0b78 6a37 424b d2b7
00000190: 0d7b 1637 41cc 48b7 7c28 d2b5 4459 d837
000001a0: cf7d 1337 440a 3fb7 cbc5 9db7 dc15 a0b7
000001b0: 0a97 3eb7 8ae2 0bb8 e135 e5b7 a59d cdb7
000001c0: b240 49b6 0c7c 7eb8 df1e b437 47c0 3437
000001d0: 04be cd36 286a 9eb7 c0d7 d5b6 b981 b535
000001e0: 2e5f 45b7 45d6 7738 05c5 1037 7e05 1e38
000001f0: bd6f 1a37 89c9 a8b7 24da 2f38 d6f9 c037
00000200: f51f 8737 c5b8 3138 3044 0737 eca0 5f37
00000210: 8353 0038 b69a 9937 2651 b7b7 05fb 03b6
00000220: 0251 b636 9716 2bb7 8235 2137 802d e4b6
00000230: 44ae 0338 9cc5 4937 4c22 02b8 fad0 0337
00000240: 427c 1037 6703 b9b7 b6a6 ddb7 06dc a734
00000250: 41f5 da37 e0ea b8b7 e73b 8db7 f5de 29b6
00000260: 2226 3a37 1a66 ed36 9357 e4b7 e748 ca37
00000270: 1dc5 e7b7 2a89 b937 6905 ceb5 804d 8c37
00000280: 89a0 1738 8c98 a138 a897 0037 dd0d 9537
00000290: ce18 e3b7 e3b5 7b37 3df2 8d35 2e60 3cb7
000002a0: e6f3 aab7 a5ce 9338 b025 5c37 80d1 8837
000002b0: 047f b4b7 b5a0 2838 c5eb 3e38 b69d 0bb8
000002c0: 2dc2 79b7 e634 3cb8 a938 06b8 931e e9b6
000002d0: 6b89 9137 4304 a336 63b3 22b8 0ac1 5d38
000002e0: df2f 6f35 2a24 3eb7 36fb 8cb7 75f1 d036
000002f0: 8cbd fe34 eff0 5bb7 56c4 f337 6246 ee37
00000300: 3fa6 a337 641d e938 b677 75b6 ef7f a137
00000310: 2a19 98b5 3a15 0537 7021 a6b3 28cd 43b8
00000320: 7165 0838 29b0 e338 470b b536 8e94 3937
00000330: 84b6 15b7 fccd cd37 2dac 2038 deac d6b7
00000340: 634f 8937 6c40 6eb7 246a 9137 b32f 4bb7
00000350: 339a 0338 fc5d 1138 1613 2837 68ef 9e37
00000360: da1e b937 3198 b3b7 9913 b937 6dd6 14b8
00000370: e7c1 0238 426d d4b7 9a1d 0a37 0094 ee37
00000380: 61f7 0838 ee00 eb36 7f4c 20b7 6d91 ccb7
00000390: 4aa9 74b7 43aa e2b7 a662 14b7 d2b5 20b7
000003a0: 4405 1138 7520 a938 bd32 48b7 4edb 5e37
000003b0: 9c52 88b7 451e 1535 3dd0 feb6 8275 25b7
000003c0: 5c96 cfb7 da46 03b8 dcfd 8ab7 eb10 9cb7
000003d0: 911a d636 8f67 7e36 ab91 f0b7 9e24 0b38
000003e0: 4357 5e36 5c28 0b38 a24b 0fb7 f4c6 1e38
000003f0: 61d2 cf36 b6e0 17b8 488d adb7 2abd 6b36

gat_layer1.linear_r.weight f4 [64, 8]
-2.321749e-05 -1.8701108e-05 -1.0540159e-05 -9.646044e-06 -3.2419746e-05 -4.7065358e-05 4.7936187e-06 7.7753255e-05
-3.2340828e-05 1.6349004e-05 8.616009e-06 3.213701e-05 7.355149e-06 1.0642341e-05 -3.7387006e-05 -3.0516376e-05
1.8365752e-06 -1.9077548e-05 6.442547e-06 1.1076967e-05 -9.3185345e-06 -6.3649923e-06 1.9292807e-05 -2.1545697e-05
1.902816e-05 -4.2252992e-05 2.4480934e-05 1.8474586e-05 4.406367e-06 -4.1087857e-05 1.8022225e-05 -4.7061418e-05
1.2339224e-05 -1.5890548e-05 7.6279703e-06 -6.8102945e-06 3.02053e-05 -3.5995246e-05 2.2022046e-05 -3.7593523e-05
-2.8756207e-05 -3.1547366e-05 -1.590775e-05 2.5912052e-05 -1.4639017e-05 1.0471985e-05 3.1417414e-05 7.562647e-05
4.4778873e-05 -5.85573e-05 1.6225025e-05 -3.7933045e-05 2.3241424e-05 4.39432e-05 2.5164618e-05 8.689647e-05
1.5757201e-05 -1.5519349e-06 3.19305e-05 2.6709686e-05 -1.645929e-05 2.8209464e-05 1.315154e-05 -2.7480199e-05
-1.0079381e-05 6.405575e-05 2.6435717e-05 2.3484017e-05 -1.2385683e-06 4.8948816e-05 1.0163888e-06 -4.3911015e-05
9.792526e-06 -6.2839085e-06 -3.1714328e-05 2.3509478e-05 -4.688629e-06 -4.933576e-05 8.1899225e-06 6.1178616e-05
2.1775302e-06 1.4172172e-05 -1.5922269e-05 3.5703451e-06 -3.132868e-05 3.0127832e-05 2.8444609e-05 2.72756e-05
-3.3177825e-05 0.00012886758 -9.353431e-06 4.735831e-05 -2.8454267e-06 -4.9198585e-05 -9.191163e-08 -5.6260127e-05
2.2930859e-05 2.4244047e-05 -1.399888e-05 1.9978994e-05 2.727997e-05 3.2636213e-05 -1.3813136e-06 -4.457047e-05
1.6700642e-05 6.3565036e-05 -7.928243e-06 4.1968124e-05 1.7296969e-05 4.642691e-05 8.2946946e-07 -4.3654574e-05
-4.065765e-05 2.5736503e-05 -1.7706152e-05 -2.2324839e-05 -2.66342e-05 -8.3944375e-05 -4.8462454e-05 9.8681434e-05
3.1270585e-05 1.3348495e-06 3.4272086e-06 -2.678164e-05 3.5155717e-05 9.007679e-05 1.8561772e-05 -2.3811454e-05
8.220274e-06 -6.74841e-06 1.3816215e-06 1.5659384e-07 3.0669824e-05 -6.372161e-05 -1.3186343e-05 0.00010010224
3.2791035e-05 -3.8869777e-05 3.8160097e-06 -2.1399566e-05 -1.8748893e-05 -2.003993e-05 2.7917613e-05 -1.5969603e-05
3.127576e-05 -3.005674e-05 -1.1318846e-05 -2.0700805e-05 1.8426854e-05 1.687067e-05 2.647022e-05 3.7859743e-05
4.9481882e-06 5.2411393e-05 2.3048484e-05 -3.0253812e-05 -2.9020578e-06 6.2194165e-05 4.2383916e-05 -4.599649e-06
9.034744e-07 6.391837e-05 -1.343732e-05 -1.8198882e-05 -3.313232e-05 -4.6905545e-05 9.160376e-06 8.740063e-05
-1.2138712e-06 0.00014145958 -1.1255729e-05 4.816232e-05 1.4890827e-05 -1.945147e-05 -8.846198e-06 1.6442285e-05
2.519738e-05 2.1431551e-05 -2.557178e-05 3.958436e-06 -1.3344244e-05 1.1334196e-05 1.923781e-06 5.6516874e-05
-2.0164562e-05 -4.161075e-05 1.5364169e-05 -2.3848874e-05 -2.3991024e-05 -3.5976245e-05 9.46134e-06 -3.0366144e-05
-2.088705e-05 -3.772581e-05 5.2327264e-06 -3.5922562e-06 -2.5461859e-05 1.6111704e-05 -6.395507e-06 9.427734e-05
3.6515397e-05 -2.5386682e-06 -3.923544e-05 -2.848113e-05 -2.4131934e-05 5.5982684e-05 3.46831e-05 -8.915098e-06
1.5753834e-05 0.00013285501 -2.3380483e-06 -6.236107e-06 -1.5330817e-05 -7.7712065e-07 8.941628e-06 -7.857606e-05
-6.4013743e-06 3.8855436e-05 -6.988226e-08 -1.3601917e-05 -1.7016397e-05 -9.038507e-06 2.40366e-05 4.6814e-05
3.246452e-05 -3.901688e-05 1.41810215e-05 -3.7719263e-05 -1.0181402e-05 -4.638171e-05 -7.477455e-06 -5.065827e-05
-1.1476037e-05 0.00018163797 -1.1391273e-05 4.818363e-05 -3.4903762e-05 1.1003179e-05 -7.074999e-05 -2.3887145e-05
-2.1192604e-05 -4.002307e-06 -1.7168633e-05 2.045222e-05 1.4021279e-05 -3.7815083e-05 1.6851305e-05 -2.3154265e-05
4.2120646e-06 0.0001137165 1.4214504e-05 2.018724e-05 -2.6372683e-05 2.0790341e-05 -3.584285e-06 -4.8074045e-05
00000000: 2ec3 c2b7 53e0 9cb7 a3d5 30b7 72d5 21b7
00000010: 70fa 07b8 0b68 45b8 dfd8 a036 760f a338
00000020: b3a5 07b8 3825 8937 7a8d 1037 daca 0638
00000030: 40cc f636 828c 3237 fecf 1cb8 6bfd ffb7
00000040: 3e80 f635 b908 a0b7 0f2d d836 36d7 3937
00000050: cd56 1cb7 de92 d5b6 fdd6 a137 08bd b4b7
00000060: aa9e 9f37 ce38 31b8 685c cd37 dff9 9a37
00000070: 68da 9336 c055 2cb8 6f2e 9737 d063 45b8
00000080: 9004 4f37 b14c 85b7 c4f3 ff36 fc83 e4b6
00000090: 6361 fd37 9af9 16b8 fcbb b837 bdad 1db8
000000a0: 7c39 f1b7 ba51 04b8 a271 85b7 b55d d937
000000b0: 199a 75b7 d5b0 2f37 31c6 0338 a799 9e38
000000c0: f3d0 3b38 6c9b 75b8 fa1a 8837 4c1a 1fb8
000000d0: 94f6 c237 a74f 3838 9b18 d337 303c b638
000000e0: 552e 8437 144c d0b5 1ded 0538 9d0e e037
000000f0: 0e12 8ab7 5da3 ec37 6fa5 5c37 4785 e6b7
00000100: 9d1a 29b7 ab55 8638 45c2 dd37 8bff c437
00000110: e23c a6b5 644e 4d38 da6a 8835 182d 38b8
00000120: 944a 2437 5dda d2b6 0005 05b8 3836 c537
00000130: 0453 9db6 deed 4eb8 7367 0937 054d 8038
00000140: af21 1236 04c5 6d37 d090 85b7 109a 6f36
00000150: ea66 03b8 07bb fc37 559c ee37 e8cd e437
00000160: 6b28 0bb8 a120 0739 aeec 1cb7 99a2 4638
00000170: 0ff4 3eb6 945a 4eb8 f460 c5b3 daf8 6bb8
00000180: a55b c037 b25f cb37 bbdc 6ab7 9098 a737
00000190: 4ad7 e437 dee2 0838 9365 b9b5 2ef1 3ab8
000001a0: 5b18 8c37 384e 8538 8b03 05b7 ee06 3038
000001b0: f518 9137 84ba 4238 b5a8 5e35 be19 37b8
000001c0: d287 2ab8 b8e4 d737 ac87 94b7 3a46 bbb7
000001d0: 826c dfb7 4b0b b0b8 2a44 4bb8 31f3 ce38
000001e0: 8928 0338 1429 b335 fffe 6536 22a9 e0b7
000001f0: 2a74 1338 9ce7 bc38 1ab5 9b37 b5be c7b7
00000200: cfe9 0937 6770 e2b6 2770 b935 3024 2834
00000210: 79a3 0038 47a2 85b8 e93a 5db7 fbed d138
00000220: 1b89 0938 1b08 23b8 460b 8036 3883 b3b7
00000230: f146 9db7 6c1b a8b7 9e30 ea37 76f6 85b7
00000240: 172e 0338 5c22 fcb7 13e6 3db7 a4a6 adb7
00000250: 5e93 9a37 7d85 8d37 5d0c de37 97cb 1e38
00000260: 9d08 a636 4ed4 5b38 3e58 c137 91c9 fdb7
00000270: f9c0 42b6 3d6e 8238 62c5 3138 af56 9ab6
00000280: 4a86 7235 ea0b 8638 da70 61b7 cda9 98b7
00000290: 8ff7 0ab8 72bc 44b8 84af 1937 db4a b738
000002a0: 4cec a2b5 c454 1439 fdd6 3cb7 e601 4a38
000002b0: 9dd3 7937 b72b a3b7 226a 14b7 8aed 8937
000002c0: f65e d337 e8c7 b337 fb82 d6b7 b5d2 8436
000002d0: 17e1 5fb7 0028 3e37 4e1a 0136 880c 6d38
000002e0: 1127 a9b7 3487 2eb8 4de2 8037 110f c8b7
000002f0: 5540 c9b7 33e5 16b8 25bc 1e37 ccba feb7
00000300: 9936 afb7 c83b 1eb8 c794 af36 7e12 71b6
00000310: ed96 d5b7 9f27 8737 fd98 d6b6 c3b6 c538
00000320: 1c28 1938 fd5d 2ab6 bc90 24b8 c3ea eeb7
00000330: ef6e cab7 f3ce 6a38 b278 1138 0e92 15b7
00000340: 1a27 8437 ff4e 0b39 5de7 1cb6 c03f d1b6
00000350: ae9a 80b7 539b 50b5 0004 1637 33c9 a4b8
00000360: 63cb d6b6 b5f8 2238 2e12 96b3 ca33 64b7
00000370: 6fbe 8eb7 18a4 17b7 35a2 c937 265a 4438
00000380: 832a 0838 0ea6 23b8 06eb 6d37 c034 1eb8
00000390: cad0 2ab7 fb89 42b8 d9e6 fab6 e779 54b8
000003a0: 3489 40b7 1276 3e39 251d 3fb7 c718 4a38
000003b0: a165 12b8 4b9a 3837 9d5f 94b8 4161 c8b7
000003c0: c5c6 b1b7 8e4b 86b6 5c05 90b7 cf90 ab37
000003d0: ef3c 6b37 a39b 1eb8 e75b 8d37 683b c2b7
000003e0: 5c55 8d36 157b ee38 d47a 6e37 c557 a937
000003f0: e83a ddb7 eb66 ae37 8c89 70b6 1da3 49b8

gat_layer1.attn.weight f4 [1, 64]
-2.083472e-05 -2.3918334e-05 4.3964323e-05 -1.6302223e-05 1.7465007e-06 -2.6690717e-05 3.310502e-06 2.5037121e-05
4.4417644e-05 6.828583e-05 -1.3137717e-05 -2.30085e-05 -1.948516e-05 -6.3177213e-06 -5.946877e-05 5.642432e-05
3.5113786e-05 -8.0992495e-06 -7.2812636e-06 5.5027244e-06 8.159835e-05 8.849057e-05 -8.691864e-05 8.706941e-06
0.00011271809 0.000113411406 -2.2093627e-05 -3.5147536e-05 5.5715764e-06 7.035672e-05 -1.8286819e-05 3.3403467e-05
0.00014471816 0.00010287437 -5.2617143e-05 4.230618e-06 3.118195e-05 4.070045e-05 -1.8595626e-06 5.9460872e-05
-4.6702967e-06 -7.090681e-05 -2.3639583e-05 -6.5469903e-06 7.073644e-05 -5.294601e-05 1.8844205e-05 6.460089e-05
4.4080505e-05 0.0001784002 1.2686123e-05 0.00011650022 -6.159297e-05 -1.2497185e-05 6.3411004e-05 -1.4498799e-05
4.3230298e-06 0.00013632757 0.00011571885 1.3691416e-05 -2.0663563e-05 -8.275981e-06 -2.2422964e-05 3.360505e-05
00000000: 38c6 aeb7 3ba4 c8b7 5566 3838 c2c0 88b7
00000010: 4f69 ea35 e1e5 dfb7 fe29 5e36 cf06 d237
00000020: 154d 3a38 ad34 8f38 116a 5cb7 6102 c1b7
00000030: 1074 a3b7 d0fc d3b6 1b6e 79b8 27a9 6c38
00000040: 2447 1338 03e2 07b7 9451 f4b6 0ba4 b836
00000050: c81f ab38 0394 b938 1748 b6b8 0714 1237
00000060: 1063 ec38 49d7 ed38 b455 b9b7 616b 13b8
00000070: 7af3 ba36 7a8c 9338 a566 99b7 b31a 0c38
00000080: 7cbf 1739 42be d738 3ab1 5cb8 bbf4 8d36
00000090: 5dc9 0238 c7b5 2a38 1696 f9b5 a065 7938
000000a0: 8bb5 9cb6 ceb3 94b8 9e4d c6b7 38ae dbb6
000000b0: 5658 9438 5812 5eb8 9f13 9e37 577a 8738
000000c0: 15e3 3838 f010 3b39 7cd6 5437 9451 f438
000000d0: 792b 81b8 00ab 51b7 86fb 8438 de3f 73b7
000000e0: 8b0e 9136 27f3 0e39 16ae f238 2fb4 6537
000000f0: aa56 adb7 11d9 0ab7 f318 bcb7 26f3 0c38

gat_layer.linear_l.weight f4 [64, 64]
1.6969423e-05 2.7204537e-06 4.8105476e-06 3.5179942e-06 -1.2071167e-05 1.3549639e-05 -1.8518972e-06 5.641468e-06
-1.2334953e-05 5.372647e-06 -4.540816e-06 3.6172328e-06 -4.5857914e-06 -4.818295e-08 2.8768916e-06 -8.148407e-08
1.8291117e-05 -2.4859585e-06 -6.3919833e-06 -3.4803377e-06 1.0142815e-05 -8.376063e-06 -4.440168e-06 -3.6493159e-06
7.727495e-06 -4.4103385e-06 -1.209084e-06 9.195194e-06 -1.31153065e-05 -1.9066797e-06 9.195474e-06 -4.4865556e-06
-3.3303725e-06 -1.3636948e-05 7.850112e-07 1.5166795e-05 -1.52331895e-05 5.669027e-06 8.635045e-06 5.2786795e-06
-3.5214423e-06 -2.9205778e-06 -9.520936e-06 -1.1822928e-05 -7.703628e-06 -1.2580355e-05 -8.028721e-06 6.2343056e-06
-3.676066e-06 4.9250116e-06 4.2578868e-06 9.43245e-06 -9.441612e-06 1.6825654e-05 -5.593305e-06 1.7017494e-05
-6.121328e-06 2.0697455e-06 2.6808082e-06 -2.320918e-06 1.4289439e-05 -4.648232e-06 -1.9945752e-05 -1.1799013e-05
-2.7144854e-06 8.626377e-06 -8.8502575e-06 9.149151e-06 -7.0795577e-06 5.4599254e-06 -3.5267997e-06 7.342143e-06
-1.3160317e-05 -4.7915814e-06 1.0826717e-05 -1.4722115e-05 -1.3100646e-05 -1.5996482e-05 1.4544212e-05 -9.498001e-06
7.750265e-06 -2.7634397e-07 -8.787187e-06 -1.150116e-05 5.0552826e-06 -1.0841828e-05 9.514235e-06 -4.1822223e-06
-4.0474056e-06 -1.0504057e-05 4.0754717e-06 7.599198e-07 -1.1674775e-05 7.630567e-06 2.5966265e-06 -5.8188525e-06
1.1736111e-05 -7.760659e-06 1.6460808e-05 1.1754241e-05 -1.07828155e-05 3.0730162e-06 1.6890248e-06 5.199494e-06
4.577995e-06 3.49411e-06 -5.534906e-06 4.2165907e-06 3.7482785e-06 -1.6379148e-05 -1.07343685e-05 5.8210503e-06
6.5114627e-06 1.6848775e-05 -1.2708477e-06 -5.8784995e-06 -1.3776181e-05 1.756538e-05 3.511984e-06 1.4307711e-05
-7.549481e-06 4.222741e-06 4.6335126e-06 5.023133e-06 1.1241199e-05 6.182737e-06 -1.23614445e-05 1.5277019e-06
2.8677516e-06 -3.883646e-06 -2.8082436e-06 -1.0022543e-05 -2.904761e-06 5.5315054e-06 -6.415137e-08 -9.258604e-06
1.2680101e-06 -8.472676e-06 -8.8276556e-07 3.7767763e-06 3.199199e-06 -2.2341405e-06 6.7843935e-06 -4.69069e-06
7.3061547e-06 -8.771302e-06 -2.9444368e-07 -6.15448e-06 4.7442236e-06 -8.37261e-06 1.0991987e-05 -5.5392643e-06
1.4697548e-05 4.390844e-07 4.3931055e-07 1.9479155e-06 -1.6421862e-06 -1.459899e-05 -7.494917e-06 2.5084607e-06
-5.687587e-06 -3.96487e-06 7.776322e-06 4.6552013e-06 -1.5295676e-06 -8.543991e-06 2.0363714e-06 2.3033452e-08
-7.997443e-06 -6.7791566e-06 -9.863125e-06 2.7105852e-06 -1.1327211e-05 5.163068e-06 -8.495837e-06 9.147017e-06
-1.5593137e-06 8.457557e-06 -3.9125157e-06 4.8748084e-06 -1.0897831e-05 -3.088817e-06 8.694792e-06 2.121815e-06
6.239664e-06 -6.3776547e-06 1.0233042e-05 -4.9287524e-07 4.8662073e-06 4.483902e-06 -1.8049961e-05 -1.1874477e-05
1.0727604e-06 1.42592335e-05 -1.0738654e-05 3.7329921e-06 -1.00267025e-05 -1.7736154e-05 -2.8775744e-06 1.5436379e-05
1.2509544e-05 -1.8982963e-05 1.28125375e-05 1.2029951e-05 1.4498125e-06 2.4341616e-05 -1.0409271e-05 1.3127602e-05
-1.8032451e-05 -2.0487087e-07 -7.7222825e-07 1.5684736e-05 -6.1826e-06 2.6156422e-05 -1.3095407e-05 -1.4665164e-05
-2.0490568e-05 6.422105e-06 1.8463248e-05 3.2150367e-06 -1.668332e-07 1.3190675e-05 -2.1206952e-06 2.188979e-05
-8.305516e-06 -4.1121607e-06 -4.4503536e-06 -7.721113e-06 2.6500846e-05 -1.0978661e-05 8.632638e-06 -8.2380836e-07
-7.414231e-06 -8.781181e-06 -5.550027e-06 1.5560745e-05 2.0599846e-05 3.3360186e-05 -1.0257123e-06 7.31131e-06
-2.288563e-06 -1.4702654e-06 -1.1428951e-05 -2.041148e-05 2.2773405e-05 -1.38803025e-05 -5.607636e-06 -5.7739394e-06
-7.275008e-06 1.1181391e-05 5.734601e-06 7.897565e-06 -1.5732194e-05 -1.3602767e-05 1.6455864e-05 1.842155e-05
00000000: 8f59 8e37 0a91 3636 4a6a a136 ae16 6c36
00000010: 4485 4ab7 4253 6337 b48e f8b5 d74b bd36
00000020: 38f2 4eb7 b046 b436 505d 98b6 96bf 7236
00000030: a6df 99b6 b7f1 4eb3 9f10 4136 57fc aeb3
00000040: e06f 9937 71d4 26b6 b87a d6b6 bf8f 69b6
00000050: 0f2b 2a37 eb86 0cb7 c1fc 94b6 c5e6 74b6
00000060: 57a5 0137 85fc 93b6 cf47 a2b5 0f45 1a37
00000070: d009 5cb7 04e9 ffb5 4346 1a37 388b 96b6
00000080: 5d7f 5fb6 3fca 64b7 8fb9 5235 e374 7e37
00000090: 0d92 7fb7 9238 be36 3cdf 1037 831f b136
000000a0: eb51 6cb6 25ff 43b6 1cbc 1fb7 175b 46b7
000000b0: d53e 01b7 3710 53b7 18b3 06b7 4730 d136
000000c0: 55b2 76b6 8741 a536 f8de 8e36 1040 1e37
000000d0: 6a67 1eb7 d124 8d37 20ae bbb6 cac0 8e37
000000e0: cf65 cdb6 f5e5 0a36 efe7 3336 11c1 1bb6
000000f0: acbc 6f37 02f8 9bb6 2d51 a7b7 60f4 45b7
00000100: 812a 36b6 02ba 1037 917b 14b7 4e7f 1937
00000110: f08c edb6 6734 b736 f5ad 6cb6 875c f636
00000120: 22cb 5cb7 5fc7 a0b6 65a4 3537 01ff 76b7
00000130: d9ca 5bb7 2f30 86b7 ea02 7437 9b59 1fb7
00000140: 2207 0237 6d5c 94b4 ae6c 13b7 1bf5 40b7
00000150: 8ca0 a936 4ce5 35b7 549f 1f37 0455 8cb6
00000160: f3ce 87b6 953a 30b7 09c0 8836 4bfd 4b35
00000170: c7de 43b7 0905 0037 b441 2e36 903f c3b6
00000180: 37e6 4437 c733 02b7 5115 8a37 1534 4537
00000190: d7e7 34b7 043a 4e36 73b2 e235 5077 ae36
000001a0: ad9c 9936 5a7c 6a36 7bb8 b9b6 3d7c 8d36
000001b0: ef8a 7b36 f465 89b7 c317 34b7 7152 c336
000001c0: 0a7d da36 7856 8d37 ff91 aab5 ed3f c5b6
000001d0: 3f20 67b7 5e59 9337 6daf 6b36 270b 7037
000001e0: 8c51 fdb6 12b1 8d36 9279 9b36 628c a836
000001f0: 9598 3c37 4e75 cf36 0064 4fb7 700b cd35
00000200: 9973 4036 4450 82b6 4275 3cb6 7f26 28b7
00000210: 6aef 42b6 459b b936 97c3 89b3 6755 1bb7
00000220: 7f30 aa35 de25 0eb7 30f7 6cb5 8674 7d36
00000230: d2b1 5636 3eee 15b6 7fa5 e336 b864 9db6
00000240: 6427 f536 7528 13b7 0814 9eb4 9582 ceb6
00000250: 9230 9f36 1678 0cb7 3a6a 3837 ebdd b9b6
00000260: 7d95 7637 4dbb eb34 62da eb34 efb8 0236
00000270: 1769 dcb5 2fee 74b7 d97c fbb6 0757 2836
00000280: 00d8 beb6 f909 85b6 0c77 0237 e033 9c36
00000290: 8b4b cdb5 2958 0fb7 98a8 0836 19db c532
000002a0: c22c 06b7 8378 e3b6 cd79 25b7 80e7 3536
000002b0: 000a 3eb7 6b3e ad36 5889 0eb7 2476 1937
000002c0: 9c49 d1b5 eee4 0d37 4148 83b6 4992 a336
000002d0: d4d5 36b7 7949 4fb6 d9df 1137 8164 0e36
000002e0: 4e5e d136 a3ff d5b6 95ae 2b37 214e 04b5
000002f0: 6748 a336 6d74 9636 ff69 97b7 7e38 47b7
00000300: c4fb 8f35 f13a 6f37 2b2a 34b7 5184 7a36
00000310: 5c38 28b7 1ac8 94b7 5a1c 41b6 5f7d 8137
00000320: 15e0 5137 9a3d 9fb7 6ef5 5637 3fd4 4937
00000330: 2e97 c235 3931 cc37 7ba3 2eb7 9f3e 5c37
00000340: 6544 97b7 7afa 5bb4 1f4b 4fb5 b792 8337
00000350: 2174 cfb6 7d6a db37 58b4 5bb7 660a 76b7
00000360: 29e3 abb7 767d d736 86e1 9a37 e9c1 5736
00000370: c322 33b4 854d 5d37 4451 0eb6 f79f b737
00000380: eb57 0bb7 31fb 89b6 3f54 95b6 ee89 01b7
00000390: 224e de37 fd30 38b7 e6d4 1037 ae23 5db5
000003a0: c2c7 f8b6 e352 13b7 5e3a bab6 7288 8237
000003b0: d5cd ac37 3aec 0b38 35ab 89b5 ad53 f536
000003c0: 3795 19b6 ef55 c5b5 f9be 3fb7 5239 abb7
000003d0: 8409 bf37 72df 68b7 3a29 bcb6 c3bd c1b6
000003e0: d81b f4b6 b597 3b37 d96b c036 c97f 0437
000003f0: a1f8 83b7 7037 64b7 b30a 8a37 fa87 9a37

gat_layer.linear_r.weight f4 [64, 64]
1.4670631e-05 -9.43853e-06 2.4839344e-06 -1.7162616e-05 -1.0690994e-05 -3.5082635e-06 -7.958996e-06 -1.6308468e-05
-8.698593e-06 1.4171427e-05 5.738785e-06 1.8249415e-05 -2.9085709e-06 1.2832745e-06 2.2267408e-05 -1.2433983e-05
8.244043e-06 -8.113033e-06 8.907311e-06 -1.6281789e-05 1.7003076e-05 2.7007225e-06 -3.298473e-06 -1.7844945e-05
1.2999134e-05 -1.0185944e-05 5.6226027e-06 4.9131913e-06 -3.016197e-06 1.8027611e-05 -3.9321553e-06 -8.623119e-07
9.211019e-06 1.5020863e-05 1.7286933e-05 4.0401605e-06 1.2754703e-05 2.8495674e-06 -1.2161438e-05 1.6605554e-05
-8.630867e-06 3.7067926e-05 1.237222e-05 1.6275637e-05 -7.430636e-06 3.9734223e-06 2.8517895e-06 6.4626865e-06
1.3569472e-05 1.1513044e-06 -1.29727e-05 -9.593034e-06 1.11611735e-05 1.5110756e-05 2.4257932e-05 -1.3565048e-06
-4.8970746e-06 -2.9507585e-06 8.835309e-06 6.4874854e-07 -6.2568206e-06 -5.5401847e-06 9.457531e-06 -5.5222613e-06
1.29518585e-05 -8.0271775e-06 -2.9285495e-06 -7.5499916e-06 -7.124649e-06 4.919374e-06 -2.1135651e-05 2.4567935e-06
-6.9505927e-06 2.0429186e-05 -4.9703513e-06 1.370303e-05 -7.6105566e-06 -1.2470283e-05 1.6749675e-05 -7.867328e-06
1.0444899e-05 -2.3552278e-05 -2.991754e-06 5.814141e-06 -3.0592505e-06 3.219721e-06 -1.4300906e-06 7.0242554e-06
-5.4901607e-06 -1.0688824e-05 -8.789023e-06 1.7296174e-05 -1.0387098e-05 1.09503e-05 1.2134953e-05 1.3255574e-05
-1.7946659e-06 5.4127895e-06 9.548407e-06 -1.9516108e-05 6.109342e-06 1.6041073e-05 1.5160206e-05 1.22688225e-05
-6.387597e-06 2.9218601e-05 4.7351523e-06 4.54899e-06 9.0490275e-06 2.0590283e-05 1.7680202e-06 1.5664978e-05
3.5409775e-07 -5.228185e-06 -2.4667765e-05 1.4724628e-05 7.229542e-06 2.1639105e-06 2.1236732e-05 -8.079928e-06
6.3096086e-06 5.9029744e-06 -4.2517736e-06 2.2007767e-05 -6.1757073e-06 5.9203485e-06 1.1118756e-05 -1.4871161e-05
6.3001835e-06 1.6529613e-05 -9.470763e-06 6.201557e-06 1.5773057e-05 -3.40046e-06 6.3038783e-06 2.6046968e-05
6.237973e-06 1.3898644e-05 -7.5841117e-06 6.261082e-07 -1.3356343e-05 -1.0369904e-05 2.4847945e-05 -7.3811443e-06
1.2470308e-05 -1.7311775e-05 8.097761e-06 1.5190534e-05 -8.381551e-06 2.5891711e-06 -1.7130589e-06 1.2086063e-05
9.83618e-06 -8.323242e-07 -1.1386635e-05 1.1954096e-05 -8.119518e-06 -9.375395e-07 -5.5541286e-06 -1.8948582e-06
-6.093892e-06 1.5763111e-05 8.751387e-06 -4.0826503e-06 -1.3010521e-05 9.364329e-06 1.0181512e-05 1.1120359e-05
1.4327233e-05 -1.3848181e-06 -3.5529802e-06 7.5535418e-06 -4.910232e-06 1.4322588e-08 -9.893966e-06 -1.3264719e-06
-9.187873e-06 1.834881e-06 -8.52426e-06 2.4497229e-05 5.341324e-06 -7.824983e-06 -3.7211535e-06 4.6517152e-06
-1.3596582e-05 -1.1178435e-05 -3.2255446e-07 1.6887661e-05 1.2071869e-05 -8.581445e-06 -1.22033025e-05 -1.48591325e-05
3.3119566e-06 8.4481735e-06 -6.717631e-06 -9.2725295e-06 -1.7645747e-06 6.845853e-07 -1.3870039e-05 2.7170597e-06
8.4019275e-06 5.233662e-06 -1.1149377e-05 7.634379e-06 -1.2385917e-05 7.432318e-07 1.09972e-05 -2.0162406e-05
3.7154002e-06 -4.530217e-06 2.3680816e-06 -8.403399e-06 8.915177e-06 2.2033839e-05 -4.958286e-06 -1.995377e-05
8.647003e-06 -1.5644588e-05 1.5531125e-05 1.636294e-05 -2.0628864e-05 2.6308713e-05 -2.1994747e-06 1.8533019e-06
-6.9150076e-07 6.194782e-06 5.531302e-06 2.8946456e-06 2.3452141e-05 -1.3928253e-06 5.111118e-06 4.636538e-06
-1.0379627e-05 2.9093326e-05 2.0271551e-05 1.5898873e-05 1.2861281e-05 2.7834547e-05 -7.2152243e-06 2.3162753e-05
-6.9848065e-06 -9.7245e-06 -1.6918002e-05 -5.1174203e-07 1.1261537e-05 3.5844134e-06 2.2171214e-05 1.1114878e-05
-1.1226251e-05 4.600136e-06 9.642163e-06 1.2173384e-05 -1.5355841e-05 1.0309711e-08 8.401541e-06 -1.0504639e-05
00000000: e121 7637 2d5a 1eb7 abb1 2636 70f8 8fb7
00000010: 785d 33b7 826f 6bb6 a187 05b7 2bce 88b7
00000020: 2cf0 11b7 d1c1 6d37 ca8f c036 5216 9937
00000030: de30 43b6 fa3c ac35 e5ca ba37 8d9b 50b7
00000040: e54f 0a37 361d 08b7 9c70 1537 e094 88b7
00000050: d4a1 8e37 0f3e 3536 565b 5db6 bab1 95b7
00000060: db16 5a37 4ce4 2ab7 caa9 bc36 fedb a436
00000070: df69 4ab6 003a 9737 f5f0 83b6 9f79 67b5
00000080: 0689 1a37 1e02 7c37 6803 9137 b790 8736
00000090: 08fd 5537 323b 3f36 fa08 4cb7 284c 8b37
000000a0: 4bcd 10b7 6279 1b38 4892 4f37 aa87 8837
000000b0: ad54 f9b6 7053 8536 5f61 3f36 0eda d836
000000c0: 70a8 6337 8586 9a35 52a5 59b7 c4f1 20b7
000000d0: e040 3b37 3484 7d37 837d cb37 2611 b6b5
000000e0: 8d51 a4b6 a505 46b6 5d3b 1437 a925 2e35
000000f0: aef1 d1b6 d3e5 b9b6 c9ab 1e37 dd4b b9b6
00000100: cf4b 5937 77ac 06b7 1988 44b6 ef55 fdb6
00000110: 4510 efb6 1a11 a536 774c b1b7 64df 2436
00000120: 2339 e9b6 585f ab37 fec6 a6b6 11e6 6537
00000130: 2f5e ffb6 7537 51b7 a781 8c37 ebfd 03b7
00000140: 803c 2f37 2292 c5b7 f1c5 48b6 1717 c336
00000150: 864d 4db6 6312 5836 8af1 bfb5 e5b1 eb36
00000160: 1f38 b8b6 2654 33b7 9174 13b7 4017 9137
00000170: 3f44 2eb7 2eb7 3737 3a97 4b37 4264 5e37
00000180: 40e0 f0b5 829f b536 1932 2037 86b6 a3b7
00000190: d9fe cc36 f18f 8637 9758 7e37 31d6 4d37
000001a0: 0a55 d6b6 781a f537 a6e2 9e36 87a3 9836
000001b0: 47d1 1737 4cb9 ac37 b64c ed35 4968 8337
000001c0: d31a be34 c46d afb6 9fed ceb7 cc09 7737
000001d0: 4b95 f236 b337 1136 8925 b237 078f 07b7
000001e0: 20b7 d336 2a12 c636 75aa 8eb6 529d b837
000001f0: ec38 cfb6 68a7 c636 b28a 3a37 267f 79b7
00000200: 2a66 d336 13a9 8a37 9ee4 1eb7 f816 d036
00000210: 6250 8437 7533 64b6 e785 d336 707f da37
00000220: c84f d136 392e 6937 067b feb6 d411 2835
00000230: 0e15 60b7 66fa 2db7 8e70 d037 8cab f7b6
00000240: 9137 5137 c138 91b7 9edb 0737 d9da 7e37
00000250: 7d9e 0cb7 9fc1 2d36 41ec e5b5 3fc5 4a37
00000260: 1206 2537 e26c 5fb5 3a09 3fb7 748e 4837
00000270: 1039 08b7 39ab 7bb5 9a5d bab6 d552 feb5
00000280: 227a ccb6 063b 8437 ecd2 1237 b3fd 88b6
00000290: c347 5ab7 7d1b 1d37 43d1 2a37 9491 3a37
000002a0: ff5e 7037 fddd b9b5 bc6f 6eb6 6e74 fd36
000002b0: 92c2 a4b6 680f 7632 43fe 25b7 3a09 b2b5
000002c0: 9d25 1ab7 0846 f635 6b03 0fb7 667f cd37
000002d0: a039 b336 0c48 03b7 eeb8 79b6 ee15 9c36
000002e0: e01c 64b7 038b 3bb7 8c2b adb4 faa9 8d37
000002f0: 4888 4a37 07f9 0fb7 c9bc 4cb7 7d4b 79b7
00000300: fb42 5e36 a1bc 0d37 0368 e1b6 3691 1bb7
00000310: 53d6 ecb5 58c4 3735 5db3 68b7 bb56 3636
00000320: 01f6 0c37 d09c af36 360e 3bb7 6815 0037
00000330: 1ccd 4fb7 8082 4735 9d80 3837 7022 a9b7
00000340: 1756 7936 4502 98b6 55eb 1e36 53fc 0cb7
00000350: 6592 1537 4fd5 b837 5a5f a6b6 6562 a7b7
00000360: 9812 1137 7f3c 83b7 d648 8237 2543 8937
00000370: 260c adb7 88b1 dc37 b09a 13b6 f8be f835
00000380: 929f 39b5 c6dc cf36 8699 b936 a241 4236
00000390: 17bb c437 1df1 bab5 2b80 ab36 8f93 9b36
000003a0: 2924 2eb7 710d f437 d30c aa37 925e 8537
000003b0: c8c6 5737 3c7e e937 4e1a f2b6 a24d c237
000003c0: 085f eab6 6926 23b7 22eb 8db7 a55e 09b5
000003d0: efef 3c37 c18b 7036 52fc b937 0a7a 3a37
000003e0: 6258 3cb7 de5a 9a36 c6c4 2137 493c 4c37
000003f0: 6bd0 80b7 971e 3132 58f4 0c37 153d 30b7

gat_layer.attn.weight f4 [1, 64]
-5.4731394e-05 -4.4284225e-05 -2.9669804e-05 9.271297e-05 2.9361754e-05 2.4686387e-05 -5.9450973e-05 -0.00010199924
0.00013763172 -2.2858083e-05 0.00012589393 6.706303e-05 -4.4415432e-05 -8.885003e-05 -7.387003e-05 -3.0008553e-06
-7.4816504e-05 7.033101e-05 6.314878e-05 -0.000121806945 -8.8725074e-07 -3.858001e-06 1.2392712e-05 4.0134873e-05
-0.00012104233 8.14878e-06 9.4899675e-05 -5.2818938e-05 0.00012815498 -5.3980195e-05 2.1605817e-06 -2.1114624e-06
-2.7351327e-05 0.00010874466 4.595361e-05 4.646511e-05 4.410909e-05 -1.4372469e-06 -2.7278647e-05 -2.8021902e-06
-1.5093582e-05 6.962041e-06 -9.7732145e-06 1.1828317e-05 -1.0021515e-05 7.367281e-05 -8.177881e-06 8.289338e-05
3.752661e-05 9.567013e-06 -2.9920042e-05 0.00018558966 -9.195945e-05 6.2111158e-06 -3.3841497e-06 7.728221e-05
-5.735135e-06 1.1848058e-05 0.000105624924 -3.399706e-05 8.405826e-06 2.3511258e-05 3.250347e-06 3.3399832e-05
00000000: 638f 65b8 d3bd 39b8 6be3 f8b7 e66e c238
00000010: e34d f637 9d15 cf37 ff5a 79b8 6de8 d5b8
00000020: 3c51 1039 5cbf bfb7 6502 0439 31a4 8c38
00000030: b54a 3ab8 ff54 bab8 acea 9ab8 4d62 49b6
00000040: cee6 9cb8 ac7e 9338 be6e 8438 9b72 ffb8
00000050: 682b 6eb5 fa73 81b6 4bea 4f37 7e56 2838
00000060: 1bd8 fdb8 beb6 0837 e004 c738 e789 5db8
00000070: 5761 0639 cb68 62b8 83fe 1036 a6b2 0db6
00000080: 8770 e5b7 d80d e438 50be 4038 88e3 4238
00000090: c601 3938 6de7 c0b5 73d4 e4b7 430d 3cb6
000000a0: 713a 7db7 7a9b e936 a3f7 23b7 3c72 4637
000000b0: 1422 28b7 ca80 9a38 bb33 09b7 0bd7 ad38
000000c0: e465 1d38 0282 2037 cdfc fab7 d89a 4239
000000d0: 5bda c0b8 1469 d036 401b 63b6 9212 a238
000000e0: 6f70 c0b6 06c7 4637 f382 dd38 1198 0eb8
000000f0: bf06 0d37 0b3a c537 8920 5a36 cc16 0c38

linear_layers.0.weight f4 [64, 68]
-5.3684817e-06 -7.438892e-06 -2.7606072e-07 2.4960527e-06 -1.0490352e-06 8.623871e-06 4.1689523e-06 -6.2565214e-06
-5.2858522e-06 1.0937186e-05 7.708079e-06 -6.850408e-07 4.6183122e-06 -1.1848507e-05 7.594207e-06 -1.1244431e-05
-1.8973509e-06 3.0204774e-06 -7.851347e-06 -5.366797e-06 3.7243842e-06 -8.347608e-06 1.0645164e-05 2.3779278e-06
2.1312615e-06 -1.4210988e-06 -4.385159e-06 -1.0139142e-05 -5.9958065e-06 3.9924735e-06 3.85185e-06 5.058463e-06
7.186541e-07 1.4865944e-06 8.777881e-06 -9.825984e-06 4.695751e-06 -4.655721e-06 9.491252e-06 -8.194483e-06
5.181419e-06 1.6730869e-06 9.867487e-06 6.3367424e-06 -3.327404e-06 -1.0279529e-05 -8.56038e-06 -7.06527e-06
-9.389121e-06 -7.0988053e-06 4.815903e-06 1.1310656e-05 -7.931064e-06 -1.8018651e-06 -4.4779968e-06 -7.984228e-06
8.395644e-06 -8.224048e-06 -9.173354e-06 -4.403929e-06 2.1643707e-06 1.0990379e-05 8.097131e-06 -7.353276e-06
9.0714775e-06 2.3171726e-06 2.1436108e-06 -7.381143e-06 6.540792e-06 -1.6327209e-06 6.7331816e-06 -2.3219693e-06
2.0531144e-05 -3.8073867e-06 4.5698434e-06 1.3746207e-05 8.092057e-06 9.633093e-06 -3.5039473e-06 1.0197978e-05
1.012654e-06 -2.5425472e-05 -6.884794e-06 4.7152525e-06 5.5849673e-06 -1.0485005e-06 -1.0274963e-05 -6.2952936e-06
-9.581072e-06 1.4209234e-06 6.608511e-06 -6.77818e-07 6.644832e-07 -3.0707545e-06 -4.697451e-06 7.2317457e-06
-1.5056377e-05 -1.0096857e-05 -1.0564927e-05 1.6363113e-06 -6.844402e-06 -1.45812455e-05 5.1010193e-06 -2.3492574e-05
4.0862196e-06 1.7524604e-05 -1.4994653e-05 -1.739421e-05 4.144825e-06 -1.1125492e-06 2.0758696e-05 -1.15637395e-05
-8.482919e-06 -7.929374e-06 -1.6106025e-05 -5.4182956e-06 5.845568e-06 1.210872e-06 7.668099e-06 -7.3159586e-06
-1.3035762e-05 2.1904157e-06 -1.1038084e-05 2.3711145e-05 -1.4805393e-05 -1.3878911e-05 -4.912833e-06 6.4599963e-06
1.2208137e-05 1.586746e-05 9.265559e-06 -8.413006e-07 -1.7808768e-06 0.00010644802 -4.293576e-07 -3.38914e-06
1.0430735e-05 1.1579721e-05 1.6157176e-06 1.3159552e-05 1.719102e-05 -1.6498065e-05 8.96463e-06 1.32080595e-05
1.4031361e-05 1.0169901e-05 -1.1550325e-05 1.2768994e-05 3.867365e-06 -7.0719393e-06 -4.031078e-06 -1.15140865e-05
4.6374407e-06 -3.0115386e-06 2.3999785e-06 5.654559e-06 -1.0982642e-05 7.0227507e-06 -2.9516204e-06 -5.58419e-06
3.776078e-06 -4.498749e-06 -1.2399233e-05 -1.6099224e-06 -9.303259e-06 5.9461263e-06 1.6209842e-06 -2.0921661e-07
6.5213903e-06 2.9635428e-06 5.9783792e-06 -6.6397533e-06 -7.531136e-06 6.5475497e-06 4.74762e-06 4.5040097e-06
1.3530801e-05 1.0997631e-05 8.3174035e-07 -6.0820284e-06 6.4927985e-06 -4.8788347e-06 -5.703584e-06 6.407885e-06
-6.670065e-06 -9.1008224e-07 -9.496e-06 -3.0727674e-06 6.8491227e-06 1.1864381e-05 -1.6097803e-06 1.5283342e-05
-7.133079e-06 -6.141425e-06 6.322067e-06 -4.1545018e-06 -2.4642393e-06 5.2071564e-06 -6.274224e-06 7.763495e-06
-5.1118427e-06 0.00017362666 1.1125402e-05 -2.4864216e-06 8.445523e-06 9.319774e-06 -7.654435e-06 2.1347276e-05
2.4499306e-05 -1.5783255e-05 -1.0804308e-05 1.479793e-05 1.2286709e-05 2.0222118e-05 -1.7377684e-05 2.1714704e-05
-1.28358515e-05 -7.3989177e-06 1.0797373e-05 -1.0912637e-05 1.8322648e-07 -2.2398579e-05 -3.4006637e-06 1.5634563e-05
-2.920387e-06 1.6061347e-05 -4.980427e-08 -8.415859e-06 7.593155e-06 -1.183903e-06 -1.7264452e-05 2.5384503e-05
8.903156e-06 -1.1151646e-05 1.9650635e-05 3.4125183e-06 -3.7847183e-06 -6.735154e-07 1.4236299e-05 -3.3760036e-05
1.3403375e-05 2.4169076e-05 2.515756e-05 -2.3218238e-06 1.0481012e-05 -4.935933e-06 1.532042e-05 5.4913944e-06
3.3692634e-06 6.7094097e-06 -3.3806414e-06 -4.764891e-06 -1.3030527e-05 5.189453e-06 -2.377077e-05 1.5815072e-05
00000000: e822 b4b6 999b f9b6 7f35 94b4 dc81 2736
00000010: 93cc 8cb5 3eaf 1037 07e3 8b36 1cef d1b6
00000020: 205d b1b6 db7e 3737 f251 0137 a5e3 37b5
00000030: 00f7 9a36 f3c8 46b7 bed1 fe36 77a6 3cb7
00000040: 7ba8 feb5 68b3 4a36 47b9 03b7 6f14 b4b6
00000050: 6ff0 7936 b40c 0cb7 a298 3237 7d94 1f36
00000060: cb06 0f36 95bc beb5 3b24 93b6 491b 2ab7
00000070: 962f c9b6 16f7 8536 243f 8136 debb a936
00000080: 89e9 4035 ff86 c735 b644 1337 48da 24b7
00000090: 3290 9d36 5738 9cb6 9e3c 1f37 097b 09b7
000000a0: 0ddc ad36 d48e e035 898c 2537 34a0 d436
000000b0: 5e4c 5fb6 3e76 2cb7 8d9e 0fb7 3512 edb6
000000c0: f885 1db7 4632 eeb6 4b98 a136 e6c2 3d37
000000d0: a90f 05b7 9dd7 f1b5 b341 96b6 00f4 05b7
000000e0: 04db 0c37 04fa 09b7 41e7 19b7 76c5 93b6
000000f0: 9b3f 1136 5263 3837 ead8 0737 29bc f6b6
00000100: b331 1837 b980 1b36 f4da 0f36 89ab f7b6
00000110: fa78 db36 dd23 dbb5 97ed e136 21d3 1bb6
00000120: 4c3a ac37 6882 7fb6 a856 9936 829f 6637
00000130: 1fc3 0737 d29d 2137 5b25 6bb6 fb17 2b37
00000140: 87ea 8735 c948 d5b7 ee03 e7b6 b637 9e36
00000150: 8166 bb36 34ba 8cb5 a162 2cb7 293c d3b6
00000160: 64be 20b7 8eb6 be35 adbe dd36 4cf3 35b5
00000170: f05e 3235 2913 4eb6 cc9e 9db6 39a8 f236
00000180: a69a 7cb7 ac65 29b7 0440 31b7 3a9f db35
00000190: f7a8 e5b6 f9a1 74b7 6c29 ab36 eb11 c5b7
000001a0: 5c1c 8936 cd01 9337 8b91 7bb7 c8e9 91b7
000001b0: c713 8b36 e652 95b5 f622 ae37 e201 42b7
000001c0: dc51 0eb7 6708 05b7 6d1b 87b7 cece b5b6
000001d0: 0c25 c436 3f85 a235 3ca6 0037 9b7b f5b6
000001e0: 2cb4 5ab7 0eff 1236 3630 39b7 4ce7 c637
000001f0: ae64 78b7 78d9 68b7 ead8 a4b6 f2c2 d836
00000200: 8dd1 4c37 1c1b 8537 4673 1b37 bdd5 61b5
00000210: 7606 efb5 d83c df38 7682 e6b4 fb70 63b6
00000220: aaff 2e37 8646 4237 a2db d835 d8c7 5c37
00000230: 6f35 9037 5365 8ab7 cb66 1637 2f98 5d37
00000240: 3d68 6b37 649f 2a37 45c8 41b7 693a 5637
00000250: 6ac4 8136 7f4b edb6 b242 87b6 a02c 41b7
00000260: 509b 9b36 d719 4ab6 510f 2136 4bbc bd36
00000270: 1742 38b7 f8a4 eb36 7414 46b6 d45f bbb6
00000280: 8768 7d36 f6f3 96b6 4d06 50b7 8314 d8b5
00000290: 3115 1cb7 d684 c736 9890 d935 06a5 60b4
000002a0: 51d2 da36 47e1 4636 e399 c836 0ccb deb6
000002b0: f7b3 fcb6 06b3 db36 bf4d 9f36 2621 9736
000002c0: 5902 6337 7782 3837 c344 5f35 3a14 ccb6
000002d0: b7dc d936 dfb4 a3b6 6a61 bfb6 5003 d736
000002e0: 6ccf dfb6 604c 74b5 0251 1fb7 be35 4eb6
000002f0: 84d1 e536 210d 4737 a10f d8b5 ba34 8037
00000300: af58 efb6 7012 ceb6 2422 d436 e666 8bb6
00000310: 4f5f 25b6 22b9 ae36 2c87 d2b6 f53f 0237
00000320: 6586 abb6 8d0f 3639 3da7 3a37 66dc 26b6
00000330: 3fb1 0d37 205c 1c37 8c6b 00b7 ed12 b337
00000340: dc83 cd37 4866 84b7 2644 35b7 a044 7837
00000350: 0323 4e37 aba2 a937 4bc6 91b7 f927 b637
00000360: 9059 57b7 3844 f8b6 5d26 3537 6b15 37b7
00000370: e9bc 4434 95e4 bbb7 f536 64b6 f826 8337
00000380: defb 43b6 7bbb 8637 60e8 55b3 d731 0db7
00000390: b4c8 fe36 99e6 9eb5 21d3 90b7 cef0 d437
000003a0: c45e 1537 f417 3bb7 6bd7 a437 9e02 6536
000003b0: f7fc 7db6 a0cb 34b5 70d8 6e37 9099 0db8
000003c0: 0fdf 6037 b2be ca37 7309 d337 a1d0 1bb6
000003d0: 9bd7 2f37 579f a5b6 5a84 8037 b842 b836
000003e0: 811b 6236 6421 e136 fade 62b6 1ae2 9fb6
000003f0: b09d 5ab7 1021 ae36 5767 c7b7 9caa 8437

linear_layers.0.bias f4 [64]
-6.511697e-06 4.682165e-05 3.350527e-05 7.514189e-05 6.980134e-06 3.0106432e-05 -2.80145e-06 0.0003860417
-6.745451e-08 2.1268877e-05 0.00062474934 1.4702425e-05 2.987486e-05 2.7634695e-05 0.00010556403 0.00013904007
0.00014062932 6.1945593e-06 -1.1355008e-05 0.00013296773 4.9598743e-06 0.00030174427 -1.9403944e-06 9.697198e-05
-3.88783e-06 6.357414e-05 0.00012615739 3.5932993e-05 6.2572355e-05 0.0007488902 3.379062e-05 9.3350995e-05
3.3207791e-06 4.216886e-05 9.482745e-05 0.0015348722 5.885842e-06 0.00011364508 2.6418016e-05 -8.1100325e-06
0.00010707409 -2.8533702e-06 1.2645879e-06 -1.1152713e-05 0.00025664008 -1.197257e-05 5.622133e-06 0.0016374962
-1.0651238e-05 7.0507325e-05 7.589486e-05 0.0009465095 -3.576977e-07 0.00044638765 -5.3540434e-06 -3.1641202e-06
5.175966e-05 1.26550985e-05 4.8853803e-05 2.6022006e-08 -6.5821614e-06 0.000144951 4.163458e-06 6.008951e-06
00000000: 0d7f dab6 5d62 4438 0288 0c38 7f95 9d38
00000010: e536 ea36 128d fc37 8b00 3cb6 a465 ca39
00000020: 82db 90b3 916a b237 38c6 233a 6faa 7637
00000030: c69b fa37 0ed1 e737 4262 dd38 49cb 1139
00000040: e575 1339 dcda cf36 6381 3eb7 416d 0b39
00000050: ff6c a636 6e33 9e39 b937 02b6 6f5d cb38
00000060: 3574 82b6 1b53 8538 1e49 0439 c2b6 1638
00000070: 4739 8338 2c51 443a 67ba 0d38 6fc5 c338
00000080: 8dda 5e36 78de 3038 19de c638 c42d c93a
00000090: ff7e c536 bd54 ee38 429c dd37 5310 08b7
000000a0: f78c e038 877c 3fb6 e9ba a935 8a1c 3bb7
000000b0: a68d 8639 ccdd 48b7 c1a5 bc36 41a1 d63a
000000c0: b8b2 32b7 55dd 9338 be29 9f38 2d1f 783a
000000d0: 9909 c0b4 2309 ea39 e2a6 b3b6 2c57 54b6
000000e0: 8318 5938 3c51 5437 5fe8 4c38 ff86 df32
000000f0: 56dc dcb6 fdfd 1739 d5b3 8b36 7fa0 c936

linear_layers.2.weight f4 [64, 64]
3.336705e-08 -2.6725864e-05 -5.356768e-05 -0.00010766155 -3.8720482e-05 -5.6109504e-05 -4.5024376e-06 0.007287705
3.639673e-06 -4.691852e-05 0.011848596 -7.771658e-06 -2.9128485e-06 -2.379951e-05 -6.411515e-05 -6.489294e-05
-9.3497634e-05 1.5311449e-05 3.4786303e-06 0.0019705023 -4.370207e-06 0.005713723 -7.790146e-06 -6.231913e-05
-1.10676865e-05 -2.5272979e-05 -8.587309e-05 -4.5371704e-05 -1.7815873e-05 0.014224589 -4.1394316e-07 -2.2504679e-05
-1.0739737e-05 -4.7880876e-05 -9.435736e-05 0.029164622 9.465441e-06 -5.016137e-05 -5.9528015e-06 5.766999e-07
-3.569265e-05 1.1299732e-05 -2.271333e-06 -5.5211444e-07 0.0045574387 -5.539589e-06 9.415609e-06 0.031053666
-5.1026727e-06 -2.4254516e-05 -5.1272084e-05 0.017952345 -3.51155e-06 0.008415897 -2.847604e-06 8.592403e-06
-1.5004458e-05 -7.1880736e-06 -1.8542267e-05 -1.1242655e-05 -6.912315e-06 -5.9937516e-05 7.326485e-06 9.637359e-06
-4.7047934e-06 -5.2235075e-05 -8.001614e-05 -0.00020733973 -4.543798e-05 -0.00013074226 8.680422e-06 0.014309794
8.561674e-06 -7.3093826e-05 0.02325144 -1.3037755e-05 -1.4261514e-05 -5.6414392e-05 -0.000117052514 -0.00012320472
-0.00015959836 5.7524194e-06 -4.6703612e-06 0.0038905358 -1.1725968e-05 0.011225368 6.617736e-06 -0.00013297236
-6.1753935e-06 -5.8564663e-05 -0.00019126815 -0.000109380955 -5.8056452e-05 0.027945954 -1.3653442e-05 -6.376395e-05
7.5636763e-06 -0.000112968075 -0.00017352936 0.057311982 3.052271e-06 -9.2258684e-05 3.6499785e-06 5.7233456e-06
-8.8199646e-05 -2.5760886e-07 -8.129343e-06 -6.906787e-06 0.008938601 -1.9063037e-06 -2.779342e-06 0.06097126
-5.855543e-06 -6.0855815e-05 -0.00011237769 0.035273444 8.869104e-06 0.016526971 -1.0202203e-06 3.6829092e-06
-5.1545623e-05 -5.630125e-06 -4.725229e-05 -1.7664673e-06 7.777331e-06 -0.00012083361 7.509153e-06 -4.47718e-06
-1.1142939e-05 -3.5698088e-06 -4.7294907e-06 -8.442088e-06 -1.0131291e-05 -9.991042e-06 1.0948476e-05 2.8233728e-06
9.6153535e-06 -2.302917e-06 -1.0887067e-05 6.9976236e-06 4.3253826e-06 -8.130508e-06 9.247991e-06 -7.3570263e-06
8.1970717e-07 -4.510768e-06 2.0399518e-06 3.0775707e-06 3.3701688e-06 -8.260265e-06 2.8953796e-06 5.1310985e-06
9.587721e-06 -1.5256013e-06 -7.688179e-06 2.3662542e-06 -1.12526195e-05 3.8255294e-07 -6.351896e-06 -3.0680865e-06
-1.1150048e-05 -2.6020034e-06 -8.43308e-06 -1.0427623e-06 -5.1687994e-06 -9.367348e-06 -1.1265018e-05 -9.487966e-06
4.760661e-06 5.595388e-06 9.9931e-06 1.0550798e-05 -4.726621e-06 -9.747728e-06 1.1119938e-05 -1.00998e-05
6.69995e-06 -7.990848e-06 1.0274861e-05 -5.7670877e-06 8.083773e-06 3.096201e-06 -1.8174057e-06 1.4810466e-06
-1.1681604e-05 5.1106454e-06 -3.009581e-06 3.140878e-06 7.2510766e-06 -1.0191207e-05 -9.619571e-06 -1.7037527e-06
8.058546e-06 2.8868886e-05 2.7688982e-05 5.284452e-05 1.1423673e-05 4.43562e-05 2.863992e-06 -8.5606756e-05
2.412323e-06 3.0271778e-05 -0.00015161796 2.894511e-06 7.395492e-06 2.2688164e-05 4.577746e-05 6.292327e-05
6.6170694e-05 1.5078769e-05 -2.5338074e-06 -1.779136e-05 -7.6022325e-06 -6.712062e-05 -1.226681e-05 6.319661e-05
1.7549857e-05 1.855955e-05 7.247191e-05 3.296134e-05 1.1644915e-05 -0.00017826517 3.991407e-05 4.8643884e-05
-7.374562e-06 3.6433907e-05 6.511544e-05 -0.00038362548 1.047355e-05 4.4344568e-05 3.4942957e-05 -8.102189e-06
3.768315e-05 -8.4860744e-07 7.853395e-06 -5.205495e-06 -3.7664126e-05 2.1382417e-05 -5.1019647e-06 -0.00040751166
6.6358975e-06 2.5210275e-05 5.201306e-05 -0.00023897343 -3.8424997e-07 -9.3641975e-05 9.7225475e-06 1.0058502e-05
1.50246815e-05 2.3767867e-05 2.9455949e-05 -6.181206e-06 -5.6774284e-06 5.339286e-05 -1.0201437e-05 1.418458e-05
00000000: 764f 0f33 5b31 e0b7 dcad 60b8 5bc8 e1b8
00000010: cd67 22b8 1f57 6bb8 a513 97b6 b3cd ee3b
00000020: 1b41 7436 61ca 44b8 9d20 423c 0463 02b7
00000030: 5b7a 43b6 0fa5 c7b7 8f75 86b8 2217 88b8
00000040: 2914 c4b8 1671 8037 6a72 6936 8b23 013b
00000050: cba3 92b6 2f3a bb3b 6cb2 02b7 54b1 82b8
00000060: 5aaf 39b7 4f01 d4b7 c416 b4b8 7f4d 3eb8
00000070: 4c73 95b7 400e 693c ea3b deb4 6ec8 bcb7
00000080: d22e 34b7 b3d3 48b8 b9e1 c5b8 a5ea ee3c
00000090: c2cd 1e37 5c64 52b8 2dbe c7b6 84ce 1a35
000000a0: b1b4 15b8 fb93 3d37 346d 18b6 0435 14b5
000000b0: 9156 953b b5e0 b9b6 bcf7 1d37 4264 fe3c
000000c0: a037 abb6 2d76 cbb7 fb0c 57b8 cc10 933c
000000d0: f8a7 6bb6 d5e2 093c 7719 3fb6 1728 1037
000000e0: a8bb 7bb7 1531 f1b6 378b 9bb7 d69e 3cb7
000000f0: 55f0 e7b6 6b65 7bb8 07d6 f536 24b0 2137
00000100: dedd 9db6 fc16 5bb8 57ce a7b8 5669 59b9
00000110: a994 3eb8 dc17 09b9 21a2 1137 a073 6a3c
00000120: 1ca4 0f37 f349 99b8 ce79 be3c bbbc 5ab7
00000130: bc44 6fb7 7e9e 6cb8 177a f5b8 8430 01b9
00000140: dc59 27b9 e804 c136 19b6 9cb6 5cf8 7e3b
00000150: a6ba 44b7 9bea 373c eb0d de36 7f6e 0bb9
00000160: 3a36 cfb6 54a3 75b8 278f 48b9 7463 e5b8
00000170: a481 73b8 eaee e43c 1611 65b7 03b9 85b8
00000180: 7ccb fd36 46e9 ecb8 6ff5 35b9 f8bf 6a3d
00000190: 9ed5 4c36 017b c1b8 27f2 7436 2a0b c036
000001a0: d3f7 b8b8 7e4d 8ab4 4363 08b7 d9c0 e7b6
000001b0: 3673 123c 19dc ffb5 bb84 3ab6 00bd 793d
000001c0: bb7a c4b6 6f3f 7fb8 50ac ebb8 e37a 103d
000001d0: 83cc 1437 9263 873c 81ee 88b5 e627 7736
000001e0: b132 58b8 68ea bcb6 c330 46b8 5b17 edb5
000001f0: 627b 0237 0d68 fdb8 22f7 fb36 af3a 96b6
00000200: 8ff2 3ab7 d990 6fb6 04b2 9eb6 7ea2 0db7
00000210: 90f9 29b7 339f 27b7 59af 3737 2d79 3d36
00000220: a151 2137 d08b 1ab6 99a7 36b7 21cd ea36
00000230: c122 9136 4468 08b7 d227 1b37 60dc f6b6
00000240: d909 5c35 345b 97b6 1be6 0836 4388 4e36
00000250: 0f2b 6236 9195 0ab7 3e4e 4236 cd2b ac36
00000260: f3da 2037 43c3 ccb5 7afc 00b7 f0cb 1e36
00000270: a2c9 3cb7 ad61 cd34 5f22 d5b6 53e5 4db6
00000280: 1711 3bb7 149e 2eb6 ce7b 0db7 0af5 8bb5
00000290: a66f adb6 7428 1db7 e2fe 3cb7 812e 1fb7
000002a0: c4bd 9f36 04c0 bb36 0aa8 2737 5503 3137
000002b0: 5d99 9eb6 2c8a 23b7 c58f 3a37 5072 29b7
000002c0: 22d0 e036 6e10 06b7 3162 2c37 e882 c1b6
000002d0: 8a9f 0737 54c8 4f36 96ed f3b5 60c8 c635
000002e0: 1bfc 43b7 1c7c ab36 35f8 49b6 e0c7 5236
000002f0: 464e f336 e7fa 2ab7 be63 21b7 7fac e4b5
00000300: 3133 0737 762b f237 a345 e837 5fa5 5d38
00000310: 4da8 3f37 1b0b 3a38 0233 4036 c787 b3b8
00000320: 65e3 2136 26f0 fd37 a3fb 1eb9 523f 4236
00000330: cb26 f836 7652 be37 2c01 4038 acf5 8338
00000340: 1fc5 8a38 d2fa 7c37 7b0a 2ab6 a83e 95b7
00000350: ae16 ffb6 1cc3 8cb8 8ccd 4db7 6c88 8438
00000360: 0838 9337 55b0 9b37 0ffc 9738 f83f 0a38
00000370: 875e 4337 b1ec 3ab9 6869 2738 f906 4c38
00000380: 0173 f7b6 9cd0 1838 968e 8838 5721 c9b9
00000390: 8eb7 2f37 9efe 3938 b78f 1238 a3ee 07b7
000003a0: f90d 1e38 dccb 63b5 13c2 0337 ddaa aeb6
000003b0: 8cf9 1db8 645e b337 8b31 abb6 4aa7 d5b9
000003c0: eda9 de36 a77a d337 9928 5a38 f194 7ab9
000003d0: ea4a ceb4 a761 c4b8 061e 2337 f0c0 2837
000003e0: 8412 7c37 1b61 c737 2b18 f737 2868 cfb6
000003f0: bd80 beb6 26f2 5f38 d726 2bb7 4ffa 6d37

linear_layers.2.bias f4 [64]
0.0041437256 0.008149061 1.2011857e-08 0.0013965728 0.00074350095 0.0046951934 0.0018031347 0.00047608642
0.0014057221 0.0012982322 0.00095894 -3.8129613e-06 0.0009678599 0.004826748 0.0007731632 0.0003945004
-4.211431e-06 -3.528842e-06 -3.5751623e-06 -1.10041865e-05 -2.2946629e-06 -4.171871e-06 0.0007132522 0.0012405929
0.00029773262 0.000104099505 0.00077984197 -1.0155298e-05 2.6253403e-05 0.005686765 -9.2494165e-06 -1.1507471e-05
0.0001496621 0.0012252758 0.0010350323 -1.1154787e-05 0.0005758158 0.000714097 0.0024505171 0.0026557466
0.0006659861 -1.6528093e-06 2.48956e-05 3.4695306e-05 0.0012727325 0.0009196033 0.0013607383 0.002895779
0.0008285124 0.0011076971 -2.694119e-06 0.0005949169 0.0021230024 0.0009219371 0.0009989982 3.2598957e-05
-3.8529574e-06 0.0018310746 0.0001294712 0.002764936 0.00090041896 -1.0163225e-05 0.0017414861 -7.5182156e-06
00000000: 17c8 873b a483 053c b55c 4e32 350d b73a
00000010: 81e7 423a 23da 993b 2957 ec3a 3d9b f939
00000020: 3540 b83a 7229 aa3a 6061 7b3a 2de2 7fb6
00000030: fab7 7d3a b229 9e3b 1bae 4a3a f3d4 ce39
00000040: eb4f 8db6 0bd1 6cb6 d2ec 6fb6 9f9e 38b7
00000050: 02fe 19b6 19fc 8bb6 8bf9 3a3a 649b a23a
00000060: ff18 9c39 ff4f da38 4f6e 4c3a ac60 2ab7
00000070: c13a dc37 0b58 ba3b f12d 1bb7 3610 41b7
00000080: 9dee 1c39 6f99 a03a eca9 873a 7225 3bb7
00000090: 58f2 163a 3d32 3b3a db98 203b 090c 2e3b
000000a0: 9295 2e3a 18d6 ddb5 e5d6 d037 cd85 1138
000000b0: d1d1 a63a 8811 713a cd5a b23a 1cc7 3d3b
000000c0: 8730 593a 2630 913a 9dcc 34b6 33f4 1b3a
000000d0: 1222 0b3b 27ae 713a d1f0 823a ddba 0838
000000e0: a748 81b6 ab00 f03a a9c2 0739 ee33 353b
000000f0: 180a 6c3a b882 2ab7 9442 e43a fb44 fcb6

linear_layers.4.weight f4 [1, 64]
-0.051752657 -0.10165347 -6.820483e-06 0.0015644281 -0.009200996 -0.05855952 0.0020216142 0.0005333199
0.0015761236 0.0014556004 0.0010741968 5.411241e-06 0.0010846255 -0.060149528 -0.009545815 0.00044130042
3.0505212e-06 -8.010875e-06 1.4548732e-05 4.59441e-06 -4.052729e-06 -8.931505e-06 0.00080018956 0.0013907801
-0.003570412 0.000122041245 0.000873526 6.2067465e-06 3.0342571e-05 -0.0709627 3.087789e-06 5.1634843e-06
0.0001679567 -0.015125254 -0.012860382 7.491443e-07 0.00064687815 0.0008013141 -0.030506663 -0.0331978
0.00074855634 -4.072601e-06 2.8346973e-05 -0.000454801 0.0014269953 0.0010292677 -0.016965024 -0.035979483
0.0009277757 0.0012412021 -3.4349882e-06 0.0006677701 0.0023826198 0.0010353338 0.0011203167 3.5853496e-05
2.9031692e-06 0.0020527635 0.00014502517 -0.03444524 0.0010078566 -5.58156e-06 0.0019520958 6.3373773e-06
00000000: 98fa 53bd b22f d0bd 81db e4b6 7f0d cd3a
00000010: c6bf 16bc 1bdc 6fbd 0f7d 043b 7ece 0b3a
00000020: ef95 ce3a d8c9 be3a 10cc 8c3a 3592 b536
00000030: fe29 8e3a 5a5f 76bd 0d66 1cbc 575e e739
00000040: 8eb7 4c36 7266 06b7 5416 7437 ae29 9a36
00000050: adfc 87b6 86d8 15b7 d0c3 513a d64a b63a
00000060: 93fd 69bb 65f0 ff38 56fd 643a 8c43 d036
00000070: 2d88 fe37 e454 91bd d037 4f36 fe41 ad36
00000080: 891d 3039 eacf 77bc 5ab4 52bc ce18 4935
00000090: 4293 293a 470f 523a 1ce9 f9bc 6bfa 07bd
000000a0: c43a 443a 60a7 88b6 a9ca ed37 5b72 eeb9
000000b0: 040a bb3a 7ee8 863a 3cfa 8abc 395f 13bd
000000c0: f935 733a d5af a23a a684 66b6 4b0d 2f3a
000000d0: ba25 1c3b 0ab4 873a 97d7 923a 6661 1638
000000e0: 11d4 4236 a887 063b e611 1839 7416 0dbd
000000f0: 0e1a 843a 3c49 bbb6 77dd ff3a a8a5 d436
