trained_models/model_2021-11-29_00-00-23.pt (torch, 75905 bytes, 11 tensors)

gat_layer1.linear_l.weight f4 [64, 8]
000000 4b 5f 3c 37 78 86 88 37 cb 70 bb b5 3f 4b 1f 36
       1.122786e-05 1.627508e-05 -1.3965413e-06 2.3736645e-06
000010 7a ed 2d b7 3c 51 df b7 f0 68 8b b7 0e 3d fa b6
       -1.0366895e-05 -2.66215e-05 -1.6618957e-05 -7.4576883e-06
000020 6c ed a3 37 16 18 be 37 d0 74 e9 b6 8e 38 b2 37
       1.9541672e-05 2.266098e-05 -6.95754e-06 2.1245589e-05
000030 de e2 ad 37 b5 22 65 36 44 17 cd b7 95 12 ba 35
       2.072885e-05 3.4143861e-06 -2.4448738e-05 1.3863488e-06
000040 3e 70 bd b7 5c 55 a6 b7 c3 77 88 b7 24 6c fe 37
       -2.2582823e-05 -1.982849e-05 -1.6268232e-05 3.0329516e-05
000050 0e 9a b6 37 9f 2c 83 b7 4b 8d e1 37 98 18 01 b8
       2.1767828e-05 -1.5637195e-05 2.6887885e-05 -3.07789e-05
000060 54 e5 bd b7 1f 31 95 37 c4 8e d8 b7 55 37 85 37
       -2.2637345e-05 1.7785058e-05 -2.5815687e-05 1.5880601e-05
000070 cc c6 28 b7 e6 dc e6 37 84 c7 50 b7 1f 70 ef 36
       -1.0059866e-05 2.7521e-05 -1.24442195e-05 7.1358077e-06
000080 43 63 da b6 ca 3f 9b 37 9b ee 19 37 03 45 a1 37
       -6.508462e-06 1.8507144e-05 9.175065e-06 1.9224832e-05
000090 2b 2e cf b7 b6 2e a7 b7 22 b2 82 37 0e 03 8d 37
       -2.4697822e-05 -1.9929703e-05 1.5580157e-05 1.6809932e-05
0000a0 3c 48 ab 37 9e 4e 8d b7 67 1a 23 b7 6a 4c 7b b6
       2.0418425e-05 -1.6845119e-05 -9.721704e-06 -3.7446393e-06
0000b0 2f 96 cd b6 17 8c ed b7 4d 0d fb b6 dd 66 44 b7
       -6.1269598e-06 -2.8317836e-05 -7.4819313e-06 -1.170646e-05
0000c0 e7 7b eb 37 c7 f3 be b7 04 a4 6c 37 cd 63 8f b7
       2.807188e-05 -2.2763283e-05 1.4104884e-05 -1.7093402e-05
0000d0 79 c2 45 b7 51 43 62 b5 49 31 a8 b7 a8 c3 ba b6
       -1.1787394e-05 -8.428952e-07 -2.005011e-05 -5.5660093e-06
0000e0 4a 47 91 b7 c0 f6 e3 37 9d 52 bf b7 f9 4e 3e b4
       -1.7318544e-05 2.717541e-05 -2.2807444e-05 -1.7723859e-07
0000f0 0f 25 a2 37 f2 8d 9e 37 7a 68 de 37 7b 54 38 b7
       1.9329162e-05 1.8901166e-05 2.6513113e-05 -1.0986924e-05
000100 ff 68 fe 37 fe 28 6a b7 c4 e5 9d b7 87 71 4c 36
       3.0328052e-05 -1.3957031e-05 -1.8822851e-05 3.046445e-06
000110 e1 81 d5 b7 37 80 f7 37 fc 84 87 b7 51 6d 9c 35
       -2.5452058e-05 2.95044e-05 -1.615518e-05 1.1654721e-06
000120 06 f5 0d 35 dd 5f b0 b4 55 58 18 37 20 8d c8 b4
       5.288315e-07 -3.2852304e-07 9.080472e-06 -3.7355585e-07
000130 37 52 a5 b5 8c 4c 25 37 a1 6a 95 b7 ee 87 65 b7
       -1.2317386e-06 9.852589e-06 -1.7811837e-05 -1.3681112e-05
000140 e2 cd af 37 d1 6a 4c 37 77 f1 16 b5 6f a9 97 b7
       2.0957497e-05 1.2184218e-05 -5.623073e-07 -1.8079501e-05
000150 6b 8d ce 36 9b 60 8b 37 56 f2 b2 37 44 3a a5 36
       6.1557416e-06 1.6615077e-05 2.13321e-05 4.924166e-06
000160 cf 59 ab 37 77 9f ac b7 ae a4 81 37 f5 e0 f7 37
       2.0426609e-05 -2.0578254e-05 1.5454683e-05 2.9549448e-05
000170 36 3f 51 b7 ef 4c f9 b7 d4 bd 4a b7 51 e6 cf b5
       -1.2472088e-05 -2.9718938e-05 -1.2084336e-05 -1.5489733e-06
000180 02 92 14 b6 c2 ff 9d 37 d3 8a 82 b7 b3 d4 cf 37
       -2.2138706e-06 1.8834955e-05 -1.5561853e-05 2.4775369e-05
000190 53 e6 5e b6 a7 e8 c0 36 d8 22 54 37 24 7e d2 36
       -3.3214644e-06 5.74913e-06 1.2644297e-05 6.2731724e-06
0001a0 8b 16 fc b6 2b e1 67 b6 22 c3 09 37 67 8a ad b7
       -7.5128096e-06 -3.4552747e-06 8.211269e-06 -2.0687656e-05
0001b0 5e 69 b3 37 88 39 1c 37 b0 38 a0 37 89 6d 94 b7
       2.1387528e-05 9.31172e-06 1.9099884e-05 -1.7693981e-05
0001c0 8c 77 dd b7 0a a1 f3 37 33 ff ab 37 bb 33 93 37
       -2.6400921e-05 2.9042847e-05 2.0503625e-05 1.7547854e-05
0001d0 20 f2 b0 36 6e ff a7 37 42 75 fc 37 b8 b9 72 35
       5.273396e-06 2.0026895e-05 3.0095343e-05 9.042228e-07
0001e0 a5 bb ee 37 8a b4 dd 36 97 9c 20 37 6a 49 fa 37
       2.845919e-05 6.6073308e-06 9.573202e-06 2.9836508e-05
0001f0 f5 fe cc b7 02 c8 62 b7 89 0f d4 b7 0e 75 cc b7
       -2.4437419e-05 -1.3517218e-05 -2.5279604e-05 -2.4373203e-05
000200 88 7a ce 37 9e 3e 43 37 59 d1 1e b7 c6 67 77 37
       2.4614172e-05 1.1637485e-05 -9.466276e-06 1.4746509e-05
000210 6f a9 df b7 c2 ad e3 37 3a 31 ab b5 64 4a 8f 37
       -2.666257e-05 2.7141421e-05 -1.275482e-06 1.708157e-05
000220 79 bc 92 b7 29 cc 2e 34 95 59 0f 36 8f 2f 71 b7
       -1.749232e-05 1.6279286e-07 2.1360804e-06 -1.43757925e-05
000230 7e 6d 69 b7 86 d8 cf b7 03 17 b7 b7 2b a5 92 b6
       -1.3913375e-05 -2.477715e-05 -2.1826016e-05 -4.370367e-06
000240 99 3d d2 36 4e 53 c8 37 0d 85 f1 35 4a a8 23 b6
       6.2656586e-06 2.388065e-05 1.7994622e-06 -2.438685e-06
000250 59 dc c3 b6 8c 1c b1 37 7b 22 dc b7 b7 53 71 b7
       -5.8371047e-06 2.1113337e-05 -2.62421e-05 -1.4384211e-05
000260 db 3e c2 37 3b 13 c4 b6 2a 62 9d 37 b5 f0 d0 36
       2.3155872e-05 -5.843494e-06 1.876157e-05 6.226905e-06
000270 85 8b 09 b7 c4 36 c4 b7 2a 49 ab 37 5f 8d 00 b8
       -8.198321e-06 -2.3390523e-05 2.0418858e-05 -3.064924e-05
000280 1c c9 81 37 f7 19 64 b7 49 02 b3 36 46 9e b1 b7
       1.5471647e-05 -1.3595904e-05 5.3348817e-06 -2.1173746e-05
000290 46 ce f7 b7 1d 8f 72 b6 50 f0 c0 b6 58 97 31 b7
       -2.9540748e-05 -3.6144113e-06 -5.750022e-06 -1.058526e-05
0002a0 76 8f bf b7 b9 50 eb 35 2f 57 3d b7 30 61 39 35
       -2.2835779e-05 1.7532358e-06 -1.1285577e-05 6.9059297e-07
0002b0 a7 a5 d8 b6 e0 8a f0 b7 7e b6 79 37 3d 33 e6 37
       -6.456586e-06 -2.8674898e-05 1.4884046e-05 2.7441996e-05
0002c0 a5 cb 7f 37 a9 e0 7a b6 62 a6 ac 37 1e 61 55 36
       1.5246599e-05 -3.7383672e-06 2.0581476e-05 3.1796003e-06
0002d0 54 02 99 35 fe 8e ed 37 3b 8c c3 b5 7f 86 8a 37
       1.1400066e-06 2.8319188e-05 -1.4569445e-06 1.6513512e-05
0002e0 39 50 ca b7 40 75 00 38 f2 65 21 37 9e cf b5 37
       -2.4117633e-05 3.0626776e-05 9.620084e-06 2.167356e-05
0002f0 c2 1a 38 b7 d4 3b 59 b6 f8 bb 72 36 df 97 d6 b7
       -1.0973485e-05 -3.2370344e-06 3.6170222e-06 -2.5581508e-05
000300 76 39 ad b7 57 25 ed 37 01 44 d5 36 66 62 8b 37
       -2.0649964e-05 2.826999e-05 6.3558114e-06 1.6615912e-05
000310 21 e8 02 b6 aa 4e 3d b6 53 f8 d9 b7 7c bd 9c 37
       -1.9506626e-06 -2.8208983e-06 -2.598405e-05 1.8684885e-05
000320 fa 4e b5 37 7f 7f 08 b6 0c d5 e9 b7 8e ab 4d b6
       2.1613658e-05 -2.0339792e-06 -2.7874972e-05 -3.0647238e-06
000330 83 f1 96 37 57 79 ce 37 b5 e2 ab b6 e9 8c fe 37
       1.7993856e-05 2.4613617e-05 -5.1225893e-06 3.0344776e-05
000340 08 97 8e 36 4a f2 8e b7 69 31 89 b6 1e c4 ca b6
       4.249512e-06 -1.7040544e-05 -4.0886703e-06 -6.0429e-06
000350 c2 c6 cd 37 65 79 1c 37 52 cf bc 36 ff 3b f2 b7
       2.4530458e-05 9.326589e-06 5.626972e-06 -2.8876586e-05
000360 90 68 81 b7 05 3e 52 b6 6f 31 74 b5 cd 96 c4 b7
       -1.5426689e-05 -3.1328539e-06 -9.096902e-07 -2.3435243e-05
000370 ec d3 80 b7 14 06 bf b7 42 8b bd 37 8e be a2 37
       -1.5357473e-05 -2.2771805e-05 2.2595403e-05 1.9400639e-05
000380 bf 76 e0 b7 52 8d cb b7 f6 7c 9a 35 6f 3c bf b7
       -2.6758176e-05 -2.4265293e-05 1.1510263e-06 -2.2797116e-05
000390 33 db 31 b6 a9 21 53 b7 63 7c e4 37 c6 bb 8e 37
       -2.6502646e-06 -1.2584417e-05 2.723764e-05 1.7015158e-05
0003a0 95 14 ed 37 83 d2 14 b7 71 d0 c9 b7 b9 a9 e5 b7
       2.8262186e-05 -8.870501e-06 -2.405813e-05 -2.737796e-05
0003b0 d5 f0 15 b7 26 51 6c 37 28 f3 fe b7 ed b7 97 b6
       -8.937165e-06 1.408559e-05 -3.0392388e-05 -4.5215625e-06
0003c0 9e ed 8d 37 a7 ce d9 37 62 74 18 b7 e3 3f 02 b6
       1.6919159e-05 2.5964646e-05 -9.0870035e-06 -1.9408697e-06
0003d0 78 0c 8c b7 70 04 b0 37 1a 63 a1 b7 4a 2f 9d 37
       -1.6695107e-05 2.0982901e-05 -1.9238843e-05 1.873788e-05
0003e0 eb 5d b5 36 ff 70 02 37 57 1c f2 b7 74 42 b5 b7
       5.405154e-06 7.774913e-06 -2.8861845e-05 -2.1607826e-05
0003f0 9c f6 06 b7 3b da 97 37 00 92 00 b8 99 a9 c2 b7
       -8.044441e-06 1.8102224e-05 -3.065355e-05 -2.3205577e-05

gat_layer1.linear_r.weight f4 [64, 8]
000000 87 91 70 37 55 d9 db b7 47 f4 d3 b6 b3 da c8 36
       1.4338998e-05 -2.6208038e-05 -6.3167276e-06 5.9859244e-06
000010 18 90 5c 37 3c df fa b6 d3 92 46 b7 e0 0e 70 b7
       1.3146571e-05 -7.4765685e-06 -1.1835905e-05 -1.4308578e-05
000020 8d 9f 40 34 a7 42 ed b7 bb 33 05 37 ba b9 bf b6
       1.7939438e-07 -2.8283639e-05 7.939462e-06 -5.713865e-06
000030 3b 54 e4 b7 0a 9c fa b7 e6 ce e6 37 01 b8 8d b7
       -2.721894e-05 -2.9874984e-05 2.7514481e-05 -1.6894193e-05
000040 59 38 d4 b7 0e 25 dc b7 24 e6 d7 37 ef 6a d6 36
       -2.5298608e-05 -2.6243299e-05 2.5737165e-05 6.3901457e-06
000050 e9 ae 2d 37 e2 70 98 37 83 99 bf 36 d9 55 c9 b7
       1.0352328e-05 1.8172377e-05 5.7101147e-06 -2.4001043e-05
000060 91 d9 7e 37 fb cf d3 35 7f 00 cb b7 91 86 9e 37
       1.5190236e-05 1.5781255e-06 -2.4199717e-05 1.889773e-05
000070 82 19 03 37 d4 44 98 36 20 15 9a 37 31 22 a8 b6
       7.8141475e-06 4.5379657e-06 1.8368068e-05 -5.0107706e-06
000080 29 69 78 b7 b7 4c fe b5 68 f9 95 b6 79 29 20 b7
       -1.4806436e-05 -1.8946802e-06 -4.4695807e-06 -9.546399e-06
000090 08 2f f8 37 63 27 ea 37 c3 72 18 37 1d e6 bd b7
       2.9585804e-05 2.7913315e-05 9.086626e-06 -2.263771e-05
0000a0 92 06 c9 37 41 80 d2 37 9e 15 8a 36 cf 64 d5 37
       2.3964127e-05 2.5093674e-05 4.115237e-06 2.5438521e-05
0000b0 bd d6 35 b7 ea 4d f1 37 ed 54 49 b6 4f 0a b1 b7
       -1.0838438e-05 2.876572e-05 -3.0000767e-06 -2.1104845e-05
0000c0 c6 42 1e b7 84 92 3e b7 c7 58 3f 37 5b 17 e1 b7
       -9.433081e-06 -1.1358996e-05 1.1405157e-05 -2.6832966e-05
0000d0 ce 19 b2 36 bb 90 cf 37 62 54 ef b7 ba 93 d1 37
       5.3078174e-06 2.4743718e-05 -2.8530314e-05 2.4983532e-05
0000e0 64 19 c6 36 60 c0 ef 37 48 b9 40 37 01 8b dc b7
       5.9038157e-06 2.8580602e-05 1.1487231e-05 -2.6290772e-05
0000f0 52 b0 d3 37 e0 5d e7 37 bf fc 9e b7 96 e8 d7 b7
       2.5235266e-05 2.758106e-05 -1.8952762e-05 -2.5738304e-05
000100 7f 26 d3 b7 ab d6 4f 36 06 8e a8 b7 06 36 56 b7
       -2.5171086e-05 3.0970357e-06 -2.0093295e-05 -1.2767972e-05
000110 d2 82 32 37 1b 80 a5 b6 e9 ad 85 b7 11 79 a9 b7
       1.0640086e-05 -4.9322966e-06 -1.5935819e-05 -2.0202746e-05
000120 52 91 ac b5 2d 25 f4 37 6c 65 fd b7 79 05 78 35
       -1.2857292e-06 2.9104378e-05 -3.0207178e-05 9.2395163e-07
000130 0d 86 e9 37 3c 8d 9c b7 30 58 86 b6 14 cb 80 37
       2.7838187e-05 -1.8662417e-05 -4.0037776e-06 1.5353355e-05
000140 41 3d a9 b7 2c b1 f6 37 13 48 88 b7 10 5e ae 37
       -2.0174894e-05 2.9407987e-05 -1.6246026e-05 2.0786218e-05
000150 11 1e d3 b6 6b 9b f9 36 86 11 7d 37 0e bb 01 37
       -6.29179e-06 7.4388713e-06 1.5084055e-05 7.732551e-06
000160 94 24 94 37 c2 d0 8d b7 e7 0e 53 b7 0c 80 4e 37
       1.7660008e-05 -1.690572e-05 -1.258005e-05 1.230837e-05
000170 ce cd 84 b7 02 e2 aa b7 1f af 31 b7 e5 c3 a8 37
       -1.5831461e-05 -2.0370822e-05 -1.0590796e-05 2.0118381e-05
000180 85 0d be b7 de d9 71 b6 2d e7 a8 b7 d3 14 b3 b7
       -2.265606e-05 -3.6038614e-06 -2.013481e-05 -2.134816e-05
000190 17 4c 03 b7 ea 02 08 37 a5 1c 64 b7 34 58 80 37
       -7.8259245e-06 8.10691e-06 -1.3596528e-05 1.5299862e-05
0001a0 bd f8 09 b7 ac 41 b0 b7 a2 37 13 b7 cb 9a 4a b5
       -8.22375e-06 -2.1011416e-05 -8.774836e-06 -7.547612e-07
0001b0 72 8f 51 35 52 92 ee b7 e0 b7 57 b7 09 49 ac 37
       7.806731e-07 -2.8439947e-05 -1.285781e-05 2.0538007e-05
0001c0 ae ba d0 b7 9d 52 5d 37 48 f8 a5 35 91 a2 a7 b5
       -2.4882462e-05 1.3191861e-05 1.2365717e-06 -1.2489783e-06
0001d0 45 74 bc b6 13 69 9b b7 37 97 9b b7 ba d4 c8 b7
       -5.616372e-06 -1.8526369e-05 -1.8547855e-05 -2.3940916e-05
0001e0 85 fb b8 b7 87 07 3e b7 54 f4 9f b7 40 ee 00 b7
       -2.2051632e-05 -1.1326635e-05 -1.9068051e-05 -7.684866e-06
0001f0 6b ff 6e b6 60 71 b2 b7 da 23 23 b7 f9 31 79 36
       -3.5613436e-06 -2.1272048e-05 -9.723904e-06 3.713298e-06
000200 01 5b 64 b7 69 e4 32 b4 59 5f 3e b6 5c 3e 92 b7
       -1.36110475e-05 -1.6660637e-07 -2.8367706e-06 -1.7433595e-05
000210 ec 95 db b7 16 39 5e 37 c7 5d 85 37 ba 0a 01 38
       -2.6176647e-05 1.32455225e-05 1.5898504e-05 3.0765987e-05
000220 b9 b1 52 37 7a ad 8e 36 91 8f d1 b7 d0 d0 ba b7
       1.2558355e-05 4.252125e-06 -2.4981595e-05 -2.2270164e-05
000230 25 3c a9 37 a6 31 c3 37 cc 01 05 b7 04 b9 b8 37
       2.0174377e-05 2.326893e-05 -7.927836e-06 2.2020664e-05
000240 df 0f 98 37 06 da 92 37 26 30 99 37 ee aa 51 37
       1.8127203e-05 1.7506081e-05 1.8261442e-05 1.2497168e-05
000250 a2 e1 e2 b4 f1 e7 c9 b7 33 e6 7a 37 af e0 f5 b7
       -4.225995e-07 -2.4069073e-05 1.4954759e-05 -2.9310902e-05
000260 df 1a 7d 37 75 74 3f b7 5b b5 f3 37 6b f0 bf b7
       1.50862315e-05 -1.1411602e-05 2.9052308e-05 -2.2880928e-05
000270 9d c3 21 b7 b5 17 a2 37 c5 b3 5c b6 69 51 62 b7
       -9.641893e-06 1.9322944e-05 -3.2887194e-06 -1.34896045e-05
000280 ef 4a 12 37 fb b0 b4 b7 a2 d6 5c b7 13 d0 be 37
       8.719725e-06 -2.1540085e-05 -1.3162995e-05 2.2746657e-05
000290 55 bf af 37 29 69 eb b6 49 0e 77 35 27 ed c6 b7
       2.0950722e-05 -7.015788e-06 9.203546e-07 -2.3713872e-05
0002a0 12 ea 37 37 92 ab 0f 36 58 42 cf b7 39 95 fd 37
       1.0962149e-05 2.1408528e-06 -2.4707217e-05 3.0229437e-05
0002b0 11 02 9c 35 2e 80 94 b7 51 11 39 36 37 b5 d0 35
       1.1623507e-06 -1.7702663e-05 2.7577228e-06 1.5549948e-06
0002c0 0d 6f cf b7 3a 2f 18 37 66 61 b3 b7 d6 9b 2b b5
       -2.4728035e-05 9.070902e-06 -2.1383818e-05 -6.3929235e-07
0002d0 a4 63 87 b6 7e b5 99 b7 8b 54 0a 37 3d 2f 93 b4
       -4.034913e-06 -1.8323535e-05 8.245125e-06 -2.7415254e-07
0002e0 60 ed c4 37 88 2a 6b 37 f1 5f f0 37 63 aa f9 b7
       2.3475557e-05 1.4016994e-05 2.8654906e-05 -2.9762456e-05
0002f0 de 33 72 36 49 49 c4 b7 da 34 89 b6 20 01 f7 b7
       3.6091e-06 -2.3399147e-05 -4.089071e-06 -2.9445218e-05
000300 1f 8b 95 b5 30 ad af b7 1e bd f2 37 19 f7 bc 37
       -1.1141855e-06 -2.0942272e-05 2.8936713e-05 2.252641e-05
000310 6e b2 9a 36 28 99 8b b7 9e 21 4c 36 3a 29 ec b7
       4.6103296e-06 -1.664141e-05 3.0417937e-06 -2.815259e-05
000320 86 5d b1 b7 99 76 a6 b7 96 7b 96 b7 9c aa 0f b7
       -2.1143594e-05 -1.9843968e-05 -1.7938943e-05 -8.563187e-06
000330 e2 7d 55 37 9d 7c 91 37 01 a8 46 37 fc 55 ef 37
       1.2725099e-05 1.7343375e-05 1.1840836e-05 2.853106e-05
000340 05 4d b1 37 07 dc 95 37 f0 c6 57 b7 72 9b c0 37
       2.113591e-05 1.7864642e-05 -1.2861317e-05 2.2960568e-05
000350 35 27 eb b6 0b 87 de 36 1b 83 b7 b7 40 59 e0 37
       -7.00811e-06 6.6318366e-06 -2.187635e-05 2.6744441e-05
000360 c9 ab d1 b6 f5 6d 0a 37 28 c2 9f 37 1f d6 24 b7
       -6.248684e-06 8.251042e-06 1.9044688e-05 -9.825016e-06
000370 70 f5 ae b7 60 1d 50 35 1b fd 14 b7 a5 89 3b 37
       -2.0856707e-05 7.7528784e-07 -8.880418e-06 1.1178116e-05
000380 9b 99 ca 37 9d 78 dd b6 12 43 f1 b7 4d 7d 4a b6
       2.4151805e-05 -6.6003545e-06 -2.876067e-05 -3.017328e-06
000390 26 7f bb b7 a5 0a c8 37 8f 9f 92 37 67 93 b8 b7
       -2.2351345e-05 2.3846815e-05 1.7478857e-05 -2.2003149e-05
0003a0 9f ec 85 b7 8c 98 0a b7 a0 94 c4 36 60 8d af 37
       -1.596502e-05 -8.260959e-06 5.8585574e-06 2.0927459e-05
0003b0 21 a2 00 36 0f ce 84 b7 f5 e7 81 35 86 57 f5 b7
       1.9167858e-06 -1.583158e-05 9.678757e-07 -2.9247032e-05
0003c0 46 36 7a 37 9c de cd 37 4d 39 78 37 d3 33 d5 37
       1.4913798e-05 2.4541565e-05 1.4795293e-05 2.5415711e-05
0003d0 86 ea 4c 35 af a1 4a b6 56 7d eb b7 0b 70 48 b6
       7.63372e-07 -3.0194458e-06 -2.8072547e-05 -2.986754e-06
0003e0 41 11 d3 b7 53 02 e4 b6 7a 6c 99 37 12 ff 8a 37
       -2.5161195e-05 -6.7952e-06 1.8289535e-05 1.6569658e-05
0003f0 a3 b5 9e 37 c6 5c ca b7 cf f3 0e b7 f5 6a 9d 36
       1.8919649e-05 -2.4123477e-05 -8.520626e-06 4.691416e-06

gat_layer1.attn.weight f4 [1, 64]
000000 45 1f 69 b6 c8 20 7c 36 90 72 f8 b6 74 47 ec b5
       -3.4737907e-06 3.7570007e-06 -7.404313e-06 -1.7604166e-06
000010 c6 1f 20 35 26 fb 14 b7 03 32 35 b7 5d d9 a3 b6
       5.965088e-07 -8.8799625e-06 -1.0800085e-05 -4.883083e-06
000020 9d ba 27 37 f3 50 4d b4 55 69 0f 37 a1 0c 10 b6
       9.997425e-06 -1.9121562e-07 8.547989e-06 -2.1465023e-06
000030 44 44 1d b7 52 94 90 b6 e7 e2 39 37 d8 06 2c b7
       -9.373824e-06 -4.308801e-06 1.1079689e-05 -1.0253592e-05
000040 26 ee ce b5 6b 94 05 b6 40 cf 54 b6 15 81 06 b7
       -1.5417506e-06 -1.9904935e-06 -3.1711097e-06 -8.017077e-06
000050 40 d0 29 b6 38 e0 df b6 df aa 8a b4 cd 2b 16 36
       -2.530418e-06 -6.6720204e-06 -2.5828828e-07 2.2377237e-06
000060 58 46 f5 36 3d 7c e0 36 bc a5 c1 b5 d3 c9 0a b7
       7.309758e-06 6.6901835e-06 -1.4427856e-06 -8.272432e-06
000070 35 6d 1a b6 33 f0 4c b6 c2 8a d2 36 0c 30 88 b5
       -2.3011355e-06 -3.0538183e-06 6.2746412e-06 -1.0146773e-06
000080 c5 4d 94 36 e9 9e cc 36 11 96 c1 b6 6c e9 a5 b5
       4.4197973e-06 6.0981733e-06 -5.7693182e-06 -1.2361393e-06
000090 da 1c da 36 19 ee c5 36 38 21 05 b7 60 8d 88 b6
       6.500265e-06 5.8987757e-06 -7.935152e-06 -4.069574e-06
0000a0 d4 f2 24 b7 ae c4 e0 36 75 a2 c7 b5 88 53 17 36
       -9.8317e-06 6.6986167e-06 -1.4873937e-06 2.2549375e-06
0000b0 ad 8b d3 36 b3 d9 7f b6 98 b1 96 36 bf c2 85 b6
       6.3045504e-06 -3.8124679e-06 4.491023e-06 -3.9863803e-06
0000c0 db 3c 3d 36 b7 61 b3 b6 9c 66 db 36 58 27 01 b7
       2.8198617e-06 -5.345991e-06 6.538654e-06 -7.69816e-06
0000d0 ca 52 f5 36 7f 18 00 b7 2b ce b3 36 09 34 87 35
       7.311207e-06 -7.635098e-06 5.358617e-06 1.0073428e-06
0000e0 37 ae 2e 37 8a 06 16 b7 c9 5a 01 37 32 1e 71 b4
       1.0411771e-05 -8.942219e-06 7.710137e-06 -2.2455859e-07
0000f0 fd c7 07 37 76 ce d6 b6 b1 8c 39 36 a1 14 9f 36
       8.09319e-06 -6.401732e-06 2.7649041e-06 4.740971e-06

gat_layer.linear_l.weight f4 [64, 64]
000000 0e dd 00 37 3e 90 5f 34 b8 f1 8f b6 35 69 21 37
       7.680863e-06 2.0820968e-07 -4.289872e-06 9.620843e-06
000010 1e 4e a4 34 48 b7 cd b6 e1 ea 28 37 06 47 20 37
       3.0604218e-07 -6.130813e-06 1.0068267e-05 9.55328e-06
000020 a1 8c 94 b6 2f 38 27 36 55 87 0f 37 20 0a 00 36
       -4.427115e-06 2.4917642e-06 8.554974e-06 1.907938e-06
000030 64 2e 14 b7 79 14 20 b7 fe 90 c9 b6 d7 00 07 36
       -8.832289e-06 -9.54151e-06 -6.007146e-06 2.0117056e-06
000040 e0 c1 39 34 44 60 1f b7 4e c5 04 36 62 44 d4 35
       1.7299999e-07 -9.499552e-06 1.978438e-06 1.5815133e-06
000050 a7 66 2f b7 3c 0d 6f b6 41 67 20 b7 5f 25 32 37
       -1.0454713e-05 -3.5621479e-06 -9.560784e-06 1.0618328e-05
000060 a7 f1 d3 b5 cd ca 10 37 3c e9 0e b2 4e a4 85 b6
       -1.5791055e-06 8.630287e-06 -8.318519e-09 -3.9828365e-06
000070 51 4d 91 36 d7 ed d2 35 0c 0d c1 36 a0 86 5b b6
       4.3303376e-06 1.571544e-06 5.753367e-06 -3.2711905e-06
000080 93 20 9b 36 58 9e 32 b7 b1 31 16 b7 f0 78 14 b7
       4.623152e-06 -1.0646494e-05 -8.952266e-06 -8.849645e-06
000090 8d 63 b0 36 a6 dc 13 b7 17 b2 14 36 f6 46 ad 36
       5.256798e-06 -8.8132565e-06 2.215738e-06 5.1640627e-06
0000a0 ed c8 8e b6 48 c9 38 b5 e3 ca f1 36 c8 19 1d b5
       -4.2553206e-06 -6.8838244e-07 7.205979e-06 -5.8524574e-07
0000b0 c1 e6 be b6 ed 18 98 b6 a7 b9 30 b6 8c 6e 9d b5
       -5.6893045e-06 -4.5328547e-06 -2.6334108e-06 -1.1729585e-06
0000c0 59 33 08 36 eb 9e 2f 37 66 1a 9c b6 7b d1 7c b6
       2.0295467e-06 1.0467814e-05 -4.6522355e-06 -3.767286e-06
0000d0 5f fa d5 b6 75 ea 14 37 f0 aa 62 36 f5 2c aa b5
       -6.3770417e-06 8.876076e-06 3.3776123e-06 -1.2679071e-06
0000e0 da 9a ee b6 a1 1c f1 36 0c 96 21 37 3b 99 9a b6
       -7.11098e-06 7.1856925e-06 9.631283e-06 -4.607396e-06
0000f0 e3 36 be 35 27 aa 66 36 58 c7 41 36 99 3f 01 37
       1.4172077e-06 3.4371712e-06 2.8875274e-06 7.703807e-06
000100 6e 7a 05 37 bb f5 0d 37 16 ff eb b6 8d f4 3a b3
       7.955923e-06 8.4614685e-06 -7.0332417e-06 -4.3528917e-08
000110 3a ac 31 b6 99 dc 0f b6 60 32 32 37 2c 20 36 b7
       -2.6475304e-06 -2.1437065e-06 1.0621356e-05 -1.0855536e-05
000120 87 ed db b6 b8 02 3e 34 1a 2e ac b6 29 9d af 36
       -6.5543604e-06 1.7696118e-07 -5.1313664e-06 5.2337023e-06
000130 71 4a 29 b6 a0 12 ea b6 37 33 7a 36 e5 34 0a 37
       -2.5226293e-06 -6.9759117e-06 3.7282714e-06 8.237756e-06
000140 3d 99 c7 b6 2f a1 f0 b6 3b e2 08 35 a2 e8 cc b5
       -5.9485014e-06 -7.1713216e-06 5.0993157e-07 -1.526689e-06
000150 09 26 e4 36 ef 5b f1 35 8e 04 e1 b5 09 40 10 37
       6.7993574e-06 1.7982655e-06 -1.6765132e-06 8.597978e-06
000160 48 b4 fb 36 6b 5f 58 36 5a d7 01 b7 b6 66 35 37
       7.5013704e-06 3.2242049e-06 -7.73914e-06 1.0812355e-05
000170 5e 1c 89 b6 af ff 0c 36 7e b7 dd b6 55 77 03 37
       -4.0862205e-06 2.1010453e-06 -6.6076745e-06 7.835993e-06
000180 97 dd 6d b5 64 55 b0 b5 22 87 8b 34 01 91 27 b7
       -8.8611836e-07 -1.3137874e-06 2.598909e-07 -9.987737e-06
000190 c2 87 dd 36 9e ef f2 b6 84 0e 1f b7 e7 39 ec b6
       6.6021175e-06 -7.240057e-06 -9.480518e-06 -7.040089e-06
0001a0 f9 c1 c3 b6 6c e5 27 37 47 30 03 b6 0a 77 d2 36
       -5.8340343e-06 1.0007392e-05 -1.9548622e-06 6.2723457e-06
0001b0 15 dd 15 37 80 6c 10 b6 65 6e ca 35 85 1f 96 b6
       8.932567e-06 -2.1520827e-06 1.5082302e-06 -4.4740177e-06
0001c0 cd 75 8d 36 c4 e0 ab 36 9b 23 99 36 49 98 04 37
       4.2158413e-06 5.1223633e-06 4.5639003e-06 7.90327e-06
0001d0 2a 37 49 b6 1f 6e d4 36 3e fb 01 37 c2 60 de b6
       -2.9983444e-06 6.330912e-06 7.747496e-06 -6.6273797e-06
0001e0 2c 5b 08 37 ac 2f 83 b6 e7 6c f6 b6 d6 b1 c9 b6
       8.127459e-06 -3.909654e-06 -7.344049e-06 -6.0109696e-06
0001f0 69 de 6b 36 dc c4 2e 37 6e 74 96 b6 76 be 11 36
       3.5147189e-06 1.0417043e-05 -4.4839026e-06 2.1717547e-06
000200 3c 96 33 37 07 80 49 36 69 0c 73 34 45 57 f9 36
       1.0704211e-05 3.0025856e-06 2.2635653e-07 7.430938e-06
000210 8b 9a 97 b6 90 6b 02 37 01 5e 2d b7 6d 4c 2f 36
       -4.518142e-06 7.773648e-06 -1.03334905e-05 2.6121518e-06
000220 03 25 d7 b6 f7 16 0e b6 49 23 fe 35 52 03 7a b6
       -6.411808e-06 -2.1173016e-06 1.8934744e-06 -3.7254836e-06
000230 61 d6 49 35 10 ce 74 b6 eb 56 15 37 a8 f0 2c b6
       7.51903e-07 -3.6478777e-06 8.901329e-06 -2.5770078e-06
000240 ed 82 24 37 d3 03 f6 b6 ae 64 d7 b6 3c 2b de b6
       9.805645e-06 -7.3318165e-06 -6.41922e-06 -6.6211487e-06
000250 57 e4 f1 b5 52 94 3b b5 36 b1 25 b7 11 da 50 36
       -1.8022355e-06 -6.9878763e-07 -9.8760265e-06 3.1121347e-06
000260 b4 fa 15 b7 70 e6 24 36 75 3e 0f b7 2c 00 0b 37
       -8.939463e-06 2.4572037e-06 -8.538006e-06 8.285086e-06
000270 2d 0f ec b6 58 81 f7 35 ca b0 91 b6 85 b6 e0 36
       -7.035115e-06 1.8440578e-06 -4.3419177e-06 6.6969683e-06
000280 07 46 27 37 72 44 be b6 61 78 78 36 29 68 cf 36
       9.97028e-06 -5.6704093e-06 3.702495e-06 6.1812066e-06
000290 bd ac b6 34 bf 36 68 b5 72 90 72 b5 4c 5f 25 37
       3.4025825e-07 -8.65064e-07 -9.036222e-07 9.856954e-06
0002a0 33 05 ad b6 55 8d c6 b6 8f c1 0d 37 af 2e 29 b7
       -5.156407e-06 -5.917313e-06 8.449321e-06 -1.0084054e-05
0002b0 b2 23 b5 b6 e4 15 da b6 02 2a d6 b6 df a1 31 37
       -5.398376e-06 -6.4994547e-06 -6.3825873e-06 1.0587711e-05
0002c0 d5 1d 2b 36 21 bc 31 37 53 1d b2 b6 12 7e 83 36
       2.549835e-06 1.0593824e-05 -5.308227e-06 3.9187807e-06
0002d0 ed a9 1c 37 fd f6 6b 36 03 a2 51 b6 a9 25 1b b7
       9.3378885e-06 3.5161495e-06 -3.123773e-06 -9.247488e-06
0002e0 69 e9 86 b5 31 de 89 36 0e 5b 3d 36 57 81 0e 36
       -1.0051709e-06 4.1087847e-06 2.8216195e-06 2.1234935e-06
0002f0 0e c3 4c 36 19 52 a8 b6 c5 42 a2 b4 12 f7 14 37
       3.0511906e-06 -5.0163476e-06 -3.0223433e-07 8.879013e-06
000300 73 44 9b b5 7d 11 8f 36 f3 c6 1f 37 a1 54 10 b7
       -1.1568321e-06 4.263768e-06 9.52346e-06 -8.602773e-06
000310 44 20 78 36 c6 a2 08 b7 01 3e 1a 37 8e 77 71 b6
       3.697366e-06 -8.14413e-06 9.193552e-06 -3.5981388e-06
000320 98 61 c3 b6 dc 24 06 37 f5 72 e9 b6 65 1c 98 36
       -5.8228143e-06 7.995604e-06 -6.957324e-06 4.5332586e-06
000330 e9 44 26 b7 2b 43 0f b6 43 9b fb b6 c8 3d a6 35
       -9.910415e-06 -2.1347757e-06 -7.4984578e-06 1.2385945e-06
000340 22 3c 97 b6 38 40 32 b7 5e a3 af b6 d3 82 d1 34
       -4.507151e-06 -1.0624579e-05 -5.234425e-06 3.902447e-07
000350 d5 06 1b 37 46 c8 77 b6 c7 07 c4 36 96 a1 da b6
       9.240311e-06 -3.6922443e-06 5.8421606e-06 -6.5157174e-06
000360 67 1c a2 b6 e1 6d 10 37 fd d7 07 b7 13 90 dc 35
       -4.8312827e-06 8.608652e-06 -8.096916e-06 1.6433208e-06
000370 4b 5a 1e b6 1f ad a6 36 c1 d1 d9 36 57 ce 09 36
       -2.3596392e-06 4.9673395e-06 6.4915225e-06 2.0534696e-06
000380 74 55 9b b6 c0 01 06 b5 90 fa cb b5 5c 60 c9 36
       -4.629308e-06 -4.9921437e-07 -1.5197602e-06 6.0014845e-06
000390 7a 07 bc 35 a5 9d 9a 36 c5 fd 00 37 71 9d 29 b7
       1.4009267e-06 4.60791e-06 7.68848e-06 -1.0109842e-05
0003a0 b6 49 12 b7 d5 5d 00 36 64 7f 83 b5 3f 78 a2 b5
       -8.71944e-06 1.9128104e-06 -9.797336e-07 -1.2104937e-06
0003b0 d8 1b d8 b6 ec dc 29 37 8a 73 1b 37 88 c5 a4 b5
       -6.440543e-06 1.0124622e-05 9.265621e-06 -1.2276441e-06
0003c0 96 12 15 37 3e fb 50 36 32 d4 b8 36 3a 13 1d 35
       8.885419e-06 3.1140657e-06 5.50833e-06 5.8515036e-07
0003d0 00 a6 fd b6 8b ec 14 b7 33 65 b3 36 43 31 26 36
       -7.5593125e-06 -8.876562e-06 5.346397e-06 2.4764602e-06
0003e0 2b 9f 32 b7 89 e2 a6 35 1e a5 88 b6 eb 58 40 b6
       -1.0646686e-05 1.2433894e-06 -4.072338e-06 -2.8661987e-06
0003f0 49 02 54 36 2c 30 2e b7 43 77 04 b7 33 33 35 b7
       3.1591792e-06 -1.0382424e-05 -7.895581e-06 -1.0800361e-05

gat_layer.linear_r.weight f4 [64, 64]
000000 10 93 ab b6 87 e8 5d b6 2b 25 4a b5 d5 81 b7 36
       -5.1133175e-06 -3.3066915e-06 -7.530495e-07 5.4689394e-06
000010 c5 3c 07 37 bf 11 0f 37 87 1d 8a b5 0b 29 06 37
       8.060776e-06 8.527596e-06 -1.0290395e-06 7.9965785e-06
000020 5c 3e a3 36 11 8d e2 34 7b 6b 15 b7 97 1f ed b6
       4.865038e-06 4.219842e-07 -8.906117e-06 -7.066828e-06
000030 08 ff 5a 36 5a 19 2e 37 9d 61 89 b6 20 4a ee 35
       3.263298e-06 1.0377111e-05 -4.094282e-06 1.7753955e-06
000040 95 25 2a b7 4e 09 85 b6 b5 f8 f4 b6 0a 79 ae 36
       -1.014154e-05 -3.964792e-06 -7.30072e-06 5.199695e-06
000050 3e d6 f2 b6 b1 9b 83 36 cc 0e 1e 35 c0 5c 3a 36
       -7.237103e-06 3.922229e-06 5.888112e-07 2.7770147e-06
000060 3f 13 2d b6 d7 2d 94 35 dd 50 8c b6 34 2d c3 b5
       -2.5790212e-06 1.10402e-06 -4.181739e-06 -1.4541788e-06
000070 ba 3d 17 b6 a9 b2 b9 b6 55 e4 eb 36 b7 af e1 36
       -2.2536683e-06 -5.5342284e-06 7.030127e-06 6.7259784e-06
000080 16 f8 ef 36 b3 1c 6f 36 a1 af 7d 35 d2 7c e2 b6
       7.151636e-06 3.563048e-06 9.450542e-07 -6.749856e-06
000090 46 4c 38 36 7b f8 a4 b5 5e 96 23 b7 ee 08 fb 36
       2.7462534e-06 -1.229127e-06 -9.750567e-06 7.4814225e-06
0000a0 ac 81 ff b5 8b ae 9d b6 46 59 28 b7 44 9a 74 b6
       -1.903672e-06 -4.699284e-06 -1.0034366e-05 -3.6448628e-06
0000b0 71 66 00 b7 3f ce d3 b6 39 0c 21 37 a2 83 8b b5
       -7.653246e-06 -6.3123002e-06 9.599194e-06 -1.0394617e-06
0000c0 c1 bd cf b6 0c 7b 48 b4 e1 8b 23 b7 ef 1c 36 b7
       -6.191171e-06 -1.8671216e-07 -9.748125e-06 -1.0854782e-05
0000d0 60 83 a3 36 d2 d2 cb 36 50 b9 10 b6 c9 0e fd 36
       4.8730726e-06 6.074414e-06 -2.1565538e-06 7.541709e-06
0000e0 a9 d7 22 b7 34 53 20 b7 bc d9 95 b5 f1 7d e9 36
       -9.706165e-06 -9.556115e-06 -1.1164734e-06 6.9586026e-06
0000f0 e4 03 c9 b6 c3 1e 25 b7 e4 25 76 b6 3e 58 08 b6
       -5.9907197e-06 -9.841929e-06 -3.6678912e-06 -2.0316943e-06
000100 ee c4 ff b6 0e 78 96 36 53 d0 17 b7 37 52 34 37
       -7.622518e-06 4.4843246e-06 -9.048806e-06 1.0747978e-05
000110 0b 9b fc b6 6b 72 8f 36 06 8d fc 35 a4 6d 0e b7
       -7.5282346e-06 4.275052e-06 1.8816506e-06 -8.489387e-06
000120 7e 74 19 b6 58 34 07 b6 ca 24 82 b6 46 d1 f4 36
       -2.2866584e-06 -2.0147036e-06 -3.8785847e-06 7.2961293e-06
000130 a4 a2 2f 37 fe de 03 b6 fe b8 76 b6 ca 11 a4 b6
       1.0468681e-05 -1.965032e-06 -3.6764536e-06 -4.889652e-06
000140 f5 42 fb 36 69 6c 06 37 9c 2c 34 b7 d4 5a ce b6
       7.4881777e-06 8.012264e-06 -1.07392225e-05 -6.149852e-06
000150 27 20 f7 b6 f7 60 17 37 9f 07 d5 b6 ea c4 2a 37
       -7.3649167e-06 9.022878e-06 -6.348782e-06 1.0178637e-05
000160 21 dc 00 b7 54 9e 02 b7 d2 1a d7 36 dd 1d 64 b6
       -7.680647e-06 -7.7854675e-06 6.4106216e-06 -3.399203e-06
000170 b8 65 ee b6 a4 cb 0f 37 6b 87 6f b6 33 b0 86 36
       -7.1047943e-06 8.570878e-06 -3.56926e-06 4.0140235e-06
000180 ee 8e c5 36 72 95 28 37 27 84 1e 37 b1 32 35 36
       5.8876967e-06 1.0048376e-05 9.448303e-06 2.7000608e-06
000190 12 a1 90 b6 28 1c 26 b7 89 77 9a b6 18 75 a4 b6
       -4.3102855e-06 -9.900927e-06 -4.6034734e-06 -4.9012124e-06
0001a0 1b 39 2a 37 c1 51 0f b7 f4 60 e8 35 c3 bf 1d 36
       1.01460855e-05 -8.542499e-06 1.7313564e-06 2.3506443e-06
0001b0 fb fd 3b b6 c5 bd 1e 37 4a a0 41 b6 c5 12 8e 36
       -2.8013008e-06 9.461718e-06 -2.8852542e-06 4.234115e-06
0001c0 56 a1 75 36 34 d8 25 37 c0 44 20 37 d9 16 bd b5
       3.6601755e-06 9.885105e-06 9.55275e-06 -1.4088247e-06
0001d0 d6 56 b4 b6 f9 50 a8 36 f5 d8 00 36 a2 ec 4a b5
       -5.374527e-06 5.0162166e-06 1.9199772e-06 -7.559521e-07
0001e0 16 86 f8 b5 e1 c8 82 b5 98 06 9e b6 ca fe 8b b4
       -1.8516464e-06 -9.744218e-07 -4.7095346e-06 -2.607615e-07
0001f0 74 b2 d2 b6 06 67 b2 36 b6 b5 e6 36 06 44 d5 b6
       -6.2792624e-06 5.316807e-06 6.875688e-06 -6.3558136e-06
000200 68 63 0c b7 38 4c 21 b7 d0 2f 92 35 0f 54 c0 b5
       -8.367795e-06 -9.614094e-06 1.0891763e-06 -1.4329579e-06
000210 8d 07 8c 36 97 ed ec 36 6b 6d 88 36 79 d1 7a b5
       4.173204e-06 7.061007e-06 4.065854e-06 -9.343708e-07
000220 7c 11 94 b6 2f 37 0a 37 83 02 33 b7 7f 0b 6b b6
       -4.412779e-06 8.238289e-06 -1.0669816e-05 -3.502442e-06
000230 9c dd 2e 37 91 78 21 b7 e9 89 3c b4 23 43 67 36
       1.0422806e-05 -9.624419e-06 -1.7559036e-07 3.446076e-06
000240 ff 2c cd 36 94 ad 15 b7 9b 81 46 b5 e0 4a 16 b7
       6.1147143e-06 -8.921506e-06 -7.394935e-07 -8.95813e-06
000250 8d 1f ad b6 c8 c6 f6 b6 21 f6 01 37 e2 64 d3 b6
       -5.1594748e-06 -7.3545125e-06 7.7463055e-06 -6.3000343e-06
000260 c6 55 74 b5 f8 cb 04 37 7b 70 1e b7 57 93 18 37
       -9.10219e-07 7.915303e-06 -9.443723e-06 9.094211e-06
000270 b4 43 5b 36 80 c1 b7 b6 cb 69 01 b7 d0 74 bb b6
       3.2672951e-06 -5.4763514e-06 -7.713631e-06 -5.586633e-06
000280 7a 86 f9 b6 00 8a 3f 36 81 22 6b b6 ac 61 9f 36
       -7.4364334e-06 2.8541544e-06 -3.5037813e-06 4.7499398e-06
000290 bf 46 16 37 00 fa a9 36 1c 72 03 b5 04 35 ce 35
       8.957169e-06 5.0656963e-06 -4.8967354e-07 1.5363626e-06
0002a0 04 06 26 37 0d 75 2b 37 4b 03 5e b6 29 72 34 37
       9.895772e-06 1.0219647e-05 -3.3082495e-06 1.0755416e-05
0002b0 40 a6 14 b7 c5 94 2b 35 bb b2 95 35 31 65 31 37
       -8.8601955e-06 6.391895e-07 1.1153383e-06 1.0573583e-05
0002c0 53 c2 f3 36 36 38 13 35 26 75 28 37 23 51 01 37
       7.2645867e-06 5.4843565e-07 1.0040856e-05 7.70789e-06
0002d0 bb 03 94 36 51 53 a9 b6 18 4f 66 35 c1 50 cf 36
       4.411178e-06 -5.046292e-06 8.5796773e-07 6.1784817e-06
0002e0 ae a4 37 b5 02 72 22 b6 ed df 26 37 d3 8f b9 35
       -6.8412453e-07 -2.4206242e-06 9.946508e-06 1.3825432e-06
0002f0 9f 40 19 b7 56 1f ee 36 c3 2c 05 b7 48 9d 22 37
       -9.134556e-06 7.0966007e-06 -7.93784e-06 9.692572e-06
000300 19 08 2e 37 9a 23 95 b4 15 72 1b 37 0a 06 f4 b6
       1.0373094e-05 -2.7779316e-07 9.265282e-06 -7.2724697e-06
000310 df d5 47 36 21 a9 03 37 6c a4 ad 36 bb 8c 5d b6
       2.97778e-06 7.847587e-06 5.174943e-06 -3.3013482e-06
000320 8e b7 67 36 ca 57 33 b6 72 5f 38 b6 4f c3 b7 36
       3.4528525e-06 -2.6724178e-06 -2.7473693e-06 5.476562e-06
000330 1a 97 0a b7 32 93 c4 36 54 cc 15 b5 c5 f7 92 b5
       -8.260622e-06 5.858391e-06 -5.580416e-07 -1.0949958e-06
000340 0d b0 4a b6 04 97 34 b7 23 ed 24 b6 34 51 bb b5
       -3.020282e-06 -1.0763997e-05 -2.4575936e-06 -1.3956219e-06
000350 6a 10 a3 36 b0 6e 37 36 43 16 92 b6 cc af 36 37
       4.8596894e-06 2.7333554e-06 -4.3537307e-06 1.0888976e-05
000360 0e 58 17 b6 20 55 3b b6 ed f1 10 37 51 87 06 37
       -2.2552008e-06 -2.791472e-06 8.639397e-06 8.018528e-06
000370 29 ee 00 b7 a1 cb 8f b6 ce 29 e9 b6 3c b8 2e b7
       -7.6848455e-06 -4.2854376e-06 -6.948808e-06 -1.0414104e-05
000380 ab 68 a2 35 1d 46 8d 35 69 f1 23 37 41 23 be b6
       1.2100403e-06 1.0525724e-06 9.771765e-06 -5.6665453e-06
000390 30 2b e6 36 5a bb 9a 36 6c 25 33 35 bb 16 e2 36
       6.859562e-06 4.6113682e-06 6.673715e-07 6.737971e-06
0003a0 4f d1 5d b6 77 6c 3b b5 ea ff 3e 36 51 05 d2 36
       -3.30534e-06 -6.9820766e-07 2.8461168e-06 6.2591066e-06
0003b0 ad 64 91 b6 43 9e da 35 56 b5 b2 36 ec 93 ab b6
       -4.333057e-06 1.6288326e-06 5.3259237e-06 -5.1134175e-06
0003c0 81 8d e1 36 ac 6d 09 b7 4a 62 8b b6 d5 79 19 37
       6.7219958e-06 -8.191371e-06 -4.153965e-06 9.147877e-06
0003d0 42 ec 03 37 f0 f6 84 36 0b f2 a0 36 67 5b 27 b7
       7.8632165e-06 3.962654e-06 4.796549e-06 -9.975257e-06
0003e0 c7 4c 38 b6 d5 53 91 36 26 3e 1b 37 31 e7 c6 36
       -2.7462827e-06 4.331096e-06 9.25319e-06 5.927774e-06
0003f0 f2 e8 00 37 a4 c2 70 36 e6 37 9f b6 90 4a 18 b7
       7.683631e-06 3.5876083e-06 -4.7450767e-06 -9.077266e-06

gat_layer.attn.weight f4 [1, 64]
000000 b1 8d 27 36 18 70 54 b6 cd 43 ff b2 c0 9c b2 b6
       2.4967414e-06 -3.165571e-06 -2.971674e-08 -5.3230615e-06
000010 39 3b 29 36 53 6f c4 b6 95 65 50 b6 d5 3e f8 36
       2.5217435e-06 -5.854215e-06 -3.1053544e-06 7.3982906e-06
000020 dd 57 27 37 49 08 85 36 6f b4 c0 b6 54 f6 35 b7
       9.974433e-06 3.9646734e-06 -5.743051e-06 -1.0845793e-05
000030 89 8c 0a 37 0a 15 2d 37 47 62 15 37 98 71 eb b5
       8.258162e-06 1.0316502e-05 8.903974e-06 -1.7541925e-06
000040 eb 22 a5 b6 9d 69 23 36 d7 c9 01 37 cc 5d 33 b7
       -4.921448e-06 2.4350368e-06 7.735994e-06 -1.069107e-05
000050 a1 19 37 b7 66 15 f2 b6 b7 7d b2 36 58 72 eb b5
       -1.0913617e-05 -7.214653e-06 5.3194485e-06 -1.7542143e-06
000060 1e a4 19 37 af 45 8b b6 d9 ad 4a 36 e2 35 da b6
       9.157722e-06 -4.150635e-06 3.0201538e-06 -6.503179e-06
000070 8f aa 90 b4 ab 1b 4e 36 92 cd b8 b6 4d 38 ed b6
       -2.6946188e-07 3.0712497e-06 -5.507559e-06 -7.0697047e-06
000080 2b d4 dd 36 6f a4 34 b7 a5 a0 ba b6 2e f6 17 36
       6.611013e-06 -1.0767121e-05 -5.5619334e-06 2.2644049e-06
000090 15 08 a3 35 8d 2b 80 36 51 8b 38 36 b1 32 13 37
       1.2146799e-06 3.8197672e-06 2.749923e-06 8.773685e-06
0000a0 89 ae f7 b6 2d c5 a7 36 41 cb 11 37 33 3a 11 37
       -7.381492e-06 4.999942e-06 8.689997e-06 8.656224e-06
0000b0 d0 6e 10 b7 c3 05 f9 35 3d 7b db 33 af 7d 8b 36
       -8.608869e-06 1.8553623e-06 1.0220399e-07 4.1571543e-06
0000c0 10 89 8c b6 be f5 08 37 ba 53 0a b7 52 ba a7 36
       -4.1882813e-06 8.163448e-06 -8.244935e-06 4.9986784e-06
0000d0 e8 23 1b 37 3d 52 2f b7 fe 8a 22 37 46 f3 19 37
       9.24708e-06 -1.044996e-05 9.688314e-06 9.176152e-06
0000e0 66 f3 cc b6 74 27 24 b6 dc 8f 2a b6 86 b0 d6 b6
       -6.108009e-06 -2.446087e-06 -2.5415711e-06 -6.398247e-06
0000f0 11 12 a7 b6 41 b7 80 b6 5b 59 0e 36 b3 27 db b6
       -4.979091e-06 -3.836031e-06 2.121166e-06 -6.53133e-06

linear_layers.0.weight f4 [64, 68]
000000 44 74 9c b4 57 76 13 b7 e6 68 f8 36 5a c3 55 b6
       -2.914186e-07 -8.789436e-06 7.4031877e-06 -3.1853183e-06
000010 3d a5 e5 36 80 3d 41 b6 7a 33 f4 b6 9f 2a 0a 36
       6.843968e-06 -2.8795039e-06 -7.2777593e-06 2.0588411e-06
000020 fd e8 2f 37 56 58 93 b6 cd 3f a0 b6 b3 da 90 36
       1.048506e-05 -4.391225e-06 -4.775799e-06 4.3169944e-06
000030 3e 49 8e 36 fd f3 40 b6 55 ad e0 35 a6 3e 01 35
       4.2404563e-06 -2.875225e-06 1.6739747e-06 4.814741e-07
000040 d1 93 9f b5 4d 06 2b 36 9f 2f 0b 36 1d b2 05 b7
       -1.1889443e-06 2.5484653e-06 2.0740333e-06 -7.968888e-06
000050 52 ed 80 b6 ed cc fd 36 a3 64 47 b6 75 59 c0 36
       -3.842325e-06 7.563844e-06 -2.971189e-06 5.73246e-06
000060 82 97 65 36 bf a4 01 b7 75 59 05 b7 13 f0 c4 36
       3.4211848e-06 -7.727357e-06 -7.948246e-06 5.8692035e-06
000070 3e 0e d6 b6 32 2e ec 35 13 dd 8f 36 85 0b c6 36
       -6.379355e-06 1.7596815e-06 4.2874685e-06 5.902201e-06
000080 08 fc 47 35 4f 42 9b 36 1e 25 04 37 12 9a 49 b6
       7.450003e-07 4.6270793e-06 7.876455e-06 -3.0041015e-06
000090 30 d3 ed b5 a5 d5 d2 35 3a 49 db 35 11 37 bd 36
       -1.771934e-06 1.5708398e-06 1.6338083e-06 5.6390495e-06
0000a0 90 67 af b5 62 34 da 36 39 e1 c4 36 2f 95 3f b5
       -1.3068657e-06 6.5030044e-06 5.8674746e-06 -7.1370135e-07
0000b0 2d ad 1e b7 b9 7b ee 36 9b a9 7b 35 5e 98 13 37
       -9.4578545e-06 7.107356e-06 9.3751595e-07 8.7973585e-06
0000c0 ce 06 c8 35 07 c6 c0 b6 1d e0 1c b7 80 f3 63 b6
       1.4903142e-06 -5.7450993e-06 -9.350505e-06 -3.3967372e-06
0000d0 38 05 eb b6 e6 f3 26 b7 1d eb d4 b6 d3 ae 20 37
       -7.0041533e-06 -9.951158e-06 -6.345463e-06 9.577448e-06
0000e0 5b 41 08 37 91 24 86 35 bf 15 40 36 1b 9f fe b5
       8.121448e-06 9.99442e-07 2.8622887e-06 -1.897078e-06
0000f0 a5 5d 08 b7 b8 38 24 b7 81 9e ed b6 8f 40 22 36
       -8.128035e-06 -9.788368e-06 -7.0816027e-06 2.417746e-06
000100 81 e9 dc b6 31 88 94 bb dd bd 0b b8 77 57 33 3c
       -6.5836944e-06 -0.004532837 -3.3317006e-05 0.010946146
000110 b4 4f 19 37 73 23 07 37 ec ce d5 b6 05 70 4d 35
       9.138068e-06 8.054881e-06 -6.3719835e-06 7.653146e-07
000120 e3 b6 29 b5 ee ca 06 b6 17 85 04 36 67 0d e0 36
       -6.322354e-07 -2.0085677e-06 1.9747001e-06 6.6772805e-06
000130 f6 00 8d 36 60 9d 23 b7 ba b0 29 35 b7 6b d8 36
       4.2022393e-06 -9.752199e-06 6.3214577e-07 6.4498413e-06
000140 d6 4a ee 30 55 b6 97 b6 89 df e8 b6 5c f9 ec b6
       1.7338049e-09 -4.521377e-06 -6.9401617e-06 -7.0623773e-06
000150 6b 95 2f 37 58 c9 11 37 be aa a4 b6 44 f3 f9 b6
       1.0465602e-05 8.6895525e-06 -4.907458e-06 -7.449098e-06
000160 14 fb 88 b6 70 8a 24 37 26 ac 33 b6 c3 b0 66 b6
       -4.082345e-06 9.807394e-06 -2.6773282e-06 -3.437556e-06
000170 30 52 0e b7 c8 0f 6d b6 9a 0d cb b6 2d e2 01 b7
       -8.482995e-06 -3.5324938e-06 -6.051455e-06 -7.74166e-06
000180 6c ec 30 37 2f 8f 6d 35 3f 5b 1e b7 d3 a3 0b b7
       1.0545464e-05 8.849774e-07 -9.438779e-06 -8.323189e-06
000190 a5 fd 85 36 75 ad f4 b6 a1 45 f8 36 d2 ec 67 36
       3.993237e-06 -7.2919597e-06 7.399082e-06 3.455953e-06
0001a0 22 00 0e b7 cd 85 ff b6 5e 40 03 37 86 c4 f7 36
       -8.4638905e-06 -7.6151687e-06 7.823195e-06 7.384052e-06
0001b0 34 c5 0b 37 21 69 0f b7 e8 f8 44 b6 06 c3 a6 36
       8.330961e-06 -8.547941e-06 -2.9351158e-06 4.9698892e-06
0001c0 24 90 87 b6 3c b6 1d 37 73 c4 fc 36 02 04 82 36
       -4.0400937e-06 9.400359e-06 7.533055e-06 3.8747685e-06
0001d0 2b e3 dc b6 2f fa f1 b6 19 4a 94 36 be ab 78 36
       -6.5829568e-06 -7.211485e-06 4.41937e-06 3.7054847e-06
0001e0 c0 bd 81 36 6f 31 84 36 a8 ae 81 b5 a7 0e f6 b6
       3.8665894e-06 3.9396614e-06 -9.662081e-07 -7.333077e-06
0001f0 95 0f a6 36 c5 21 d1 36 de 5a 2f b7 a4 24 5d 36
       4.9489995e-06 6.2326167e-06 -1.04519695e-05 3.2952894e-06
000200 a8 0f 44 36 1f fc a3 b6 ad f5 19 37 60 be 22 37
       2.921539e-06 -4.8871293e-06 9.1767115e-06 9.700278e-06
000210 3d b7 14 b7 7c 45 d8 bb 42 c2 4a b8 46 b5 82 3c
       -8.864151e-06 -0.00660008 -4.834147e-05 0.015955579
000220 5d 74 d4 36 70 ce f5 b5 f0 da 15 b7 20 a1 93 b5
       6.331639e-06 -1.8314004e-06 -8.932067e-06 -1.0999247e-06
000230 7f cf 0d b6 38 62 4f b6 63 3f 85 36 70 77 07 37
       -2.1131416e-06 -3.0902575e-06 3.971088e-06 8.074436e-06
000240 fa 89 58 36 b2 53 db 36 13 7b 0f 37 be 54 20 37
       3.226682e-06 6.536452e-06 8.55212e-06 9.556474e-06
000250 2e e2 37 b6 df f8 2b 37 20 86 96 35 6e 8b 82 b6
       -2.740078e-06 1.0250339e-05 1.1214906e-06 -3.8905337e-06
000260 e9 97 5d b6 da 5f 1c 37 24 cc 47 36 ba a9 28 37
       -3.301999e-06 9.320642e-06 2.9772136e-06 1.0053098e-05
000270 a8 d5 80 36 33 54 4a 36 8b 5b 20 b6 09 05 28 36
       3.83957e-06 3.0149356e-06 -2.3895143e-06 2.5036882e-06
000280 73 a3 3b b6 e7 d0 b0 b6 a0 f1 1f 37 1a f4 5b b6
       -2.7960311e-06 -5.269528e-06 9.533396e-06 -3.2775629e-06
000290 76 28 e4 b6 27 e7 c7 36 e3 dc be 36 ad 26 af 36
       -6.79964e-06 5.957572e-06 5.688156e-06 5.219909e-06
0002a0 c3 74 10 37 23 14 55 b6 f3 53 2c b7 f7 b6 fa b6
       8.610255e-06 -3.1751194e-06 -1.0271545e-05 -7.4718805e-06
0002b0 63 7a b8 35 5c d7 30 37 d9 8b e7 34 b2 cf 27 b4
       1.3744688e-06 1.054056e-05 4.3128856e-07 -1.5628646e-07
0002c0 c5 8a b6 36 c5 a5 d9 35 ec 6e fc 36 f8 42 15 b7
       5.4401776e-06 1.6216005e-06 7.5230982e-06 -8.896684e-06
0002d0 a0 c6 85 b6 d8 ca f6 b6 66 13 a1 b6 11 b5 da 33
       -3.986832e-06 -7.3549854e-06 -4.800432e-06 1.0184352e-07
0002e0 ec db 9a b6 14 67 29 b7 b3 60 8c b4 ce 9d 12 37
       -4.61516e-06 -1.0097185e-05 -2.614739e-07 8.73902e-06
0002f0 23 b2 20 b7 03 0e 75 36 58 44 b9 36 d0 15 b1 b6
       -9.578219e-06 3.6516e-06 5.521386e-06 -5.2775504e-06
000300 a3 2a 1d b6 08 6e f2 b6 2d c4 c8 33 d5 e1 43 36
       -2.341964e-06 -7.2249713e-06 9.34891e-08 2.9188716e-06
000310 29 c0 0e b5 f6 5f 11 37 d2 90 2f b7 93 b1 88 36
       -5.317875e-07 8.665016e-06 -1.0464531e-05 4.073788e-06
000320 2c f9 be b6 92 83 62 b6 d5 3d 9c 35 2c f6 1b b7
       -5.6914487e-06 -3.3753208e-06 1.1640901e-06 -9.296036e-06
000330 09 de 82 b6 d2 86 33 b6 ca fa ae b5 5c 41 02 37
       -3.90015e-06 -2.6751554e-06 -1.3037e-06 7.7638215e-06
000340 1b 0e 6a b6 7b 1b 21 35 9f 3c b7 36 f5 49 0b b7
       -3.4876928e-06 6.0017163e-07 5.460882e-06 -8.302265e-06
000350 8e 90 16 37 37 74 61 35 e3 e2 54 b6 60 46 1b 37
       8.9743535e-06 8.3988147e-07 -3.1722527e-06 9.255105e-06
000360 d0 f8 2a 37 f6 d8 87 b6 34 a2 cd 35 89 b2 bb b6
       1.0190721e-05 -4.048571e-06 1.5320898e-06 -5.5938185e-06
000370 2a 9a a3 b6 45 b4 9c b6 29 89 d2 b6 ba c8 da b5
       -4.8757256e-06 -4.6701484e-06 -6.2744552e-06 -1.6300685e-06
000380 88 fd 0d 35 88 3d d6 b6 aa 5e 14 b7 15 01 10 b6
       5.289553e-07 -6.38486e-06 -8.843528e-06 -2.1458302e-06
000390 1f 5e 22 b7 b7 dc e9 35 aa 39 6c b5 04 68 9f b6
       -9.677867e-06 1.7424089e-06 -8.8000763e-07 -4.7506783e-06
0003a0 7f 37 31 37 af c1 73 b6 02 04 bc b6 06 20 70 36
       1.0562943e-05 -3.632256e-06 -5.603303e-06 3.5781427e-06
0003b0 dd ec c5 36 89 8a bb b5 bb 49 c6 35 a4 b0 0a b7
       5.898632e-06 -1.3972905e-06 1.4773608e-06 -8.266568e-06
0003c0 09 31 aa 35 e6 55 94 33 f6 6f 4a 36 2f 41 27 b7
       1.2680258e-06 6.907412e-08 3.0165515e-06 -9.969152e-06
0003d0 63 fc d9 b6 06 28 e1 36 2e 61 a1 b6 ba 53 87 36
       -6.4964856e-06 6.710182e-06 -4.809487e-06 4.0330606e-06
0003e0 08 71 d0 b6 9d 12 3d b6 dd c7 16 b6 a8 c0 8d b5
       -6.2120416e-06 -2.817403e-06 -2.2468078e-06 -1.0561389e-06
0003f0 92 c8 24 b7 6f 00 83 b4 83 5c f3 b6 5a 4f b5 b6
       -9.821861e-06 -2.4400967e-07 -7.252734e-06 -5.403458e-06

linear_layers.0.bias f4 [64]
000000 45 65 9b 39 01 54 e0 39 3d 88 2a b7 ad 10 05 3a
       0.00029639355 0.00042787197 -1.016451e-05 0.0005076032
000010 19 01 30 b7 53 65 c6 3a 74 f5 ae 39 4f 11 f7 39
       -1.0490673e-05 0.0015136398 0.00033370743 0.00047124407
000020 02 0a 4a 3a 8c dd 0b 3a 8c c8 54 35 46 f6 cb b6
       0.000770718 0.0005335442 7.926799e-07 -6.0785414e-06
000030 c2 d3 3f 36 43 53 20 b2 2c 7f 5a 3a 3b 79 49 38
       2.8584477e-06 -9.332157e-09 0.000833499 4.803504e-05
000040 90 d0 b7 35 d2 54 ab b5 91 a9 30 37 70 fa c9 39
       1.3695262e-06 -1.2765179e-06 1.0529898e-05 0.00038524298
000050 13 1b 92 b6 87 76 5d 37 9b 8f 3a 3a 6d 17 5b b6
       -4.354291e-06 1.3200223e-05 0.0007116736 -3.2647179e-06
000060 8d 1f 64 39 47 92 e9 39 a3 c7 84 b4 68 99 13 3a
       0.00021755528 0.00044550208 -2.473217e-07 0.00056304643
000070 cd 59 52 38 41 52 89 37 65 f1 2a b7 23 7d d3 39
       5.0151535e-05 1.6369975e-05 -1.0188994e-05 0.0004033829
000080 96 14 de b6 83 d6 3f 37 cc 70 00 37 19 ef 97 37
       -6.618512e-06 1.1434432e-05 7.655657e-06 1.8111941e-05
000090 07 1c f3 36 4b a0 bf 39 86 8e c5 b6 f0 c9 01 b7
       7.245227e-06 0.00036549786 -5.8876494e-06 -7.736016e-06
0000a0 15 97 34 3a ed c3 58 36 8f e9 9d 3a a6 0d 2d 3a
       0.0006888968 3.2300552e-06 0.0012047755 0.000660146
0000b0 01 84 20 3a ed da 25 37 9a 22 32 37 ae 2c ff 39
       0.0006123186 9.885739e-06 1.0617683e-05 0.0004867068
0000c0 5e 54 e2 3a 64 5c ad b6 2c c8 a3 3a a5 2d c8 35
       0.0017267575 -5.1665575e-06 0.0012495569 1.4914446e-06
0000d0 3e a2 ed b6 32 be bc b6 32 fe 4c b6 cc 3f 4d b6
       -7.082038e-06 -5.6249783e-06 -3.054633e-06 -3.0584515e-06
0000e0 d1 fe 12 3a 79 45 7c 3a f3 4a 27 37 9f d4 2a 36
       0.00056074286 0.00096233893 9.971426e-06 2.5455736e-06
0000f0 3e d9 2c 39 b0 de 5d 3a af be b5 36 9b 97 ad 36
       0.00016484127 0.0008463664 5.416419e-06 5.173451e-06
