trained_models/model_2021-11-27_19-21-52.pt (torch, 58311 bytes, 9 tensors)

gat_layer1.linear_l.weight f4 [64, 8]
000000 10 62 7a 27 0c 4f 28 31 71 ad a6 31 9e 2e 2c a9
       3.474763e-15 2.449215e-09 4.850954e-09 -3.8232106e-14
000010 3f 52 41 28 50 37 2e ac 89 b9 27 b2 bc 77 b6 b5
       1.07314865e-14 -2.4757592e-12 -9.762865e-09 -1.3594904e-06
000020 06 7a 8a ad e3 85 b4 a9 72 37 45 31 26 c3 31 b4
       -1.5742973e-11 -8.0168314e-14 2.869879e-09 -1.6555404e-07
000030 59 1c 89 ab bb 7a 92 32 90 70 f5 ac 8c bd 86 32
       -9.742304e-13 1.7052448e-08 -6.9758158e-12 1.5685849e-08
000040 14 ef 96 28 48 52 37 af 6c 13 c2 26 a8 a5 d1 b4
       1.6757029e-14 -1.6672985e-10 1.3466718e-15 -3.9049814e-07
000050 c8 9c c6 32 af 7b 29 33 33 e3 14 ad 5a 45 05 2b
       2.312153e-08 3.946087e-08 -8.463274e-12 4.7347337e-13
000060 a0 b5 ce 25 60 72 26 b1 48 6b 8a 35 d6 32 d6 29
       3.5858377e-16 -2.4221194e-09 1.0313024e-06 9.512328e-14
000070 34 6a 0e 31 9c 17 ad b3 24 25 61 ae cf 91 4a 2d
       2.072409e-09 -8.060235e-08 -5.1192064e-11 1.1514747e-11
000080 42 ae 02 30 b8 b5 fb ab fa bd 1b 30 f0 be eb 32
       4.754136e-10 -1.788506e-12 5.6658644e-10 2.7444429e-08
000090 5e 03 b0 b1 da dc 98 a8 e4 ea 0a 27 1c 77 5e ac
       -5.122657e-09 -1.6971169e-14 1.9278682e-15 -3.1614216e-12
0000a0 d0 8d 81 27 4c ad a5 30 9c f8 c2 af 75 07 3a 37
       3.5958446e-15 1.2054584e-09 -3.5465042e-10 1.10882e-05
0000b0 e4 35 8f 29 ed bb a7 ad 4a 9f 1a ab 22 3c 91 33
       6.359824e-14 -1.9069158e-11 -5.493285e-13 6.763027e-08
0000c0 49 51 c7 b6 ea f1 04 a9 cc 95 c9 ac 7a 71 61 31
       -5.940125e-06 -2.9519715e-14 -5.7293944e-12 3.2806313e-09
0000d0 cc 06 08 30 74 c2 34 2c 5a 2e eb ac 73 b5 f4 26
       4.948617e-10 2.5687482e-12 -6.6842478e-12 1.6980083e-15
0000e0 1e f4 b7 35 e0 28 22 b4 e2 4a bc a7 30 96 66 2b
       1.370561e-06 -1.5102296e-07 -5.226167e-15 8.192084e-13
0000f0 dd 50 61 b3 eb 22 5a 30 06 11 59 b4 28 1d fa 2f
       -5.246044e-08 7.935756e-10 -2.0215893e-07 4.5495452e-10
000100 b2 63 f3 a9 a0 f5 a0 b1 ca e9 a7 29 68 96 57 ad
       -1.0808662e-13 -4.684537e-09 7.456846e-14 -1.2254732e-11
000110 e9 f6 95 2a 38 20 0c b0 06 36 78 27 60 47 e3 32
       2.6639045e-13 -5.097749e-10 3.44462e-15 2.6458736e-08
000120 63 01 cc 26 ca cc 08 a9 df 1f 0f a8 a7 95 83 2a
       1.4155719e-15 -3.0375692e-14 -7.9450056e-15 2.3374117e-13
000130 2c 78 cb ad 1c 85 2c a7 34 83 c4 2d e0 49 08 2a
       -2.3131795e-11 -2.3941954e-15 2.2340886e-11 1.2104857e-13
000140 b6 80 86 a7 ba bd 83 31 24 9c 2b 2e 6c c8 2f a8
       -3.733202e-15 3.834171e-09 3.901958e-11 -9.757911e-15
000150 ca 55 69 29 1e 57 39 32 f6 44 a3 31 d9 22 37 a8
       5.1810803e-14 1.0788225e-08 4.7517643e-09 -1.0166097e-14
000160 a4 59 31 28 e8 50 5f 2e ee a6 a2 ab 60 a6 90 b5
       9.8449115e-15 5.077619e-11 -1.1557125e-12 -1.0777258e-06
000170 4b fd 3f 32 68 c3 4a b6 3a c2 b6 2c 34 a9 a0 ac
       1.1175255e-08 -3.0214087e-06 5.1943146e-12 -4.566259e-12
000180 c6 16 f1 b4 62 e5 8f 36 a0 38 c7 2b dc 99 98 30
       -4.4906318e-07 4.288436e-06 1.4155517e-12 1.1103185e-09
000190 f0 96 a5 2e 24 e7 9e 2f fa 15 16 b5 82 36 41 27
       7.530143e-11 2.8904268e-10 -5.5911335e-07 2.681368e-15
0001a0 73 b8 38 31 aa 6d da 2d a4 d7 bf b4 b2 72 c3 a8
       2.6880371e-09 2.4832431e-11 -3.5733422e-07 -2.169909e-14
0001b0 fe 66 88 31 a0 10 05 ad 9e 45 e9 2f 48 0c 7a 2f
       3.96983e-09 -7.563866e-12 4.243192e-10 2.2741731e-10
0001c0 64 c1 8c ae 68 5c 63 b5 38 9d 81 b3 3c cc 18 2e
       -6.400816e-11 -8.469856e-07 -6.0356285e-08 3.4742195e-11
0001d0 78 c2 d6 a9 26 1f 17 b1 b0 d7 ef 34 0a 95 14 27
       -9.537244e-14 -2.1991098e-09 4.4674152e-07 2.061992e-15
0001e0 91 e1 98 2a 4c a6 09 2a 09 e6 f6 2a 0c 99 73 32
       2.7157142e-13 1.222574e-13 4.3857997e-13 1.417926e-08
0001f0 4c 0d bb 27 4f 58 6a b2 82 8d 13 b1 bd 5f e8 ad
       5.1917343e-15 -1.3640672e-08 -2.1471753e-09 -2.6417863e-11
000200 ce 30 2d b6 60 40 11 2b 7c 04 a5 ab 34 58 bd ad
       -2.5807417e-06 5.1603687e-13 -1.17252e-12 -2.1525982e-11
000210 da d7 2c b5 0a 64 8c b2 4a 7e 04 b5 7c 9b 4f 29
       -6.43891e-07 -1.6343638e-08 -4.9357607e-07 4.6098094e-14
000220 dc 70 27 2c 69 a1 db af ba 78 e4 a9 4b 60 1b ad
       2.3794777e-12 -3.9950557e-10 -1.0146177e-13 -8.832111e-12
000230 c5 35 6a a8 f6 ee 87 ad 84 75 9a ab 0e c7 21 ad
       -1.3001269e-14 -1.5453843e-11 -1.0974975e-12 -9.1959895e-12
000240 9a b2 ac ac 38 b8 87 26 08 50 97 2b 78 97 05 28
       -4.9083628e-12 9.417439e-16 1.0751408e-12 7.415828e-15
000250 b4 6a 42 ad 4c b5 91 ae d8 ea 79 37 aa 48 28 30
       -1.1051316e-11 -6.6260414e-11 1.4896235e-05 6.1221306e-10
000260 79 a4 a3 a8 c8 0e 29 b1 ce f1 ad ae 28 c5 da af
       -1.8167964e-14 -2.460114e-09 -7.910082e-11 -3.9794057e-10
000270 e6 54 99 a7 14 80 56 aa ba 57 ae b1 94 5b 55 33
       -4.2558078e-15 -1.9051454e-13 -5.07404e-09 4.9676217e-08
000280 1a e0 bc ae 4d 51 61 a8 b2 43 86 ad 74 c4 54 ad
       -8.5890586e-11 -1.2507638e-14 -1.5264099e-11 -1.2094426e-11
000290 58 f7 c1 35 7b 49 44 2e 2a 9b 2e 34 fe 53 3a 29
       1.4451607e-06 4.4630504e-11 1.6261461e-07 4.1373148e-14
0002a0 54 37 8a b3 54 3b 82 29 ec d9 0e 36 04 b7 3f ae
       -6.43619e-08 5.7834515e-14 2.1286496e-06 -4.3590923e-11
0002b0 7f 59 b6 b1 e6 e2 08 ab e6 a5 88 29 d8 b1 8a 2d
       -5.3070717e-09 -4.863179e-13 6.068392e-14 1.5767762e-11
0002c0 2c fb e1 31 e0 1c 88 35 61 ae 52 b6 ac a0 c2 b0
       6.576917e-09 1.0141193e-06 -3.139394e-06 -1.4161023e-09
0002d0 ba 5e 0e b6 28 e8 ff 36 40 57 9b ad c8 ea 83 b4
       -2.1214787e-06 7.6266188e-06 -1.7660207e-11 -2.4571477e-07
0002e0 58 42 6a 2c 7f 5b 8c 30 c6 df b0 32 a8 4f a6 32
       3.3290228e-12 1.0212345e-09 2.0590857e-08 1.9361167e-08
0002f0 42 27 b7 a7 90 13 af 28 15 04 0d 35 98 c0 dc 2a
       -5.0835267e-15 1.9437387e-14 5.2532533e-07 3.921349e-13
000300 16 12 12 a8 32 06 ce 34 f6 a2 61 a8 2c d1 65 28
       -8.10855e-15 3.8374998e-07 -1.25253455e-14 1.27574106e-14
000310 1e 48 ec 28 de f6 ff af d6 44 0c 35 73 fe 17 b0
       2.623254e-14 -4.655964e-10 5.2254234e-07 -5.5295074e-10
000320 da a5 9c a7 e7 db c4 b1 34 0b 3a 2b 14 89 f9 b1
       -4.3478515e-15 -5.7293508e-09 6.609602e-13 -7.2624378e-09
000330 3c ba 77 ac 67 92 bf ad 24 cc 34 b0 47 c8 62 b7
       -3.5204192e-12 -2.1779202e-11 -6.577372e-10 -1.351728e-05
000340 6c 89 b8 2e e6 4c 7d b3 10 5c ec af db 0d 2a 2a
       8.391762e-11 -5.897609e-08 -4.2993564e-10 1.510384e-13
000350 89 85 66 27 e4 1e 51 31 94 67 60 b3 60 f2 6a 35
       3.1991302e-15 3.0431062e-09 -5.2248268e-08 8.7524495e-07
000360 53 e7 b5 ad a0 08 79 b0 5a 6d d7 2d 1d 0c 9f b2
       -2.0680046e-11 -9.059793e-10 2.4491232e-11 -1.8515545e-08
000370 46 e4 36 2b fe 32 95 31 03 4b d4 b0 21 fd 71 b5
       6.497618e-13 4.342268e-09 -1.544635e-09 -9.014785e-07
000380 8e 72 99 ab 9e 84 19 28 7e 6f 31 b1 c0 8c 69 b4
       -1.0903099e-12 8.521963e-15 -2.5820266e-09 -2.175102e-07
000390 4c 3c a2 b1 fc 77 fe 2a 28 13 3f 26 fe 5d 18 a9
       -4.7216755e-09 4.520272e-13 6.62924e-16 -3.3832305e-14
0003a0 e4 5d b4 a8 64 1d 2b b3 5b 7e 97 33 bc fb 4e 32
       -2.0024733e-14 -3.984077e-08 7.0544694e-08 1.2048016e-08
0003b0 94 be fc af 0a 9d 7d 28 c7 49 c0 2d b9 e0 b6 b3
       -4.5973947e-10 1.4078374e-14 2.1860637e-11 -8.515912e-08
0003c0 1c 76 d6 28 50 0d fd aa ce fe 0b a8 a0 00 cd a8
       2.3809995e-14 -4.4951065e-13 -7.771302e-15 -2.2759843e-14
0003d0 54 10 88 b3 6a 94 bb a6 b2 82 73 a7 84 91 0d b6
       -6.3359636e-08 -1.3015959e-15 -3.3793874e-15 -2.1095339e-06
0003e0 a6 f9 50 ad e0 78 b1 2f a7 9e 1a 2b 02 8f 99 2b
       -1.1878864e-11 3.2282e-10 5.4931965e-13 1.0910996e-12
0003f0 36 2b cd aa 89 e6 df 33 39 02 69 28 38 c4 62 29
       -3.64453e-13 1.0426181e-07 1.293458e-14 5.0352273e-14

gat_layer1.linear_r.weight f4 [64, 8]
000000 f8 76 10 b0 58 30 92 b0 a4 2d 1d 35 40 ad 53 b5
       -5.255596e-10 -1.0636638e-09 5.8553474e-07 -7.885574e-07
000010 f5 cb 1a 30 81 b2 08 b5 11 95 97 30 52 47 87 30
       5.6314714e-10 -5.0923705e-07 1.1029063e-09 9.842813e-10
000020 52 74 0c 36 f6 f1 51 af f1 eb 9b b3 fe 65 b7 b1
       2.0929333e-06 -1.9094401e-10 -7.2606674e-08 -5.337596e-09
000030 83 91 a7 31 2b 59 27 b0 43 eb 1d 31 50 8b 56 b2
       4.8768825e-09 -6.088096e-10 2.2980238e-09 -1.2488115e-08
000040 b6 32 86 b4 ea 69 fd b1 9a b7 ca 30 aa f4 80 32
       -2.4996342e-07 -7.37531e-09 1.4749617e-09 1.5012422e-08
000050 46 b1 40 ae 2e 55 f2 34 16 77 4f 32 6f de 2c b1
       -4.3813196e-11 4.513799e-07 1.2076063e-08 -2.5155733e-09
000060 8a 53 76 ae a0 99 ac b4 94 d2 97 b6 2a 88 0a 34
       -5.6008122e-11 -3.2149273e-07 -4.524665e-06 1.2901788e-07
000070 b4 e7 34 b3 76 89 6d 34 34 80 e1 af 51 81 e2 af
       -4.212025e-08 2.2122353e-07 -4.1018355e-10 -4.1201045e-10
000080 10 c0 85 af aa 38 df 33 2b 70 67 ad dc d0 c9 30
       -2.4329028e-10 1.0394554e-07 -1.3155736e-11 1.4684036e-09
000090 78 e9 f5 35 de 8e 01 b4 8e 0b f5 34 03 2e 67 af
       1.8321871e-06 -1.2066036e-07 4.5643213e-07 -2.1025674e-10
0000a0 dc 23 ea ad 86 4f 20 30 40 ae da 34 3d 5b 83 b0
       -2.6618645e-11 5.832067e-10 4.0732448e-07 -9.557436e-10
0000b0 c6 55 8c 36 74 33 86 30 96 a2 c2 b1 2a 3e 3e b2
       4.1823105e-06 9.764407e-10 -5.664627e-09 -1.107359e-08
0000c0 20 8e 3c 2e 32 e6 30 37 79 13 87 31 bf 73 7d af
       4.2872483e-11 1.0544014e-05 3.931231e-09 -2.3051337e-10
0000d0 02 10 ac 2e 4e 72 2d 33 b3 da 47 32 ca c1 3d b4
       7.824498e-11 4.038366e-08 1.1633051e-08 -1.7672497e-07
0000e0 36 29 27 af 28 22 97 31 ba 0c 20 b3 57 84 df 2e
       -1.5203203e-10 4.3985615e-09 -3.7264478e-08 1.0164374e-10
0000f0 82 8a 1b b6 88 b0 df b4 a3 89 0e 32 1a 9f 2c b1
       -2.3177422e-06 -4.166543e-07 8.296783e-09 -2.5119733e-09
000100 20 a1 88 b5 61 24 d5 b3 80 c3 9a b4 80 f4 e2 31
       -1.0179683e-06 -9.925203e-08 -2.882698e-07 6.605262e-09
000110 5c 79 04 b1 7c 3f 31 34 bc a8 95 2e ad f6 d3 b0
       -1.9277513e-09 1.6507505e-07 6.805709e-11 -1.542238e-09
000120 dd 69 9b af d0 4f 33 36 ef 5e 73 32 f1 e5 56 33
       -2.8269556e-10 2.6719536e-06 1.4166047e-08 5.003489e-08
000130 d6 55 e3 af 9a 21 b5 36 62 06 90 34 29 a0 9a b4
       -4.135205e-10 5.398132e-06 2.6826734e-07 -2.8801267e-07
000140 e6 93 37 b4 f8 cb 64 af 0a 70 83 b1 e4 fe b6 36
       -1.7097008e-07 -2.0808943e-10 -3.825339e-09 5.453696e-06
000150 9c 2a 0c b1 d6 4e 02 30 c0 07 fd af 7a af 32 30
       -2.0396902e-09 4.7405757e-10 -4.602594e-10 6.500539e-10
000160 71 b9 7a 34 3c 9d d9 af 22 1c ca b2 9a 17 cf 31
       2.3350528e-07 -3.9583792e-10 -2.3528688e-08 6.027176e-09
000170 2c 84 dc af 74 c7 80 b2 c8 b5 29 35 f2 96 5e b5
       -4.011168e-10 -1.4991862e-08 6.322193e-07 -8.29211e-07
000180 04 2e a7 2e 45 be a9 b2 67 8c 4d 30 c1 1f 85 35
       7.602455e-11 -1.9760714e-08 7.477809e-10 9.918514e-07
000190 a5 01 fc ae de 4e 3b 30 8c b9 fc 31 46 05 66 b5
       -1.14599254e-10 6.814228e-10 7.3552595e-09 -8.568935e-07
0001a0 be fe 5b 35 81 26 6f b0 4a 58 58 35 3c 97 d2 2e
       8.1954556e-07 -8.700241e-10 8.059475e-07 9.576559e-11
0001b0 e6 f3 71 32 58 ec b7 b4 7a 3e 53 30 b8 4e 23 b3
       1.4083502e-08 -3.425837e-07 7.685014e-10 -3.802299e-08
0001c0 ea aa 6a b1 2e 47 91 30 60 da cd b1 56 8a 15 2f
       -3.4148635e-09 1.0570369e-09 -5.9911116e-09 1.3600618e-10
0001d0 2a 11 f2 30 e2 45 30 33 ac 21 64 2f ce 73 0e 2f
       1.7612696e-09 4.104175e-08 2.0748442e-10 1.2955967e-10
0001e0 ff c0 81 ae 67 a2 8f b0 40 8c d9 af c7 a6 82 b2
       -5.900524e-11 -1.0450777e-09 -3.9571724e-10 -1.5209833e-08
0001f0 38 22 20 2f cc 69 fc 2f 42 55 84 b5 34 52 c8 36
       1.4564072e-10 4.5913706e-10 -9.85958e-07 5.970034e-06
000200 55 23 b7 35 1a 2e be b1 58 e1 a9 b2 b0 32 3d 35
       1.3644845e-06 -5.534969e-09 -1.9776664e-08 7.0481747e-07
000210 16 f0 ad 32 fa 42 dd 2e 69 96 e6 b4 d0 d3 52 30
       2.024903e-08 1.0061814e-10 -4.2950276e-07 7.669856e-10
000220 3a 72 57 35 e8 ad 77 b2 22 58 d2 2e 5b eb 6e 2f
       8.0259963e-07 -1.4416834e-08 9.56535e-11 2.1729589e-10
000230 84 6b 0d 2d 7f 9c be af 44 18 aa 30 81 11 a8 b2
       8.038795e-12 -3.4671996e-10 1.2376025e-09 -1.9565734e-08
000240 ec 6a 19 33 e2 b9 be b2 1f 34 9b 33 d2 9e c7 31
       3.5720333e-08 -2.220344e-08 7.227231e-08 5.809718e-09
000250 58 5c 76 2c 64 e6 80 30 cd 50 ab b2 03 d6 8e b6
       3.5009964e-12 9.378707e-10 -1.9943764e-08 -4.256844e-06
000260 12 f0 da b1 8b 6c 2c b2 cc 3c 96 34 d4 4f 81 30
       -6.371928e-09 -1.00363975e-08 2.7983913e-07 9.408674e-10
000270 25 1f cd b4 4a 4f 09 b6 fa 23 40 b0 95 c0 73 af
       -3.8206886e-07 -2.0460743e-06 -6.990032e-10 -2.216914e-10
000280 7c 3f 92 b3 66 07 b0 b4 06 13 a8 b3 c0 7a dc 2e
       -6.8102025e-08 -3.2787938e-07 -7.82657e-08 1.00262465e-10
000290 10 24 79 ad 70 54 c9 2f d0 e7 f1 2e a4 73 45 2f
       -1.4162019e-11 3.6621683e-10 1.1000589e-10 1.795813e-10
0002a0 90 de 14 b3 65 24 2e b4 7a bf 10 b0 b3 6f 09 b1
       -3.4661355e-08 -1.6218253e-07 -5.2659e-10 -1.9999618e-09
0002b0 b8 d1 72 b2 8e 7c 9d 31 52 22 76 32 cb c1 9b b0
       -1.41339385e-08 4.5834616e-09 1.4326888e-08 -1.1332814e-09
0002c0 06 1b 7e 34 ef 72 d2 33 e0 ab 1e 30 ec 40 8f ad
       2.3665424e-07 9.799793e-08 5.7724314e-10 -1.6286049e-11
0002d0 e8 9c b2 b5 b4 37 8c 33 a2 85 1c 31 74 b2 ae 2f
       -1.3307699e-06 6.5293904e-08 2.277695e-09 3.1777214e-10
0002e0 68 45 23 b6 f5 81 18 2f 74 fc 7b b1 b4 18 41 36
       -2.4329293e-06 1.387049e-10 -3.666881e-09 2.877362e-06
0002f0 0d a5 16 b1 68 64 f2 b2 f4 83 12 b0 cc ed 40 30
       -2.1921693e-09 -2.8218167e-08 -5.330201e-10 7.0187123e-10
000300 3c ed f1 b3 56 53 21 33 9b d9 96 b3 c6 07 6c b5
       -1.126559e-07 3.7561527e-08 -7.0245015e-08 -8.7928163e-07
000310 f7 1e 76 b6 70 d5 99 b1 7a 7e 07 31 f0 32 96 31
       -3.667488e-06 -4.477151e-09 1.971698e-09 4.3713655e-09
000320 da 98 70 2e 40 5c 6b af 54 9c 76 b2 51 f7 3e ac
       5.470544e-11 -2.1405899e-10 -1.43546295e-08 -2.7137912e-12
000330 fc 01 76 34 20 26 2f af 75 21 f6 af 8c 00 0c b0
       2.2911257e-07 -1.5929702e-10 -4.4770912e-10 -5.093248e-10
000340 e4 ef ca b4 ad 56 42 34 62 aa 12 b3 32 39 a1 ac
       -3.7799975e-07 1.809919e-07 -3.4148236e-08 -4.582245e-12
000350 58 31 a3 ab 4c 55 2e 30 54 8f 4c 30 20 ca bd 2f
       -1.1595542e-12 6.3422045e-10 7.441845e-10 3.4522518e-10
000360 54 e5 86 33 a7 00 24 32 34 d2 7c 32 9e ac d0 b0
       6.281576e-08 9.546205e-09 1.4716125e-08 -1.5183053e-09
000370 95 26 43 35 e5 90 42 30 10 da 62 33 8e 88 c2 b0
       7.2699305e-07 7.0782696e-10 5.2818052e-08 -1.4154169e-09
000380 68 ad 91 32 f4 d7 bc ac 34 bb 0d b3 16 4a 7b 33
       1.6959078e-08 -5.367257e-12 -3.299938e-08 5.8507872e-08
000390 fe 4e 87 2f f0 b6 f3 af 56 82 30 32 9e 9f 71 b3
       2.4612484e-10 -4.4331427e-10 1.0274183e-08 -5.6257356e-08
0003a0 86 9b 44 2f 12 0d 81 b1 a4 93 be b3 14 1c f9 b4
       1.7881349e-10 -3.75588e-09 -8.87442e-08 -4.6400294e-07
0003b0 d4 7f 06 b2 f0 c6 d8 2c cc 10 37 2f 4c dd 8e 2f
       -7.828891e-09 6.1611757e-12 1.664972e-10 2.598689e-10
0003c0 ae c6 68 30 a6 ea 36 b1 50 d8 00 ae d8 91 da b2
       8.468345e-10 -2.6617868e-09 -2.9295955e-11 -2.5444862e-08
0003d0 e3 4e cd b2 98 53 e0 b4 d3 33 aa b6 14 f3 b2 b4
       -2.3901015e-08 -4.1784074e-07 -5.072428e-06 -3.3331946e-07
0003e0 65 1e cd af 29 5b c3 b0 62 17 fa 2f 46 ed eb af
       -3.731088e-10 -1.4214027e-09 4.549135e-10 -4.2914844e-10
0003f0 6c b7 ab 30 82 68 16 36 03 35 4b b5 3c 8f 05 b4
       1.2494019e-09 2.2412573e-06 -7.5700535e-07 -1.2438699e-07

gat_layer1.attn.weight f4 [1, 64]
000000 90 aa 96 a8 a8 8a 11 2a cc 41 37 a8 44 87 88 2a
       -1.6727315e-14 1.2926693e-13 -1.0172808e-14 2.4252312e-13
000010 00 f5 82 b4 36 67 01 ac 4d f4 a0 2a 28 46 dd a8
       -2.4392648e-07 -1.8389296e-12 2.8591227e-13 -2.4566354e-14
000020 c6 40 fb ae 7e a3 da 2e b7 1d 4d b7 7c 72 e6 2f
       -1.14256646e-10 9.942534e-11 -1.2225871e-05 4.1918102e-10
000030 b5 e1 83 29 d8 c6 e9 b3 e4 7d 37 ab 16 1b aa 27
       5.8567226e-14 -1.08860775e-07 -6.518937e-13 4.7213845e-15
000040 7c 26 46 2c 9a e4 fc 36 76 09 c7 35 db b2 2b 29
       2.8158855e-12 7.536798e-06 1.4829409e-06 3.812476e-14
000050 e3 b0 29 af fc 93 e9 aa 73 65 75 2d ff 5c e1 b2
       -1.5433303e-10 -4.14918e-13 1.3949164e-11 -2.6235737e-08
000060 00 4f a6 ae 80 07 92 36 22 4e 0a 2a 28 1c 80 35
       -7.562839e-11 4.352012e-06 1.228397e-13 9.544938e-07
000070 9b 4d 19 af 92 57 08 b2 d1 4d 4f 31 0c 6e 9b ac
       -1.394284e-10 -7.936153e-09 3.0166698e-09 -4.4175826e-12
000080 4e d6 ba b2 4a 57 2a 2e e0 ba 2b 29 99 92 f7 a7
       -2.1750704e-08 3.8731053e-11 3.8131716e-14 -6.8715213e-15
000090 5b 25 1e 32 48 1b ed 32 fb 19 cf b5 0d 22 de b2
       9.205304e-09 2.7602837e-08 -1.5430263e-06 -2.5859686e-08
0000a0 2a d9 55 af 34 6a 2b 28 00 54 95 b3 5e 1d e0 b4
       -1.944939e-10 9.515436e-15 -6.953633e-08 -4.174462e-07
0000b0 c8 b1 26 ad 94 ec 9c 35 71 ac b6 b5 ce 1d 54 32
       -9.475483e-12 1.1691759e-06 -1.3610244e-06 1.2346801e-08
0000c0 fe e9 c0 ab dc 48 8f af 2c 51 82 b1 74 0f 6f b4
       -1.3707366e-12 -2.6063318e-10 -3.792726e-09 -2.2264231e-07
0000d0 f9 08 80 b3 38 ee b1 af 48 84 f2 2a fc 9d 16 31
       -5.9620966e-08 -3.2365377e-10 4.3079624e-13 2.1917677e-09
0000e0 30 d2 03 a9 8c 8d 68 b6 c2 dc 0c b5 67 3a c7 a9
       -2.9270152e-14 -3.4653085e-06 -5.247531e-07 -8.8475065e-14
0000f0 88 11 6e 27 00 10 81 31 78 cd 7b 28 3a e7 35 a9
       3.3038639e-15 3.756213e-09 1.3977853e-14 -4.039063e-14

gat_layer.linear_l.weight f4 [64, 64]
000000 18 da 98 ae ca aa 31 aa 36 c1 82 2a 85 f7 24 ab
       -6.950901e-11 -1.5780012e-13 2.3226706e-13 -5.8608007e-13
000010 ae 95 55 30 89 70 12 aa 26 00 a0 b4 d0 14 c9 36
       7.7701656e-10 -1.3006448e-13 -2.980243e-07 5.9926897e-06
000020 c3 d5 0c 33 62 01 77 34 5a 0a da a5 30 0a 8d 2c
       3.2790705e-08 2.300417e-07 -3.7823986e-16 4.008592e-12
000030 f0 f7 19 af f2 38 41 b2 96 8a 67 33 f8 43 d8 30
       -1.4003354e-10 -1.1247026e-08 5.3909922e-08 1.5735386e-09
000040 da 8a 84 ac ec c0 2c 30 4f ec da 34 a4 4f b5 b1
       -3.7670813e-12 6.2847394e-10 4.07776e-07 -5.2768474e-09
000050 80 d9 70 b5 fa 21 c5 b1 b8 55 87 34 66 df 10 30
       -8.972347e-07 -5.7373173e-09 2.5208078e-07 5.2704363e-10
000060 3a 52 59 33 cd c0 c3 29 d8 8b 34 33 7a 78 05 b6
       5.0599034e-08 8.693185e-14 4.2036703e-08 -1.988867e-06
000070 a0 95 6f ac a4 f7 45 36 e8 76 32 32 ea 4f a7 30
       -3.4047001e-12 2.9499433e-06 1.0388e-08 1.2173562e-09
000080 00 46 04 2f b4 2a fe b0 09 e2 17 a8 6b f0 25 b1
       1.2030199e-10 -1.8493069e-09 -8.431197e-15 -2.4147322e-09
000090 e8 a6 60 34 16 60 96 a7 e0 27 20 2f 52 c0 b1 34
       2.0922346e-07 -4.173754e-15 1.4566082e-10 3.310875e-07
0000a0 4e ff 1d 2b 7d 36 62 ad 03 f3 d0 35 72 36 0c 27
       5.613191e-13 -1.28587115e-11 1.5567933e-06 1.9458418e-15
0000b0 68 d4 86 a7 24 e2 99 a8 2e 8c 89 34 0a e6 54 b5
       -3.7422763e-15 -1.7084485e-14 2.5620233e-07 -7.9310905e-07
0000c0 fc 95 a0 a7 ad d0 ad 34 fb 7b 1b 29 38 02 dc a6
       -4.4571534e-15 3.2375593e-07 3.452445e-14 -1.5266168e-15
0000d0 bc 79 6c 32 d8 6f 84 28 70 69 6e af 6c ee 79 af
       1.3764687e-08 1.4703448e-14 -2.1683433e-10 -2.2731123e-10
0000e0 10 97 a8 34 2a 2b b7 27 1a 06 4f 32 a0 46 31 2d
       3.140235e-07 5.08395e-15 1.2050373e-08 1.0076967e-11
0000f0 c0 d1 c1 af 3e 7c c5 ab 30 ed 6a a9 2f 65 4d 2d
       -3.5255532e-10 -1.4032176e-12 -5.2164165e-14 1.1675368e-11
000100 ba 11 9e b5 f0 23 eb b3 00 4c 91 30 74 07 2e ae
       -1.1777076e-06 -1.0949577e-07 1.0571739e-09 -3.956964e-11
000110 cc 42 d2 32 27 3c 6c b7 76 f1 b0 b0 d0 a9 e2 32
       2.4477593e-08 -1.40807015e-05 -1.2874313e-09 2.6387085e-08
000120 88 64 55 36 78 18 2f 2e e8 90 c0 ab f4 12 3d b6
       3.179799e-06 3.9812126e-11 -1.368264e-12 -2.8174227e-06
000130 cc dc b0 b6 94 c4 44 34 90 1b 2d a8 cc a1 97 b4
       -5.270913e-06 1.8325437e-07 -9.609406e-15 -2.8243664e-07
000140 10 ef ba 2e 54 a7 28 31 27 76 6c 36 02 ef 30 29
       8.500767e-11 2.4542333e-09 3.5235514e-06 3.9287157e-14
000150 20 d1 03 b7 b0 fc cc b5 d4 5a 26 30 64 5e 5b 2c
       -7.856899e-06 -1.5272726e-06 6.051952e-10 3.117417e-12
000160 1e 5b 65 35 ed b3 0b 2c 72 e8 e7 28 9e 20 74 2c
       8.544174e-07 1.9852967e-12 2.5746959e-14 3.4692592e-12
000170 66 3a b9 af fe 8e 17 29 11 91 08 28 c2 b1 bf 31
       -3.3692799e-10 3.365276e-14 7.580973e-15 5.5790403e-09
000180 3c fb a2 26 bb 1d 4f 2b 4c 73 f2 b5 0c 73 a3 b5
       1.1309105e-15 7.358243e-13 -1.8063961e-06 -1.2177929e-06
000190 55 09 3c 36 fe ca 86 2e 70 1c e8 ae c2 21 5a b4
       2.8019615e-06 6.129673e-11 -1.055519e-10 -2.0315113e-07
0001a0 ea cb ee 28 34 39 98 2a bb ee e9 36 20 b2 e5 2d
       2.6511742e-14 2.7040317e-13 6.971733e-06 2.611339e-11
0001b0 78 95 ec 2b f2 18 a9 a8 e0 e1 86 b5 76 c8 dd 26
       1.6810294e-12 -1.8773587e-14 -1.0049516e-06 1.5389291e-15
0001c0 f6 e3 c5 af 0b 60 94 32 10 90 a0 2d ac de 99 aa
       -3.5996067e-10 1.7273143e-08 1.825387e-11 -2.733277e-13
0001d0 32 50 79 b1 e3 bd 0b 32 f1 b4 90 2c a4 b9 3e 2b
       -3.6279855e-09 8.13404e-09 4.1128147e-12 6.775919e-13
0001e0 f4 a5 ae aa 14 bd 18 a8 6e b2 2e 29 c6 d7 06 2f
       -3.1023762e-13 -8.478695e-15 3.8790524e-14 1.2263887e-10
0001f0 c4 a1 4b b1 d9 a7 04 a9 c0 10 be 28 c8 f7 e3 34
       -2.963234e-09 -2.9455472e-14 2.1101502e-14 4.246233e-07
000200 7c c3 86 2f 14 0e d1 a8 86 bc ad ae 98 90 91 33
       2.4513358e-10 -2.3209767e-14 -7.900618e-11 6.77839e-08
000210 6a ac bf 2e 56 32 4b b1 18 a5 06 b1 76 ae 3d 30
       8.716301e-11 -2.9569e-09 -1.9593411e-09 6.9005723e-10
000220 bc 31 8d a7 36 26 37 a9 f9 46 41 ac d2 02 8e b3
       -3.9189284e-15 -4.0667305e-14 -2.7466347e-12 -6.612903e-08
000230 d5 2d 02 b2 6e 58 73 a7 52 d5 35 a8 1a e3 ca 2e
       -7.577417e-09 -3.3770962e-15 -1.0093775e-14 9.226238e-11
000240 d7 cf 01 a9 10 c3 37 28 7a d7 5a 2a 9a da 0e 2f
       -2.8824026e-14 1.0200838e-14 1.9437048e-13 1.2992488e-10
000250 c8 63 a3 a7 64 45 5b 32 ac f9 4f 28 44 31 2f ac
       -4.534977e-15 1.2763255e-08 1.1544947e-14 -2.4896344e-12
000260 4e 09 5c 2c ec e1 69 2d a8 4b aa 2f 1c 8d 45 34
       3.1269046e-12 1.3294681e-11 3.0976577e-10 1.839839e-07
000270 88 17 3e 35 f0 38 83 aa 60 85 a6 2b 0e 75 02 32
       7.081476e-07 -2.3309783e-13 1.1832028e-12 7.593611e-09
000280 aa 91 e1 a7 af eb a8 ab c3 b1 03 28 30 06 48 a6
       -6.2607974e-15 -1.2002533e-12 7.310507e-15 -6.9397325e-16
000290 ee b3 15 2a 38 d2 e0 28 18 9c e5 32 fc be 6d ac
       1.3296284e-13 2.4960164e-14 2.6730092e-08 -3.3785743e-12
0002a0 d6 38 43 ae 20 1e 84 34 44 9b 45 af 65 7d 99 30
       -4.4388347e-11 2.4608835e-07 -1.7972207e-10 1.1167854e-09
0002b0 70 24 0d a7 46 79 d1 a7 38 54 0a b6 f2 e7 1f 34
       -1.9587434e-15 -5.814064e-15 -2.0612624e-06 1.489241e-07
0002c0 9a ec 40 30 b0 f3 15 ab 75 5e e6 2f f0 a1 42 32
       7.0185424e-10 -5.327362e-13 4.1903872e-10 1.13291065e-08
0002d0 98 36 b7 31 dd 80 9a 36 49 d1 d3 b3 c1 61 33 af
       5.3322076e-09 4.6045593e-06 -9.863522e-08 -1.6314684e-10
0002e0 c0 7c 5e 29 a0 c8 10 2c c8 c1 4b a6 50 be 42 ae
       4.9402106e-14 2.0575e-12 -7.0692396e-16 -4.4279524e-11
0002f0 08 5d 6c 2d 98 6b b7 2d aa be 69 b4 86 a1 11 b4
       1.3435704e-11 2.0852473e-11 -2.1769179e-07 -1.3562939e-07
000300 7a d0 d3 a8 48 54 9f b0 64 fe da b4 ea 4d 90 2d
       -2.3516118e-14 -1.1592727e-09 -4.0790758e-07 1.6405505e-11
000310 54 4d 84 2a 15 be 2f 28 10 0f 7b af ac 43 88 29
       2.3501567e-13 9.755669e-15 -2.2833668e-10 6.0513525e-14
000320 f2 c6 26 ad c4 59 25 2d 10 0a b1 30 8b 25 91 aa
       -9.480182e-12 9.399096e-12 1.2881305e-09 -2.5783225e-13
000330 78 71 cf b0 d5 1d 6b b5 53 38 48 b1 68 8d a8 ad
       -1.5093482e-09 -8.7587733e-07 -2.9135847e-09 -1.9162186e-11
000340 29 c2 0d ac d8 1b 9b 36 f6 e2 83 2c 49 48 18 28
       -2.0145086e-12 4.6226014e-06 3.7484417e-12 8.453369e-15
000350 14 8d 34 26 1d 1a bc a9 20 c8 c0 ad 88 2f 89 31
       6.264124e-16 -8.353407e-14 -2.1916746e-11 3.9926285e-09
000360 12 21 c4 30 3f 34 2e a8 cc 76 f9 30 d8 e8 00 b7
       1.4270276e-09 -9.670269e-15 1.8150899e-09 -7.683608e-06
000370 9a 81 2f b1 2d 6c 8b 30 18 fa 14 37 f8 91 bb aa
       -2.5539522e-09 1.0144326e-09 8.879717e-06 -3.331916e-13
000380 25 9d 01 34 51 e5 7d 36 64 eb 99 af 93 cc a9 2f
       1.207123e-07 3.7833418e-06 -2.7997793e-10 3.088628e-10
000390 9f 55 a8 ab 00 9e 95 27 96 64 e6 24 2a ab a1 b3
       -1.1960883e-12 4.152711e-15 9.9917e-17 -7.528281e-08
0003a0 f0 ff f7 a8 93 2c 61 a5 8a 96 41 2c 06 c7 45 aa
       -2.7533504e-14 -1.9530741e-16 2.7510516e-12 -1.7566165e-13
0003b0 88 b5 83 33 58 d6 09 31 ba dd 00 b1 34 d2 d7 b4
       6.133183e-08 2.0057964e-09 -1.8752488e-09 -4.0199814e-07
0003c0 90 fa 51 31 30 57 08 2b cc f8 27 ae fc 77 f5 aa
       3.0555931e-09 4.8437903e-13 -3.819238e-11 -4.3603998e-13
0003d0 10 b1 7b b2 61 30 f8 b5 cd 43 4a b2 33 26 95 ab
       -1.4650382e-08 -1.849152e-06 -1.1773364e-08 -1.0597689e-12
0003e0 14 fd b6 36 f2 42 54 2a 70 fc 4b ab f2 85 69 35
       5.453485e-06 1.8852609e-13 -7.2470415e-13 8.699418e-07
0003f0 c0 7a 0c 2e 82 df 73 35 ef fa 4c af 18 81 df 32
       3.194134e-11 9.08498e-07 -1.8642841e-10 2.6019322e-08

gat_layer.linear_r.weight f4 [64, 64]
000000 b6 3b 01 35 7d 7f d8 35 6b 68 a0 2f c0 d5 ef 32
       4.8143136e-07 1.6130358e-06 2.9178024e-10 2.7920464e-08
000010 f6 2a d1 ad d0 c9 89 2c d0 a3 e3 b6 ca ab 67 36
       -2.3779628e-11 3.91618e-12 -6.7841975e-06 3.4521677e-06
000020 a6 e1 b0 35 3c 79 dc b0 80 7b a6 b0 56 94 2a 34
       1.3178694e-06 -1.6041564e-09 -1.211319e-09 1.5886448e-07
000030 d2 56 09 30 6a 73 a0 36 02 89 4f 36 08 09 9e ad
       4.996369e-10 4.7818075e-06 3.0925153e-06 -1.7966531e-11
000040 2a 71 3b 30 84 7e 7b 2c d5 c1 b1 30 70 c6 92 31
       6.819102e-10 3.5739476e-12 1.2933535e-09 4.271719e-09
000050 1e 85 07 b4 be e3 ae b4 80 38 97 b1 76 7b 82 36
       -1.2621283e-07 -3.257573e-07 -4.4011017e-09 3.8886747e-06
000060 04 d4 08 b5 e4 c8 4e b3 04 e1 1e b6 a8 64 82 b3
       -5.097247e-07 -4.814582e-08 -2.367481e-06 -6.071906e-08
000070 3b 7a aa 33 1e 38 47 36 e0 84 f5 2d b8 3b d3 b4
       7.9384755e-08 2.9685975e-06 2.7912284e-11 -3.9345264e-07
000080 58 ed cf 35 64 57 05 b5 ba 12 20 ae 04 f8 d7 af
       1.5491778e-06 -4.967353e-07 -3.639642e-11 -3.9284498e-10
000090 6e 09 9a b1 a3 a7 a3 b5 82 dd 31 b0 fc 42 22 34
       -4.483062e-09 -1.2193235e-06 -6.4707006e-10 1.5111794e-07
0000a0 10 a8 0c 32 8e 8f 98 b4 16 d4 2b 2d 81 47 35 2f
       8.1872855e-09 -2.8416656e-07 9.767317e-12 1.6487257e-10
0000b0 d8 2b 89 36 c5 ae 22 31 98 1c ed b4 e2 0a 5b af
       4.0880223e-06 2.3673448e-09 -4.4165495e-07 -1.99218e-10
0000c0 90 23 a6 2e b0 73 95 2c d6 90 02 2f bf b2 55 ae
       7.555123e-11 4.2476786e-12 1.1874887e-10 -4.858935e-11
0000d0 40 b7 ca b6 f5 c3 94 ae bd a3 dd b1 36 3d cc 35
       -6.0414022e-06 -6.76507e-11 -6.4505614e-09 1.5216999e-06
0000e0 ae c8 93 af f2 7b 11 36 6a 03 a8 32 bb 2b d3 34
       -2.6881736e-10 2.167883e-06 1.9559327e-08 3.933363e-07
0000f0 9e 1f 41 b3 97 23 8f 34 bc 6d 5c 2d 53 67 08 35
       -4.496507e-08 2.666172e-07 1.2529918e-11 5.0814305e-07
000100 40 79 8f b2 c0 4d 8a b1 74 84 98 b5 c4 67 d3 2f
       -1.670253e-08 -4.0251678e-09 -1.1363431e-06 3.8454406e-10
000110 3a b9 4a 30 5c 32 c4 32 10 d8 80 b5 72 8c bf 2d
       7.3750395e-10 2.2840304e-08 -9.599626e-07 2.1776556e-11
000120 38 a5 60 32 79 86 a4 b6 00 17 c9 33 5a d5 94 34
       1.3076082e-08 -4.9032355e-06 9.3639756e-08 2.7722382e-07
000130 84 ce 9e 34 8e 29 f3 34 26 97 7d 31 22 65 99 2d
       2.9580053e-07 4.5292512e-07 3.6902263e-09 1.7438998e-11
000140 61 d1 b9 b2 3b 1c d0 b1 d1 15 0d 37 e6 d2 7d b2
       -2.1632049e-08 -6.056806e-09 8.409334e-06 -1.4774491e-08
000150 af bb 67 35 90 e5 7d b1 98 ca de 2c 72 fa cc 2e
       8.632732e-07 -3.6946837e-09 6.332112e-12 9.321334e-11
000160 74 0c 99 33 a1 e1 84 b3 bc de fa 2d 30 68 8b b2
       7.126883e-08 -6.187771e-08 2.8520623e-11 -1.6229109e-08
000170 28 f8 08 2c 02 03 bc 31 ca f9 eb b5 73 0c 98 ae
       1.9464517e-12 5.471862e-09 -1.7581563e-06 -6.914371e-11
000180 98 1d a2 33 fb 4b a1 30 5c 8a 0f b5 36 c9 0a b3
       7.549096e-08 1.1735887e-09 -5.347299e-07 -3.231363e-08
000190 2e 1b d8 31 a6 f5 6c b0 ee 54 1c 36 66 eb 6c 34
       6.2895174e-09 -8.620539e-10 2.3295247e-06 2.206485e-07
0001a0 9f 54 43 34 b9 94 4b 31 e0 ac bf 34 40 9b d6 ac
       1.8191575e-07 2.9624927e-09 3.5702305e-07 -6.099482e-12
0001b0 fd 32 10 36 2e fb 00 ad 50 9d cb 2e 0c 24 50 b4
       2.1487351e-06 -7.331731e-12 9.2593155e-11 -1.9384623e-07
0001c0 d0 9e 42 32 c0 75 43 2e 18 e4 b3 31 a2 d3 33 33
       1.1328396e-08 4.444245e-11 5.235517e-09 4.1869164e-08
0001d0 12 6e 3f ae 1e e6 e6 2e 26 6c 04 b2 2c e6 82 ac
       -4.3526134e-11 1.0500066e-10 -7.708001e-09 -3.7203764e-12
0001e0 a8 fd 00 b7 57 f0 47 b2 10 cb 10 b1 4c 9b 8b b4
       -7.6884535e-06 -1.16379715e-08 -2.1070186e-09 -2.600376e-07
0001f0 e4 8b 80 34 db 8e 60 34 55 f9 18 2f b8 d9 01 31
       2.3943642e-07 2.0913596e-07 1.39129e-10 1.889573e-09
000200 ca 5d 8a b0 ce 04 84 31 40 71 39 b0 80 44 58 b4
       -1.0067478e-09 3.842252e-09 -6.7463546e-10 -2.0141488e-07
000210 00 cc 02 b3 1c 0f 90 35 0e 9c 93 34 e0 29 1c b6
       -3.045352e-08 1.0733233e-06 2.7494428e-07 -2.3270186e-06
000220 78 96 f0 32 08 2a 90 b3 9f 55 46 32 eb d7 27 b3
       2.8008103e-08 -6.713168e-08 1.1544585e-08 -3.9079094e-08
000230 1c 5f 76 34 94 5b 3b 34 c0 27 01 2c a9 26 e4 af
       2.2945136e-07 1.7449048e-07 1.8354068e-12 -4.1500428e-10
000240 a2 6d 33 b7 17 66 c8 ad 80 fd b3 2f 10 18 af b1
       -1.0694757e-05 -2.2782705e-11 3.2740033e-10 -5.095906e-09
000250 32 44 c7 b3 25 67 43 b4 00 67 a7 af e8 2b 9f 30
       -9.279064e-08 -1.8198314e-07 -3.045031e-10 1.1581252e-09
000260 2c 8e 02 32 a7 e1 35 b7 09 91 48 b2 0a 57 c9 b5
       7.599322e-09 -1.08409795e-05 -1.1674509e-08 -1.5000999e-06
000270 5a a3 93 b1 88 ea 6b b6 88 6f f2 ad 6e 60 41 36
       -4.296834e-09 -3.5154244e-06 -2.7561745e-11 2.881537e-06
000280 f0 c8 45 ad 3c ab 33 b0 40 29 1c 36 0b bb 17 b7
       -1.1242771e-11 -6.536316e-10 2.3269822e-06 -9.043851e-06
000290 64 cf 82 32 e0 a7 89 2f b8 02 75 b2 3a 93 05 36
       1.5228302e-08 2.5039437e-10 -1.4261495e-08 1.9904242e-06
0002a0 db 87 de b0 26 8a 71 ad 9d f2 4c b3 82 53 c6 b5
       -1.6191238e-09 -1.3729939e-11 -4.7718107e-08 -1.4776454e-06
0002b0 6a 74 dd b1 b4 01 3e af a2 36 5c b6 bb 66 8b b4
       -6.4451813e-09 -1.7281004e-10 -3.2814355e-06 -2.5965514e-07
0002c0 f2 d2 e1 36 9b fb 31 2c 60 55 ec 32 3a ea e4 b5
       6.73008e-06 2.5292882e-12 2.751284e-08 -1.7055493e-06
0002d0 14 ac e0 b5 05 f9 3c 30 bc d9 b3 b5 d2 e9 25 b1
       -1.6739382e-06 6.874788e-10 -1.3399908e-06 -2.4143572e-09
0002e0 ba 76 94 2d 12 20 dd b5 aa 80 b0 b3 d8 de 44 2b
       1.6878377e-11 -1.6475117e-06 -8.2190425e-08 6.9942446e-13
0002f0 59 4c b4 30 93 cc db b5 9e dd 05 b2 e0 dc 94 b4
       1.3118423e-09 -1.637631e-06 -7.792009e-09 -2.7727856e-07
000300 30 05 d1 b0 4a 0d 5f 2e 5a 95 12 30 38 c4 12 33
       -1.5208226e-09 5.0716133e-11 5.332673e-10 3.4171734e-08
000310 1f 60 1d 2f 38 30 e0 2e ec c2 cc 32 02 f7 20 2e
       1.4313216e-10 1.0194906e-10 2.3837366e-08 3.6599175e-11
000320 7f 77 89 31 1c 12 c8 af 83 a0 2e 2f bd f5 92 2f
       4.00081e-09 -3.6392656e-10 1.5882233e-10 2.6731853e-10
000330 40 0a fe 32 64 f6 a4 30 84 71 64 ae e6 39 4a b1
       2.9574153e-08 1.2002599e-09 -5.194202e-11 -2.942778e-09
000340 4c 8c d9 33 c6 b7 7c b1 86 63 08 2f 86 3f 77 b1
       1.013037e-07 -3.677529e-09 1.2404486e-10 -3.597934e-09
000350 1e bd e2 b1 b4 46 a6 af cf 34 8b 2e d4 59 3a b2
       -6.598966e-09 -3.0245462e-10 6.330369e-11 -1.08470495e-08
000360 56 e6 0f b3 1f 4c 04 2f 17 a9 9b ae 70 0f 45 b1
       -3.350427e-08 1.2032374e-10 -7.07862e-11 -2.8676048e-09
000370 54 d9 1e 2e 43 27 8b b0 94 39 9b b2 0e b5 39 2f
       3.6118067e-11 -1.012474e-09 -1.8070558e-08 1.6889976e-10
000380 08 9e cf 31 fa a3 96 2e bc be 4a 2e b2 ad 5a ae
       6.042459e-09 6.8503384e-11 4.609889e-11 -4.9721734e-11
000390 c8 7d 3f ad 59 d5 42 af 0e bb 42 2f e7 fc 92 b4
       -1.0885022e-11 -1.7719994e-10 1.7710652e-10 -2.737863e-07
0003a0 84 b3 07 30 54 dd 3a 2d 18 7e 53 2d c6 cd 16 af
       4.936782e-10 1.0622021e-11 1.202196e-11 -1.3715526e-10
0003b0 9c a0 28 b2 b6 e0 c9 af d6 5c d0 2e de fe a2 2e
       -9.815405e-09 -3.6721354e-10 9.475236e-11 7.4121806e-11
0003c0 0a f6 d8 b2 ba b1 7d af 4c 3b 98 ad 83 c5 9c 2f
       -2.5257595e-08 -2.3073357e-10 -1.7306732e-11 2.8516575e-10
0003d0 43 86 00 30 a8 10 aa ae da 9d 67 2e 42 fc e8 ad
       4.6756926e-10 -7.733664e-11 5.266352e-11 -2.6487371e-11
0003e0 d5 0e a9 31 c8 60 6f b0 0f 3d f8 b0 70 31 0a 30
       4.9202336e-09 -8.708523e-10 -1.8061729e-09 5.027436e-10
0003f0 39 3a 57 af f2 a1 4e b0 88 26 81 b2 02 42 a4 ae
       -1.9574821e-10 -7.51725e-10 -1.5035098e-08 -7.469582e-11

gat_layer.attn.weight f4 [1, 64]
000000 58 ee 95 2c 9e ea 97 a9 fc e0 38 a8 ca 82 42 ab
       4.261296e-12 -6.746447e-14 -1.02628375e-14 -6.910415e-13
000010 1e ca 29 2a 68 91 1c b4 e8 b8 6d 2b c2 c0 45 2b
       1.5080339e-13 -1.458153e-07 8.4455923e-13 7.0255965e-13
000020 d2 00 60 a7 bc b9 f5 2b 2a 5f a7 a9 0c 42 97 af
       -3.108669e-15 1.7459849e-12 -7.432798e-14 -2.751367e-10
000030 c0 92 08 a7 c8 f3 b2 ac 00 89 a0 ac 5a 54 b9 b2
       -1.8953345e-15 -5.0861294e-12 -4.5626836e-12 -2.1575193e-08
000040 90 99 e2 29 08 c1 1a 33 a3 1d a8 ab 04 35 f1 a8
       1.0063055e-13 3.603148e-08 -1.1945344e-12 -2.6779367e-14
000050 23 63 41 32 f8 d5 0e b0 c3 07 12 aa 96 50 ce b5
       1.125662e-08 -5.1963367e-10 -1.2970098e-13 -1.537165e-06
000060 4a b4 b9 2b 9d 94 04 a9 b0 96 b8 ae 11 c8 96 a9
       1.3195081e-12 -2.943879e-14 -8.394119e-11 -6.696044e-14
000070 18 13 23 ac 1e 4d 97 ad c3 8e 0f 27 ba 8b 09 aa
       -2.3174292e-12 -1.720096e-11 1.9922628e-15 -1.2216522e-13
000080 ff ad b2 2e 28 fb e3 2d ba 73 70 a8 28 58 15 ab
       8.125411e-11 2.5918448e-11 -1.33477705e-14 -5.3057775e-13
000090 8c 03 0c 36 d6 bb 0c b7 bc 8f b6 2b 76 c8 74 ac
       2.086369e-06 -8.388384e-06 1.2971772e-12 -3.4785764e-12
0000a0 38 ce 82 ac 88 22 b9 2e 75 bb 88 35 19 69 3d 29
       -3.717717e-12 8.41896e-11 1.0187347e-06 4.2057588e-14
0000b0 16 8d a7 a7 60 39 5b af a8 14 b4 32 2b b9 c4 2a
       -4.6504777e-15 -1.9938318e-10 2.0964151e-08 3.494508e-13
0000c0 ae b7 53 b0 50 6f 4c 2c bd 16 7c b7 24 5a 3a 30
       -7.702238e-10 2.9051934e-12 -1.5025665e-05 6.7794503e-10
0000d0 3c d7 90 29 34 60 31 ad b4 84 9d b0 1e 99 3e 29
       6.432222e-14 -1.00826465e-11 -1.146097e-09 4.2321283e-14
0000e0 d4 5b 87 af d0 ec 3a 2b 5a a4 db 33 9c 16 68 ad
       -2.4621605e-10 6.640912e-13 1.02278776e-07 -1.31926935e-11
0000f0 75 20 d6 ab 4d d9 a7 aa 74 4e 2b a7 00 ff ce b1
       -1.5214623e-12 -2.9815942e-13 -2.3773547e-15 -6.024379e-09

state_value.0.weight f4 [64, 67]
000000 83 80 05 00 ce 76 02 80 63 d4 00 00 e5 f5 05 80
       5.05279e-40 -2.2629e-40 7.619e-41 -5.47388e-40
000010 5a fa 01 00 f9 d4 00 00 e9 66 01 00 68 1b 01 80
       1.81645e-40 7.64e-41 1.28753e-40 -1.01667e-40
000020 f8 8e 05 80 71 fb 04 00 15 78 02 80 7e f6 00 00
       -5.10465e-40 4.57542e-40 -2.26748e-40 8.8425e-41
000030 45 11 01 80 7b f8 02 80 45 75 00 80 5a 70 02 00
       -9.803e-41 -2.72809e-40 -4.2068e-41 2.23975e-40
000040 cb a6 01 00 b7 0f 01 00 6b 8e 00 80 a6 8c 04 00
       1.5167e-40 9.7473e-41 -5.109e-41 4.17797e-40
000050 21 8a 01 80 05 40 01 00 06 d9 00 00 d3 4a 06 00
       -1.41387e-40 1.14801e-40 7.7853e-41 5.77855e-40
000060 8e 82 01 00 60 c5 00 00 c3 b2 03 80 1c 84 06 00
       1.3867e-40 7.0805e-41 -3.39634e-40 5.98405e-40
000070 c2 0d 07 80 4a 3a 03 00 6d db 04 00 d5 ec 04 80
       -6.47784e-40 2.96417e-40 4.46057e-40 -4.52301e-40
000080 70 23 03 80 56 46 00 00 82 21 06 80 4f db 05 80
       -2.88219e-40 2.5232e-41 -5.63033e-40 -5.3785e-40
000090 ef 33 04 80 c1 95 03 00 9b e1 02 80 d5 59 00 00
       -3.85972e-40 3.29228e-40 -2.64603e-40 3.2226e-41
0000a0 0e 2e 04 80 df 5a 03 00 eb c4 02 00 87 5f 01 80
       -3.83863e-40 3.08105e-40 2.54312e-40 -1.26104e-40
0000b0 32 7c 04 00 45 8a 03 00 04 fd 04 00 b5 c7 01 00
       4.11895e-40 3.25108e-40 4.58107e-40 1.63477e-40
0000c0 a9 12 01 00 28 20 06 00 be 75 02 00 48 1c 00 00
       9.853e-41 5.62548e-40 2.25909e-40 1.0145e-41
0000d0 3a ec 03 80 1b 26 06 80 80 2b 04 80 ba 75 03 80
       -3.60249e-40 -5.64683e-40 -3.82947e-40 -3.17739e-40
0000e0 3d d7 04 80 ab 8c 04 80 85 af 05 00 8f 91 04 80
       -4.44555e-40 -4.17804e-40 5.22142e-40 -4.19559e-40
0000f0 11 60 03 00 4f 70 05 80 b6 e6 05 80 b2 75 04 00
       3.09969e-40 -4.99466e-40 -5.41941e-40 4.09563e-40
000100 44 49 03 00 a7 02 01 00 63 a9 00 00 89 72 5b ad
       3.01789e-40 9.2787e-41 6.0765e-41 -1.2474141e-11
000110 04 e9 36 33 28 44 8b 34 70 8b 69 b7 db 3c 0a ac
       4.2587104e-08 2.5940358e-07 -1.3920348e-05 -1.964476e-12
000120 3e 3f c4 a9 1d 9b 93 ab 62 4a ed 31 52 1c 93 2b
       -8.715119e-14 -1.0488031e-12 6.906064e-09 1.0452839e-12
000130 b0 b1 c5 2f 1c 58 10 ad 04 5c 35 ad d4 c2 54 30
       3.5960346e-10 -8.2050165e-12 -1.030909e-11 7.740202e-10
000140 6b ad 86 30 5a 0f d3 2b fa f9 3e aa 94 2d 8d ac
       9.799072e-10 1.4996713e-12 -1.6962118e-13 -4.0125212e-12
000150 5e 4c 88 b4 c4 6e 60 b2 85 d2 a8 32 46 de 80 b1
       -2.5387538e-07 -1.3063701e-08 1.9653507e-08 -3.75056e-09
000160 09 fe 37 a9 6e a6 41 b0 2c 23 df 2e 1d 0a 02 af
       -4.0854503e-14 -7.04495e-10 1.0147114e-10 -1.1827024e-10
000170 ed c0 ac af 38 a8 2d ae 60 b2 3a ae d1 7a 6c af
       -3.14237e-10 -3.9485054e-11 -4.2449932e-11 -2.1507708e-10
000180 d4 b8 6e 29 54 56 4b ac d5 7d 0b b4 42 26 11 2c
       5.300693e-14 -2.8895957e-12 -1.2991161e-07 2.0626977e-12
000190 d5 6d e4 31 e8 ac e1 2e f8 60 5f 27 4a cb 03 ac
       6.64816e-09 1.026253e-10 3.1000034e-15 -1.8729068e-12
0001a0 90 ef 42 ad 64 39 55 2f e4 24 dc b3 60 f4 ef a9
       -1.1080817e-11 1.9392626e-10 -1.0251259e-07 -1.06561244e-13
0001b0 70 64 e6 2e e4 c7 4d ad 69 da 86 b2 c0 87 f7 ab
       1.04770304e-10 -1.16972855e-11 -1.5698975e-08 -1.7588084e-12
0001c0 48 a0 ce 2e 3b 93 de 2f 1e 2b f7 b1 cc 14 f9 2e
       9.396267e-11 4.0486178e-10 -7.193548e-09 1.1326903e-10
0001d0 0a 95 07 b0 30 2b 8b 2f b2 84 4e ad ba fa 77 b1
       -4.932451e-10 2.531464e-10 -1.17392086e-11 -3.6085752e-09
0001e0 de f2 65 31 00 ba fb 32 5c 34 49 2f 92 16 10 2d
       3.346194e-09 2.9304829e-08 1.8299445e-10 8.190464e-12
0001f0 aa 9f 0b a9 b4 2a df 34 08 87 1f b0 60 61 20 ae
       -3.1002687e-14 4.1568057e-07 -5.8035754e-10 -3.6466274e-11
000200 af 76 0e 30 5e d5 15 31 5c ac 7e 2e a2 8d dd a5
       5.182796e-10 2.180364e-09 5.7906e-11 -3.8433363e-16
000210 25 60 5b 26 5a b8 28 25 9c ce cb b1 7b 19 1b 2f
       7.611119e-16 1.4634138e-16 -5.9315663e-09 1.410622e-10
000220 94 5c 54 31 e8 22 31 ae fa a3 4a b2 57 ca 51 2d
       3.0902685e-09 -4.0276144e-11 -1.17952315e-08 1.1925203e-11
000230 6c 01 8a 31 74 f1 b3 b2 a0 11 5a b2 25 ec c3 2f
       4.0164903e-09 -2.0948143e-08 -1.26932775e-08 3.5638084e-10
000240 55 68 cb b1 b0 15 81 b6 c3 bf 0e b0 2e ae 06 b2
       -5.9199388e-09 -3.8470243e-06 -5.193181e-10 -7.83943e-09
000250 16 65 7e 2f 7f ea 42 31 ee 69 88 ae 76 29 21 b2
       2.3137078e-10 2.8364011e-09 -6.203381e-11 -9.3808605e-09
000260 0a 39 29 af 25 fd 70 2d 3b 0e ab b3 26 48 0e 30
       -1.5390725e-10 1.369863e-11 -7.9653965e-08 5.176183e-10
000270 51 37 1c b0 32 87 ca ae 23 e0 9e 2e 57 ca 8f b1
       -5.683108e-10 -9.209912e-11 7.224823e-11 -4.184851e-09
000280 82 84 c0 2f 53 38 49 32 6c c4 8d 2f 3a 62 90 b1
       3.501875e-10 1.17125465e-08 2.5787317e-10 -4.2021187e-09
000290 2e 37 c3 b1 98 d0 40 b5 f4 bf 81 b5 26 5b 27 32
       -5.68152e-09 -7.182912e-07 -9.667115e-07 9.741404e-09
0002a0 d7 9d 99 af 94 b6 3a b0 b4 f4 aa b3 ce 6c 85 b1
       -2.794269e-10 -6.7925865e-10 -7.960753e-08 -3.883179e-09
0002b0 12 b7 87 2e 98 be 79 ae d7 d6 0a b6 68 a4 cd b1
       6.171609e-11 -5.6785326e-11 -2.0688656e-06 -5.984976e-09
0002c0 58 1d 35 b1 4a 62 11 b7 bc 8b 1e b7 96 2e 70 b2
       -2.6355647e-09 -8.665558e-06 -9.450068e-06 -1.3980431e-08
0002d0 28 e5 23 37 98 3a 76 b3 f0 fd cc b2 7b f8 90 33
       9.768912e-06 -5.732963e-08 -2.3864203e-08 6.750721e-08
0002e0 a2 c8 98 b0 e3 77 a4 34 ee 68 1c 33 c2 2d e5 32
       -1.1116479e-09 3.063461e-07 3.6417013e-08 2.6679917e-08
0002f0 5c 7c 10 2f 00 12 35 34 20 0b 1b af 76 a6 0e b7
       1.3140905e-10 1.6863487e-07 -1.410112e-10 -8.502617e-06
000300 01 41 32 37 4f 55 15 2e 18 2f 69 2f 5b 1a ca 2f
       1.0624762e-05 3.3954447e-11 2.1207958e-10 3.6762313e-10
000310 4e a2 22 33 74 d7 32 35 28 95 ef bc 37 ec 94 bc
       3.786618e-08 6.6623693e-07 -0.029245928 -0.018179042
000320 e2 60 c2 3c 64 28 03 80 b2 33 00 80 5a 4e 00 80
       0.023727838 -2.89996e-40 -1.8545e-41 -2.8107e-41
000330 aa 6a 07 00 e2 31 07 00 40 75 04 00 c6 d4 05 80
       6.81112e-40 6.60743e-40 4.09403e-40 -5.35506e-40
000340 27 43 06 80 e0 6b 01 00 3a 50 03 00 42 ec 05 80
       -5.75103e-40 1.30534e-40 3.04286e-40 -5.43931e-40
000350 95 85 06 00 17 b7 05 80 02 7b 02 00 27 74 04 80
       5.98933e-40 -5.24858e-40 2.27798e-40 -4.0901e-40
000360 0a 69 02 00 b3 4a 05 80 04 ba 03 00 33 58 03 80
       2.21352e-40 -4.85975e-40 3.42236e-40 -3.07146e-40
000370 4f c6 03 80 42 5c 01 80 04 55 05 80 67 91 03 00
       -3.46646e-40 -1.24931e-40 -4.89675e-40 3.27667e-40
000380 c4 d0 01 80 58 2e 00 80 03 29 02 80 53 53 06 80
       -1.66726e-40 -1.6625e-41 -1.98383e-40 -5.80904e-40
000390 36 1e 05 00 d2 cf 05 00 bf 8e 06 00 33 15 05 00
       4.70015e-40 5.3373e-40 6.0222e-40 4.66782e-40
0003a0 8e 39 03 80 87 f0 06 80 79 bf 05 80 75 b7 00 00
       -2.96153e-40 -6.37298e-40 -5.27865e-40 6.5812e-41
0003b0 36 4b 02 00 f5 d3 03 80 b4 a3 03 80 3b 1c 05 00
       2.10652e-40 -3.51542e-40 -3.34232e-40 4.69305e-40
0003c0 04 f0 05 80 fe 18 04 00 25 67 06 80 f5 25 01 00
       -5.45279e-40 3.76307e-40 -5.88014e-40 1.05452e-40
0003d0 9c 13 04 00 db 55 05 80 6b 2d 03 00 56 c3 02 80
       3.74377e-40 -4.89977e-40 2.918e-40 -2.53744e-40
0003e0 af e6 04 80 6c 79 00 00 32 da 01 80 8d 31 01 00
       -4.50096e-40 4.3558e-41 -1.70109e-40 1.09611e-40
0003f0 aa 42 00 00 9a af 01 80 ba d9 06 80 ac bb 03 80
       2.3915e-41 -1.5483e-40 -6.29119e-40 -3.4283e-40

state_value.0.bias f4 [64]
000000 2a 6a 07 80 e0 65 0b 26 ca 33 41 3c 17 1e 01 00
       -6.80933e-40 4.836338e-16 0.011792133 1.0263e-40
000010 65 81 1b 2f b6 85 00 3d 5c b5 03 00 89 99 05 80
       1.4143138e-10 0.031377517 3.40566e-40 -5.14256e-40
000020 25 33 db 26 9a 1b 87 3b 51 15 dc 34 7d 4e 53 33
       1.521004e-15 0.0041231634 4.0993703e-07 4.919865e-08
000030 91 51 00 00 7a 71 4b 2d 20 86 42 3c 7d e2 9e 3c
       2.926e-41 1.1564411e-11 0.011872798 0.019395107
000040 75 63 b4 b6 16 23 01 00 f8 b3 4f 2a cd 1f 04 3c
       -5.3759964e-06 1.04422e-40 1.8447732e-13 0.0080642225
000050 60 a0 01 2b f2 cb b8 31 a2 06 03 80 aa f5 a3 3c
       4.605257e-13 5.3782907e-09 -2.77886e-40 0.020014603
000060 82 9e d7 26 47 d4 04 00 bd 1d 62 30 19 27 e3 39
       1.4961586e-15 4.43493e-40 8.226058e-10 0.00043325944
000070 0e 82 3d 2e 40 3c 03 00 ae 07 02 00 00 34 6d 3c
       4.3089136e-11 2.9712e-40 1.86426e-40 0.01447773
000080 3c 28 5e 3c 21 ff 03 00 68 e3 b2 36 20 5e 57 a4
       0.013559397 3.6703e-40 5.331287e-06 -4.670042e-17
000090 2d 00 0d 37 c7 e6 be 26 bf fb 06 00 6e 4e 7f 3c
       8.404296e-06 1.3246451e-15 6.41322e-40 0.015582664
0000a0 84 df d3 2c 37 bf 00 00 7c 34 89 3c 44 f1 9a 26
       6.021796e-12 6.8595e-41 0.01674866 1.0751292e-15
0000b0 bd cd f4 af df 4b 04 80 87 5b d7 2f aa 19 9c 26
       -4.4529527e-10 -3.9456e-40 3.9173306e-10 1.0831631e-15
0000c0 47 9b 27 b5 d1 32 88 2f fd ae 03 00 43 b0 ed 3c
       -6.2438306e-07 2.4774363e-10 3.3828e-40 0.029014712
0000d0 8e bf fe 30 a8 56 05 35 ad fd bd 26 d8 f5 4e 2b
       1.8535375e-09 4.967246e-07 1.3183268e-15 7.352708e-13
0000e0 dc e1 d3 26 22 ce 02 80 24 4f dc 2a d3 0f f2 32
       1.4702285e-15 -2.57618e-40 3.9134765e-13 2.8179704e-08
0000f0 4e 33 74 37 b3 bf 01 00 06 53 75 30 d9 49 80 37
       1.4555479e-05 1.60604e-40 8.9248464e-10 1.5293177e-05

state_value.2.weight f4 [1, 64]
000000 63 56 00 00 bc 58 51 a6 a8 e4 31 bd 76 40 01 80
       3.099e-41 -7.26317e-16 -0.043430954 -1.1496e-40
000010 75 ff 81 af 60 e6 5b bd bc 9e 03 00 c1 e0 01 80
       -2.3646476e-10 -0.0536865 3.3245e-40 -1.72462e-40
000020 76 7a 3e a7 e9 06 19 bc dd 4c f7 b4 f4 bc b5 b3
       -2.6434183e-15 -0.009340026 -4.606326e-07 -8.46284e-08
000030 bc 32 00 80 56 10 bc ac 29 b2 0a bd 56 d7 92 bd
       -1.82e-41 -5.345095e-12 -0.033861313 -0.07169978
000040 07 f6 89 b7 00 c1 00 80 ef 7f 40 aa 6e bf 5e bc
       -1.6446238e-05 -6.9235e-41 -1.7097412e-13 -0.013595445
000050 8c 98 2c ac 3d f5 53 b2 82 8f 01 00 6d bc 0b bd
       -2.452735e-12 -1.2337577e-08 1.43316e-40 -0.034115244
000060 7e eb 42 a7 c4 1c 01 80 36 91 4f b0 6e 50 d2 ba
       -2.7050569e-15 -1.02155e-40 -7.551252e-10 -0.0016045698
000070 82 51 cf ae fc 0e 01 00 7f 2d 00 80 5d 64 c9 bc
       -9.427749e-11 9.7211e-41 -1.6321e-41 -0.02458399
000080 3f fb 1d bd 1d 12 01 80 15 0e 8e b7 fc 67 83 25
       -0.038569685 -9.8333e-41 -1.6934277e-05 2.279534e-16
000090 07 72 6f b7 d4 a5 0d a7 c0 21 00 00 fd 93 3c bd
       -1.4272059e-05 -1.9657576e-15 1.2107e-41 -0.04603957
0000a0 77 d9 65 ad bd 01 00 80 04 54 0f bd 81 d7 fe a6
       -1.306543e-11 -6.24e-43 -0.034992233 -1.7683203e-15
0000b0 5c a1 a2 b0 de 7c 05 80 b9 c3 bf af 5c 4a 02 a7
       -1.1832912e-09 -5.03971e-40 -3.4881767e-10 -1.8081434e-15
0000c0 72 77 ae 34 71 6d 02 af 4f 26 04 00 70 3e 4b bd
       3.2496933e-07 -1.1862313e-10 3.81085e-40 -0.049620092
0000d0 e9 7c c9 b1 89 2d 80 b5 09 70 0a a7 cc e9 f0 ab
       -5.8640706e-09 -9.549996e-07 -1.9212082e-15 -1.7117917e-12
0000e0 ed 04 17 a7 e7 cc 02 80 1b 41 34 ab b8 d5 3d b3
       -2.095813e-15 -2.57176e-40 -6.40392e-13 -4.4199368e-08
0000f0 f4 ff 77 b8 5a 89 03 80 1e 00 37 b1 f5 65 46 b8
       -5.9127764e-05 -3.24779e-40 -2.6630071e-09 -4.7301834e-05
