trained_models/model_2021-11-28_22-58-40.pt (torch, 75905 bytes, 11 tensors)

gat_layer1.linear_l.weight f4 [64, 8]
0	0xba2005da	-0.00061043876
1	0xb9dac734	-0.00041728618
2	0xb9e28533	-0.0004320532
3	0x39ce31e7	0.00039328562
4	0xb887828c	-6.461618e-05
5	0x3a10c15d	0.00055219774
6	0xb9a298dc	-0.00031012937
7	0xb9a45b0c	-0.00031348353
8	0xba2d67a6	-0.0006614871
9	0xba15eba0	-0.000571901
10	0x3a2b828a	0.0006542584
11	0x39b8002c	0.00035095343
12	0x3a2ab7ac	0.00065123546
13	0xb9974f21	-0.0002885992
14	0x398e749d	0.00027171234
15	0x39de36f8	0.00042384095
16	0xb96dcf02	-0.00022679198
17	0x39fcaccd	0.00048193932
18	0x3a04e758	0.00050698733
19	0xb818565c	-3.6320052e-05
20	0x3a3b6325	0.00071482576
21	0xba2b0fc1	-0.000652548
22	0x39cecca0	0.0003944384
23	0x3a2c640c	0.00065761874
24	0x399214c6	0.00027862767
25	0x3a3980be	0.0007076374
26	0xba211e25	-0.00061461545
27	0xb9af9f92	-0.0003349749
28	0xb981387f	-0.0002464689
29	0x39d31450	0.0004026019
30	0x39c0966e	0.00036733173
31	0x3a28e81d	0.0006443279
32	0x38be1549	9.063871e-05
33	0xb9809914	-0.00024528115
34	0x3a377ba6	0.0006999321
35	0xb92afdd0	-0.00016307016
36	0xb968fd01	-0.00022219495
37	0xb9bd0753	-0.00036054346
38	0xb7abfe66	-2.0503252e-05
39	0x39ba4dfb	0.00035534785
40	0x3977cda8	0.00023632369
41	0xb8a86e04	-8.031356e-05
42	0xba0212f7	-0.00049619324
43	0x384ff608	4.958178e-05
44	0xba30a18e	-0.0006737941
45	0xba1868e6	-0.0005813971
46	0x3a1d5997	0.00060024246
47	0xba36a377	-0.0006967107
48	0x3a062ffa	0.00051188434
49	0x39a82a43	0.00032074944
50	0xb99dc4f6	-0.0003009212
51	0x39e3d904	0.00043458503
52	0x3a0dc509	0.00054080837
53	0xb9feafda	-0.00048577675
54	0xba1ed188	-0.0006058444
55	0xb95c1341	-0.00020988008
56	0x39c10fd6	0.00036823627
57	0x38e222c4	0.000107829954
58	0xb92206fa	-0.00015452123
59	0xb96a1097	-0.00022322159
60	0xba03925a	-0.00050190615
61	0xb99cebbf	-0.00029930283
62	0x3a1b40a6	0.0005922414
63	0x38ae7595	8.318868e-05
64	0x39e9a95f	0.00044567414
65	0xba0f39ca	-0.00054636283
66	0x3903fd89	0.00012587583
67	0x3a309f8d	0.0006737642
68	0xba3b9f18	-0.00071571907
69	0x381dda1d	3.763485e-05
70	0x3a25685e	0.00063098024
71	0xb86e7764	-5.6854813e-05
72	0x39bac6db	0.00035624843
73	0xb86bed54	-5.6249395e-05
74	0x39c5b9e5	0.0003771327
75	0x398d4e1b	0.0002695181
76	0xb9fd8939	-0.0004835816
77	0xba3ca035	-0.00071955036
78	0x39987cac	0.00029084587
79	0x391790be	0.00014454403
80	0xba16cae0	-0.00057522766
81	0x3a16d8dd	0.0005754361
82	0xb9a488b3	-0.00031382366
83	0x380fa4f2	3.4247474e-05
84	0x398c12e8	0.00026716967
85	0xb9fc058f	-0.00048069327
86	0x3a23576b	0.0006230983
87	0x3927d0a2	0.00016004083
88	0xb8853884	-6.352461e-05
89	0x399b84a4	0.0002966273
90	0xb8fe1060	-0.00012114714
91	0xba0e008c	-0.00054169516
92	0xb83c73a9	-4.493041e-05
93	0x39a3df98	0.00031256373
94	0x39ef6610	0.00045661675
95	0xb94f2340	-0.0001975419
96	0x39f3b9ab	0.00046486905
97	0x3a197cdb	0.0005855092
98	0xba0db0b7	-0.00054050557
99	0xba1eb14a	-0.000605364
100	0xb9e7c3ce	-0.0004420564
101	0x3a26d919	0.00063647475
102	0xb9c65c8d	-0.0003783446
103	0x3a0cc917	0.0005370541
104	0xba353120	-0.0006911922
105	0x3a3377af	0.00068461424
106	0x3855c707	5.0968516e-05
107	0xba15787a	-0.00057018513
108	0xba3cbd0b	-0.00071998005
109	0xb9a0aa8c	-0.00030644645
110	0xb9fa90b1	-0.0004779152
111	0xb9455537	-0.00018819129
112	0xba3cf734	-0.0007208467
113	0x3a055bb3	0.00050872116
114	0xba136ae9	-0.0005623536
115	0xba2cf1d0	-0.0006597312
116	0x38b990e6	8.848477e-05
117	0x39b95ede	0.0003535663
118	0xb9383ec3	-0.00017570988
119	0xb9f69ffd	-0.00047039977
120	0x399b13de	0.00029578706
121	0x3935e86d	0.0001734809
122	0x384441b2	4.6791225e-05
123	0x3997c1b4	0.00028945284
124	0xb9fef178	-0.00048626564
125	0x3914d080	0.00014192052
126	0x3a052424	0.0005078933
127	0xba1ab658	-0.0005901805
128	0x3a155bb2	0.00056975626
129	0x3854c934	5.0732124e-05
130	0xb9ae6b67	-0.00033267887
131	0x385120be	4.9859977e-05
132	0xba1b8617	-0.00059327617
133	0x39f617fd	0.0004693865
134	0x3a006cb2	0.00048990094
135	0x39b51186	0.00034536066
136	0xb9daa6bb	-0.00041704424
137	0x3a0ae9f6	0.0005299145
138	0xba2d8bda	-0.0006620266
139	0x39827310	0.0002488126
140	0x3a0d5ec9	0.0005392847
141	0xb9d573c3	-0.00040712775
142	0x39ee7a77	0.0004548614
143	0x39fa3262	0.00047721254
144	0xba297b3c	-0.0006465202
145	0xb9f5d8b8	-0.0004689151
146	0xb9d0d108	-0.00039828592
147	0xb9853e91	-0.00025414352
148	0xb80d5967	-3.3700282e-05
149	0xba3fbcf6	-0.0007314229
150	0x39a44d68	0.0003133819
151	0xb9b177f3	-0.0003384944
152	0x3994f719	0.00028412862
153	0x3a034727	0.0005007856
154	0x39c32640	0.00037221797
155	0xb9bad119	-0.00035632474
156	0x3a389a48	0.00070420327
157	0x397be6e8	0.00024023245
158	0x3a36506e	0.0006954734
159	0x39e4c19a	0.00043631793
160	0xb90eb012	-0.00013607767
161	0x3a2c9426	0.0006583355
162	0x3a3a0e9e	0.0007097515
163	0x39e91ed1	0.00044464183
164	0xb99b632e	-0.00029637798
165	0xb8a443d1	-7.832761e-05
166	0xb9f3f4cc	-0.0004653096
167	0xba1ab413	-0.0005901467
168	0xb8a8fe61	-8.058246e-05
169	0xba108e4a	-0.0005514367
170	0x39f161e7	0.00046040045
171	0x3a29709f	0.000646362
172	0xba3f31b1	-0.00072934764
173	0x38a76354	7.981682e-05
174	0x3850306b	4.9636157e-05
175	0x39e96a9f	0.00044520662
176	0xb9d3b687	-0.0004038105
177	0x3a2ef994	0.0006674763
178	0x39ce2d0f	0.00039324953
179	0xb91a39ac	-0.00014708069
180	0x3a132b9e	0.00056141044
181	0xba2f95de	-0.0006698052
182	0x39f7ca66	0.0004726231
183	0x387a0446	5.9608625e-05
184	0xb9d6eebe	-0.00040995138
185	0xb9ee01a0	-0.00045396108
186	0x39f06f2e	0.00045859203
187	0xba2eb74f	-0.00066648884
188	0x39a27fc7	0.0003099425
189	0xba30737f	-0.00067310774
190	0x39b30e30	0.0003415211
191	0x3975a7d2	0.00023427539
192	0x39c9f0f4	0.00038517232
193	0x389955b7	7.311574e-05
194	0x390aba78	0.0001323017
195	0xb715ec69	-8.936136e-06
196	0xb9af959d	-0.00033490072
197	0x3926e333	0.00015915632
198	0x3a115a41	0.000554476
199	0xba3ce1d6	-0.0007205283
200	0x3a189037	0.00058198295
201	0x3a373c85	0.0006989914
202	0xba341199	-0.00068690773
203	0xb8baad1d	-8.901416e-05
204	0xba04c003	-0.00050640124
205	0xba2dfec3	-0.0006637389
206	0x39b65ca1	0.0003478276
207	0x3a2b0bf1	0.0006524912
208	0xb6bcb1e1	-5.6235444e-06
209	0xb92544e2	-0.00015761287
210	0x3a03a71d	0.0005022155
211	0x3a322ba2	0.0006796663
212	0xba2c849e	-0.0006581041
213	0x3a3cdf7b	0.0007204932
214	0xb8defa32	-0.000106323874
215	0xb9c45ec7	-0.00037454648
216	0x39c2835d	0.00037100437
217	0x39d9595d	0.00041456046
218	0x3957437e	0.0002052914
219	0xb8f2654d	-0.00011558328
220	0xb99bd999	-0.00029726027
221	0x3a28c689	0.00064382754
222	0xb86c0a9d	-5.627667e-05
223	0x3a2a2673	0.0006490715
224	0xb8019af2	-3.09003e-05
225	0xba28ad93	-0.0006434556
226	0x3957ab1d	0.00020567742
227	0x398194bf	0.00024715622
228	0xb89e3e8b	-7.5456766e-05
229	0x39ef2710	0.00045614736
230	0xb9ccbca7	-0.0003905047
231	0x38b9cd63	8.859744e-05
232	0x37f2d715	2.8948803e-05
233	0xb9a0653b	-0.00030593
234	0x3a3a7b09	0.00071136706
235	0x39f68fa9	0.00047027812
236	0x39085242	0.00013000614
237	0x39ba1160	0.0003548963
238	0x3a0d3e4c	0.0005388006
239	0xba3de7ae	-0.0007244301
240	0x39de33c4	0.00042381708
241	0x39d95a9b	0.00041456972
242	0x3a24d458	0.0006287745
243	0xb9b43d6a	-0.00034378032
244	0xb9e242ea	-0.00043155934
245	0x39dd7006	0.0004223587
246	0xb90b5b62	-0.00013290116
247	0xba14a9a0	-0.0005671028
248	0xb9eaa72d	-0.00044756514
249	0xb994f0b5	-0.000284081
250	0xba379456	-0.0007003
251	0xba32bcfa	-0.0006818321
252	0x39fe45a5	0.00048498544
253	0xba113f81	-0.0005540774
254	0xb9d102c7	-0.00039865656
255	0xb9bd52fc	-0.00036110717

gat_layer1.linear_r.weight f4 [64, 8]
0	0x39ba99b9	0.00035591217
1	0x39ff8443	0.00048735933
2	0xba0b1abd	-0.00053064135
3	0xb8c55324	-9.409178e-05
4	0xb95d2204	-0.00021088874
5	0xb973d8a6	-0.00023254994
6	0x39846452	0.00025251746
7	0x3a1c0e27	0.00059530366
8	0x3a124024	0.00055790157
9	0x3a39428a	0.0007067105
10	0x37ca0d79	2.408655e-05
11	0x37b4e603	2.156478e-05
12	0xba34c6fa	-0.0006896105
13	0xb98c88a7	-0.00026804695
14	0x39a1c454	0.0003085459
15	0x3a23669e	0.00062332477
16	0x399351ae	0.0002809888
17	0xb9e14e94	-0.0004297389
18	0xb9ab7a00	-0.0003270656
19	0xba1cd949	-0.0005983306
20	0xba3ae4d3	-0.00071294344
21	0xba08bd57	-0.0005216202
22	0x394b67a9	0.00019398205
23	0x3a10143a	0.0005496178
24	0xb999c1f3	-0.00029326938
25	0x38cccdbd	9.7658e-05
26	0x3997a56c	0.00028924213
27	0x3a35a3d4	0.00069290143
28	0x3a143dde	0.0005654971
29	0xba0a7adb	-0.0005282589
30	0x38097313	3.2770517e-05
31	0xb9efd860	-0.00045746844
32	0xb878ea6b	-5.9346126e-05
33	0x39aea0dd	0.0003330772
34	0x39993de9	0.0002922856
35	0xba1d7814	-0.0006006968
36	0xb9f1d822	-0.00046128134
37	0x38a83de5	8.022393e-05
38	0xba2c5ba8	-0.0006574937
39	0xba070959	-0.0005151234
40	0xba349ef3	-0.00068901404
41	0xb9ad90b6	-0.0003310495
42	0xb9b903fb	-0.00035288915
43	0xb96938f4	-0.00022241828
44	0xb9e7080f	-0.00044065758
45	0x3904e7e6	0.0001267489
46	0x39bffdd3	0.00036619473
47	0xb90ae323	-0.0001324532
48	0x3a086ba1	0.0005204026
49	0x398f70ff	0.00027359274
50	0x3a3e0165	0.00072481326
51	0xba2a8b6e	-0.0006505762
52	0xb9aa3272	-0.0003246251
53	0xb7bcdf0b	-2.2515209e-05
54	0xb992ca54	-0.00027998036
55	0x3a3842f6	0.0007029021
56	0xb923e78b	-0.00015631148
57	0xb94e6af7	-0.00019685538
58	0xba120d8c	-0.00055714766
59	0x38a62921	7.923158e-05
60	0xb85647f7	-5.10886e-05
61	0x394b254f	0.00019373487
62	0x39562f4e	0.00020426253
63	0x38d9837a	0.00010371856
64	0xb9ba53ad	-0.00035539028
65	0xba1a0195	-0.00058748695
66	0xb948cb8d	-0.00019149315
67	0xb9886a27	-0.0002601903
68	0xb9dedae9	-0.0004250624
69	0x38068a03	3.2076623e-05
70	0xb90a75f7	-0.00013204651
71	0xb9fe9623	-0.00048558516
72	0xb7d75cc6	-2.5673198e-05
73	0xba339aff	-0.00068514043
74	0xb97c8ed5	-0.00024085802
75	0x396598d5	0.00021896076
76	0x38f1b257	0.00011524994
77	0x3a2bb819	0.0006550565
78	0x397e0135	0.00024223777
79	0x398854c8	0.00026003108
80	0xb9741029	-0.00023275673
81	0xb9c71374	-0.00037970732
82	0xb910f67a	-0.0001382473
83	0x395c6453	0.00021018209
84	0xb8348f91	-4.304905e-05
85	0x384565ff	4.706345e-05
86	0x374e7a07	1.23069685e-05
87	0xba18d288	-0.00058297114
88	0xb9ea73f3	-0.00044718347
89	0x3a051e13	0.0005078029
90	0x39776796	0.00023594344
91	0x3a03a3c0	0.0005021654
92	0x39cf385c	0.00039524108
93	0x37f824df	2.9581073e-05
94	0x3934e5f7	0.00017251806
95	0x3a089be4	0.0005211218
96	0x3a13d742	0.0005639681
97	0xb9d4a01e	-0.00040555088
98	0x38a6069f	7.91673e-05
99	0x3981cb4a	0.0002475626
100	0xba264a84	-0.0006343501
101	0xb99937f9	-0.00029224137
102	0xba1cec2c	-0.000598612
103	0x39c2d526	0.0003716137
104	0xb986b728	-0.00025694934
105	0xb9bbb6d7	-0.00035803646
106	0x3a02b1b3	0.00049855857
107	0xb9f71847	-0.000471296
108	0x39cb8f39	0.00038825886
109	0xb9ae10f4	-0.00033200497
110	0x388a84b9	6.605074e-05
111	0x391fc7e8	0.00015237893
112	0x38ea7de4	0.000111814385
113	0xba08d597	-0.00052198156
114	0xb92b5b01	-0.00016341732
115	0x38bac118	8.905138e-05
116	0x3a3dcf5b	0.0007240676
117	0xb97cfef5	-0.00024127572
118	0x39da2e56	0.00041614723
119	0x3925060a	0.00015737876
120	0xb981a2cb	-0.00024726088
121	0xba3546c9	-0.000691515
122	0xb997a061	-0.00028920456
123	0xba2958f9	-0.00064600963
124	0xb8204907	-3.8214985e-05
125	0x3916f224	0.00014395319
126	0x396be597	0.00022496875
127	0x39d68763	0.00040918132
128	0x398680d1	0.00025654447
129	0xba28dba1	-0.00064414187
130	0x38cfbcac	9.905672e-05
131	0xb99834c4	-0.00029031013
132	0x3a0f6d60	0.0005471315
133	0x392fe0bd	0.00016773022
134	0xba18d300	-0.00058297813
135	0xb7838552	-1.5678499e-05
136	0xb9f47547	-0.00046626685
137	0x39dcc39d	0.00042107413
138	0xb94fcbde	-0.00019817005
139	0xba29d925	-0.00064791954
140	0xba09a814	-0.0005251181
141	0x38beb49e	9.0935486e-05
142	0x390d5afc	0.00013480702
143	0x3a0b51b7	0.00053146057
144	0xb95fe7e0	-0.00021353317
145	0xba0298e5	-0.00049818895
146	0x3a3931f1	0.0007064632
147	0xb9871e72	-0.0002577189
148	0xb8b7d391	-8.765527e-05
149	0xba14564e	-0.00056586124
150	0xb987401b	-0.0002579697
151	0xb9e482ce	-0.00043585006
152	0x3a2336bd	0.0006226113
153	0xba3762ec	-0.00069956365
154	0xb9db7444	-0.0004185756
155	0xb9e18c90	-0.00043020071
156	0xba1cd2e5	-0.00059823535
157	0x38673860	5.5127195e-05
158	0xb9451bda	-0.0001879776
159	0x3a111fda	0.0005536057
160	0x3a160276	0.00057224126
161	0xba000ba7	-0.0004884549
162	0xb8bf915f	-9.134667e-05
163	0xb9add509	-0.00033155855
164	0x39cc1d3e	0.000389317
165	0x39acd6ab	0.00032966337
166	0x399b3afb	0.00029607848
167	0xb74d7eb0	-1.2248449e-05
168	0x39eed002	0.00045549875
169	0x3953e6fd	0.00020208578
170	0xb9fac9dd	-0.00047834116
171	0xb877ea38	-5.9107522e-05
172	0xba3d7d08	-0.0007228409
173	0x3a00ff01	0.0004920811
174	0x392babba	0.00016371804
175	0xb80928b5	-3.2701257e-05
176	0x39f01e55	0.00045798966
177	0xb9dd805f	-0.0004224805
178	0x3a103069	0.0005500378
179	0xb9e9ad5c	-0.00044570386
180	0x39bef7bc	0.000364242
181	0xba066c78	-0.00051278574
182	0xba34e2f4	-0.0006900274
183	0xb928b29c	-0.00016088266
184	0xb97f742a	-0.0002436197
185	0x39a941d5	0.0003228324
186	0xb8bef81c	-9.10612e-05
187	0x397ace21	0.00023918647
188	0xba1e6dfc	-0.00060436106
189	0xb91496ac	-0.0001417051
190	0xb9d48c68	-0.00040540402
191	0x3a045139	0.00050475035
192	0xb939eb21	-0.00017730567
193	0xb95574a5	-0.00020356716
194	0xb98a0796	-0.00026327063
195	0x37ae722a	2.0795578e-05
196	0x39af5594	0.00033442362
197	0xb9e15271	-0.00042976768
198	0xb9986f6b	-0.00029074712
199	0x39bcb367	0.0003599182
200	0xba099ded	-0.0005249668
201	0x3a1c582a	0.0005964065
202	0x3a3b2d39	0.00071402226
203	0x39efb50d	0.00045720526
204	0x3a1cb34c	0.0005977645
205	0x3a103c8e	0.00055021874
206	0xba2edd08	-0.00066705095
207	0xb9c56d21	-0.00037656075
208	0xb9f8911b	-0.00047410358
209	0xb99542f0	-0.00028469367
210	0xb99d713d	-0.00030029743
211	0xb96d14cc	-0.00022609829
212	0xb9828a90	-0.0002489877
213	0x3951555c	0.00019963592
214	0xb9c1c14b	-0.00036955843
215	0xba1b59e8	-0.0005926178
216	0xba02a0d9	-0.00049830746
217	0x3a1d547d	0.00060016644
218	0xba08eb9a	-0.00052230956
219	0xb9723fab	-0.00023102637
220	0x3a383984	0.00070276135
221	0xb9a56f64	-0.00031554245
222	0xb6e0ad94	-6.6959274e-06
223	0x390a0800	0.00013163686
224	0x3a2ae794	0.0006519493
225	0xb98bbdc4	-0.00026653532
226	0xb8f99873	-0.00011901641
227	0x3a171838	0.0005763802
228	0xb8d4db50	-0.00010149798
229	0xba354c91	-0.00069160113
230	0xb8a204d9	-7.725665e-05
231	0xba106646	-0.0005508404
232	0x39e9704b	0.00044524888
233	0x39cdf88a	0.00039285823
234	0x39e6cd07	0.00044021776
235	0xb983cce0	-0.0002513891
236	0x382726bf	3.9851988e-05
237	0x3a38b6ca	0.00070462807
238	0xba09fa3e	-0.0005263424
239	0x3a05762f	0.0005091158
240	0xba043b46	-0.0005044233
241	0x3a1975cd	0.00058540405
242	0xba3b67d5	-0.0007148956
243	0xb9a9d2c9	-0.0003239124
244	0xb90379d9	-0.00012538525
245	0xb952d03e	-0.00020104737
246	0xb9d18b06	-0.00039967167
247	0x38b72c1b	8.734335e-05
248	0xba253a73	-0.000630296
249	0xb9c680a9	-0.00037861362
250	0xb9929449	-0.0002795777
251	0xb74df5bf	-1.2276169e-05
252	0x398aa5b2	0.00026444864
253	0xb989114e	-0.0002614357
254	0x3a39ad01	0.00070829695
255	0xb92782a5	-0.0001597503

gat_layer1.attn.weight f4 [1, 64]
0	0x39828866	0.00024897157
1	0x394b6004	0.00019395357
2	0xb8d60845	-0.000102058555
3	0x395cb69f	0.00021048867
4	0x384208b1	4.62613e-05
5	0xb73a5b48	-1.1107717e-05
6	0x37f9aff1	2.9765042e-05
7	0xb95827b2	-0.00020614153
8	0xb9677bfb	-0.00022076063
9	0xb972242e	-0.00023092396
10	0x392d7d7c	0.00016545312
11	0xb941343d	-0.00018425375
12	0xb7fdcc30	-3.0255032e-05
13	0xb87d6443	-6.0413277e-05
14	0x3947b006	0.00019043693
15	0xb69a8e3a	-4.606115e-06
16	0x38db1420	0.00010446482
17	0xb89b11ca	-7.3942894e-05
18	0xb8c36fd1	-9.319152e-05
19	0x389b510b	7.4060714e-05
20	0xb8cecf76	-9.861488e-05
21	0x396d9ef1	0.00022661292
22	0xb92f7b52	-0.00016735241
23	0x3892a80b	6.993123e-05
24	0xb9812955	-0.00024635592
25	0x38da49f0	0.00010408822
26	0xb91cc495	-0.00014950552
27	0xb6e26e15	-6.74814e-06
28	0x396e9b95	0.00022755408
29	0x39258687	0.00015785742
30	0x394761a9	0.000190145
31	0xb92aac46	-0.0001627664
32	0xb826a216	-3.972844e-05
33	0xb90ef757	-0.00013634317
34	0xb96c12ab	-0.00022513668
35	0xb9564a65	-0.00020436344
36	0x39458ad5	0.00018839103
37	0xb7491de4	-1.1987493e-05
38	0xb94a9d1f	-0.00019322753
39	0xb6fc4f3c	-7.5194093e-06
40	0x39447fa3	0.00018739565
41	0x385281d4	5.0188813e-05
42	0xb644037d	-2.9208306e-06
43	0xb7e084b2	-2.6764672e-05
44	0xb87172d6	-5.7565827e-05
45	0xb8e316ea	-0.000108284716
46	0x394c8af7	0.00019506724
47	0xb8a01d11	-7.6348086e-05
48	0x390de687	0.00013532686
49	0xb75cc2b9	-1.3158359e-05
50	0x37dd622e	2.6390971e-05
51	0x39098ad0	0.0001311705
52	0x38960d1d	7.155e-05
53	0xb951b689	-0.00019999793
54	0xb91f9f15	-0.00015222684
55	0xb88097fe	-6.1318264e-05
56	0xb957ecaf	-0.0002059217
57	0xb6b47077	-5.3775107e-06
58	0x38f2a278	0.000115697214
59	0x37bf7974	2.282553e-05
60	0xb92bda6c	-0.000163892
61	0xb943913d	-0.00018650755
62	0xb91fd72e	-0.00015243582
63	0xb852f380	-5.029468e-05

gat_layer.linear_l.weight f4 [64, 64]
0	0xb7a41444	-1.955976e-05
1	0x39247496	0.0001568369
2	0xb8aa64c7	-8.125003e-05
3	0x38706f5d	5.7324174e-05
4	0xb8868a9b	-6.415435e-05
5	0xb86ea459	-5.6896683e-05
6	0x3970e08e	0.00022971837
7	0x3887f81d	6.483516e-05
8	0xb82bfb26	-4.1003477e-05
9	0xb970e7a8	-0.00022974482
10	0x386ef1b9	5.6968744e-05
11	0x3959cde0	0.00020771427
12	0xb8aa8013	-8.1300874e-05
13	0xb887138b	-6.440942e-05
14	0x392afc1f	0.00016306386
15	0xb7ca414c	-2.4110683e-05
16	0xb91199e2	-0.00013885603
17	0x3880f4e9	6.149134e-05
18	0xb982de3c	-0.0002496111
19	0x39083308	0.00012988981
20	0xb98625e1	-0.00025586694
21	0xb8ad72c4	-8.2706596e-05
22	0xb91f6eb9	-0.00015204669
23	0x3983f1ee	0.0002516652
24	0xb8fa4feb	-0.00011935815
25	0x38617988	5.3757365e-05
26	0x3966f99e	0.00022027499
27	0x38af4fed	8.3595376e-05
28	0x39433ebe	0.00018620022
29	0x3977e3f9	0.00023640682
30	0x3915de2f	0.00014292517
31	0x35fe3fd3	1.894305e-06
32	0x3972f073	0.00023168493
33	0x38c134a7	9.2127644e-05
34	0xb942b69c	-0.00018569309
35	0xb95c8d5e	-0.00021033498
36	0xb94f6492	-0.00019778524
37	0xb9255ee2	-0.00015770973
38	0x38df1409	0.000106372005
39	0xb948744b	-0.00019116809
40	0xb818f97c	-3.6471974e-05
41	0xb8e31779	-0.000108285756
42	0x3943723b	0.00018639203
43	0xb8b39331	-8.562802e-05
44	0x39833737	0.00025027405
45	0xb6ed6baa	-7.075684e-06
46	0xb9816fe9	-0.00024688177
47	0x391fcbf0	0.00015239394
48	0x38ef6e54	0.00011416958
49	0xb7c2a3e3	-2.3202918e-05
50	0x395de747	0.0002116236
51	0x385c9a17	5.2595595e-05
52	0xb960bc0d	-0.00021432359
53	0x3959ae6e	0.00020759713
54	0xb8c00857	-9.156827e-05
55	0xb8c5354a	-9.403618e-05
56	0x3856ee78	5.1243667e-05
57	0x36d3744e	6.3018297e-06
58	0xb97cc98d	-0.00024107676
59	0x39094c3c	0.00013093738
60	0x3928b490	0.00016088993
61	0x39221858	0.00015458593
62	0x38b5ce1a	8.669142e-05
63	0x38fc70bd	0.000120372955
64	0xb9855c85	-0.0002543667
65	0x3958a76d	0.00020661736
66	0x394f4e5e	0.00019770252
67	0x398647ee	0.00025612063
68	0x3918fbb7	0.0001458962
69	0x392b3287	0.00016326654
70	0x395cc26d	0.00021053264
71	0x3939b6ec	0.00017711119
72	0xb95cd93c	-0.00021061761
73	0x3886bac5	6.4244065e-05
74	0xb747294b	-1.1870939e-05
75	0xb90a359e	-0.0001318068
76	0x38278cc3	3.9946997e-05
77	0x38d56be8	0.000101767306
78	0x38ed783a	0.000113234346
79	0x391948a5	0.00014618279
80	0x395fe358	0.0002135163
81	0xb90d2830	-0.00013461779
82	0x3660146d	3.339049e-06
83	0x394c0686	0.00019457386
84	0x38f19e59	0.0001152127
85	0x39649356	0.00021798661
86	0xb7b50fa2	-2.1584161e-05
87	0x39139080	0.00014072843
88	0x38dcda69	0.000105310995
89	0xb9821c05	-0.00024816408
90	0x38ba8b45	8.895112e-05
91	0x38a56161	7.885951e-05
92	0xb8c3e345	-9.340657e-05
93	0x393419f1	0.00017175802
94	0xb8f7b931	-0.000118123724
95	0xb7ff85b7	-3.0460635e-05
96	0x3826cde2	3.9769227e-05
97	0x382c9494	4.114637e-05
98	0x38649912	5.4501994e-05
99	0xb96fe7d3	-0.00022879177
100	0xb9354a9f	-0.00017289304
101	0xb8fb0f79	-0.00011971495
102	0x38e42f3f	0.000108806875
103	0x38f2060b	0.00011540585
104	0xb98270b3	-0.000248795
105	0x389673e1	7.1741415e-05
106	0x39199766	0.00014647617
107	0x3937b5d2	0.00017519973
108	0xb984f1e5	-0.00025357227
109	0x395b8ef2	0.00020938719
110	0xb8ba8ab1	-8.8950044e-05
111	0x36a26e09	4.840786e-06
112	0xb96e1fbe	-0.00022709274
113	0x38800b85	6.105661e-05
114	0x38bcfe4a	9.0119036e-05
115	0xb9112ede	-0.00013845737
116	0xb9234edf	-0.00015574273
117	0xb97a413a	-0.00023866157
118	0xb974fd3d	-0.00023363992
119	0xb96e05e0	-0.00022699637
120	0xb7b70f17	-2.1822327e-05
121	0xb95a73c0	-0.0002083322
122	0xb8dae3e4	-0.00010437498
123	0x37d69c33	2.5583524e-05
124	0xb8331d06	-4.2703956e-05
125	0xb97f469f	-0.00024345003
126	0x392ef80d	0.00016686339
127	0x396da85b	0.00022664799
128	0x392e3d3a	0.00016616742
129	0x390b4f08	0.00013285514
130	0xb9634425	-0.00021673793
131	0xb88d16a6	-6.7276225e-05
132	0xb7f2ec5f	-2.8958717e-05
133	0x397081ec	0.00022936583
134	0xb8030c92	-3.124454e-05
135	0xb96ce080	-0.00022590347
136	0xb90fa6e4	-0.00013699714
137	0xb8cca9ce	-9.7591066e-05
138	0x3965d58f	0.00021918699
139	0xb71a815b	-9.209233e-06
140	0x3918e5fa	0.00014581523
141	0x396ab8d9	0.0002238484
142	0xb962be6b	-0.00021623976
143	0xb7b4b44c	-2.154163e-05
144	0x38388640	4.399405e-05
145	0xb8cb5541	-9.695674e-05
146	0xb95c2c5e	-0.00020997363
147	0x385108d5	4.983771e-05
148	0x3964a563	0.00021805386
149	0xb89b528c	-7.4063515e-05
150	0x3976b96d	0.00023529465
151	0x395535ae	0.0002033326
152	0x398596ab	0.00025479993
153	0xb91ba365	-0.00014842821
154	0xb94a0efe	-0.00019269806
155	0xb8e0c04d	-0.00010716971
156	0xb92639ea	-0.00015852568
157	0xb82611b4	-3.959397e-05
158	0xb9736d79	-0.00023215068
159	0xb8b6067b	-8.679643e-05
160	0xb6e843f8	-6.9220514e-06
161	0xb92a7b28	-0.00016258343
162	0x3896b670	7.186539e-05
163	0x391b2cfc	0.0001479871
164	0x3941423d	0.0001843059
165	0xb953f0b7	-0.00020212201
166	0x3843994f	4.6634403e-05
167	0x38edc70e	0.000113381175
168	0xb8e583cf	-0.00010944122
169	0x38f882e6	0.00011849943
170	0x3974ff68	0.000233648
171	0xb895ed7e	-7.14911e-05
172	0xb949c090	-0.00019240589
173	0xb985d3a7	-0.0002552543
174	0x384add41	4.836661e-05
175	0xb93b7a1c	-0.00017879199
176	0x35e8e676	1.735242e-06
177	0x393648ab	0.00017383943
178	0x38ca1380	9.635743e-05
179	0xb6bfa62c	-5.7115885e-06
180	0x3982f012	0.000249744
181	0xb84f26b2	-4.9388684e-05
182	0x39165d5f	0.00014339898
183	0xb9726b18	-0.00023118814
184	0x3950745f	0.00019879777
185	0x39061fe7	0.0001279112
186	0x39448f2a	0.0001874535
187	0x38ae0540	8.2979444e-05
188	0xb8c374db	-9.3200906e-05
189	0xb7dd1b45	-2.6357951e-05
190	0xb953ab40	-0.00020186324
191	0x394595d3	0.00018843198
192	0x3966932c	0.00021989335
193	0x396814a9	0.0002213294
194	0xb86170d3	-5.3749256e-05
195	0x3953a9b8	0.00020185753
196	0xb82646aa	-3.9643295e-05
197	0xb807903a	-3.232083e-05
198	0xb89caf44	-7.4713054e-05
199	0x36aba3ca	5.1152647e-06
200	0x39491175	0.00019175357
201	0x395a1153	0.00020796554
202	0x38998e00	7.322058e-05
203	0x394f1723	0.00019749677
204	0xb984c675	-0.00025324864
205	0x3912b708	0.0001399183
206	0x3707927a	8.080731e-06
207	0xb936f805	-0.00017449267
208	0x392ab145	0.00016278501
209	0xb93215c6	-0.00016983514
210	0x38be2ef2	9.06865e-05
211	0xb8ba9d9b	-8.8985274e-05
212	0xb85dfedd	-5.2927866e-05
213	0x396fe7a5	0.0002287911
214	0x392e0c48	0.00016598508
215	0xb8eecc4b	-0.00011386777
216	0xb94087df	-0.00018361163
217	0x394ed49e	0.00019724897
218	0x3986616d	0.0002563106
219	0x39114c9b	0.00013856815
220	0xb918bef4	-0.00014566985
221	0x392ce6bb	0.00016489152
222	0xb83b75b9	-4.4693912e-05
223	0xb88f2340	-6.825337e-05
224	0x398105ee	0.00024609215
225	0x3961067a	0.00021460085
226	0x38b4e63e	8.625955e-05
227	0xb91f7e43	-0.00015210458
228	0x38e908bf	0.00011111935
229	0x39353653	0.00017281742
230	0x38db219f	0.00010448996
231	0xb92a3355	-0.00016231586
232	0xb86e0f90	-5.6758116e-05
233	0xb8cb0387	-9.680451e-05
234	0x36e496cc	6.8124846e-06
235	0x38c2f02d	9.295377e-05
236	0xb95e7fda	-0.00021219198
237	0x38d82751	0.00010307006
238	0x388218b4	6.2034844e-05
239	0xb94ef213	-0.0001973587
240	0x38eaf2c7	0.0001120321
241	0xb888e220	-6.5271044e-05
242	0x3831ca54	4.238852e-05
243	0xb9126765	-0.00013962162
244	0x3910c56d	0.00013806457
245	0xb97e8d4f	-0.00024275969
246	0x393f8333	0.00018264055
247	0xb96d1a7f	-0.00022611952
248	0x367953ed	3.7152743e-06
249	0xb6ea5213	-6.983298e-06
250	0x384801df	4.768546e-05
251	0xb8abf1b7	-8.198938e-05
252	0x389f1937	7.5864074e-05
253	0xb887ebc1	-6.481214e-05
254	0xb936a19f	-0.00017417081
255	0xb82af9aa	-4.0763676e-05

gat_layer.linear_r.weight f4 [64, 64]
0	0xb94df0be	-0.00019640007
1	0xb779c034	-1.4886307e-05
2	0xb8bfa2ff	-9.13795e-05
3	0xb8339f01	-4.282501e-05
4	0x3981a8d6	0.0002473059
5	0xb4b6adf2	-3.4026704e-07
6	0xb913148c	-0.00014026667
7	0x3911f836	0.00013920743
8	0x37aee16d	2.0847388e-05
9	0x38e13ffa	0.000107407526
10	0x39840ca5	0.00025186423
11	0x396cf6dd	0.00022598678
12	0xb97a4d93	-0.00023870757
13	0x390005b2	0.00012209153
14	0x3850694d	4.9689133e-05
15	0xb8adcc5e	-8.287349e-05
16	0x38a10fd1	7.680024e-05
17	0x37f1e2fc	2.8835137e-05
18	0x395fb8f8	0.00021335843
19	0xb8209d00	-3.829319e-05
20	0x38c6849b	9.4660754e-05
21	0xb89e69c1	-7.553725e-05
22	0xb8191ed5	-3.6506757e-05
23	0xb93f66a9	-0.00018253423
24	0xb95a0d89	-0.00020795142
25	0xb70890e3	-8.139966e-06
26	0xb7d29a81	-2.5105897e-05
27	0xb9873b7e	-0.00025793532
28	0x38d0899e	9.943846e-05
29	0xb94d0f19	-0.00019555948
30	0xb92c4037	-0.0001642712
31	0xb8c0f435	-9.2007605e-05
32	0x396a6d59	0.00022356714
33	0xb9071267	-0.00012881459
34	0xb8d656f1	-0.00010220509
35	0x3936826b	0.00017405457
36	0x3916691c	0.00014344271
37	0x36b748c3	5.4622956e-06
38	0xb904f026	-0.00012677963
39	0xb92b1762	-0.00016316542
40	0xb9233dcb	-0.00015567911
41	0x3899c708	7.332681e-05
42	0xb8b60dc2	-8.680999e-05
43	0xb9290d4c	-0.0001612205
44	0x3914f297	0.00014204752
45	0x381480a9	3.5405774e-05
46	0xb926a16e	-0.00015891131
47	0x396d524b	0.00022632738
48	0xb8124b01	-3.4878965e-05
49	0x39340048	0.00017166242
50	0xb84aa529	-4.831437e-05
51	0xb973b663	-0.0002324223
52	0xb97f69b5	-0.00024358074
53	0x379f97ed	1.9025023e-05
54	0x3965d487	0.00021918314
55	0xb912674c	-0.00013962126
56	0x39140c63	0.00014118994
57	0xb88bcd70	-6.666302e-05
58	0x392cf7a0	0.00016495446
59	0xb883bef2	-6.282133e-05
60	0xb906f8e5	-0.00012871956
61	0xb8abeba7	-8.197809e-05
62	0xb8db0174	-0.000104430044
63	0xb98232a8	-0.00024833274
64	0x3907e782	0.00012960847
65	0xb9175399	-0.00014431625
66	0x39022fb5	0.00012415538
67	0x3741a895	1.15429475e-05
68	0xb705a5fa	-7.966062e-06
69	0xb92f948a	-0.00016744636
70	0x38b6945c	8.7060704e-05
71	0x392f54e9	0.00016720932
72	0x3905deb7	0.00012766836
73	0x38e8dfe4	0.00011104325
74	0x38b89f3c	8.8034634e-05
75	0xb95e3988	-0.00021193002
76	0xb701329b	-7.700782e-06
77	0xb91d3c8b	-0.00014995241
78	0x3953a3f6	0.00020183608
79	0xb97ef703	-0.00024315347
80	0xb8a51b04	-7.872845e-05
81	0x39101e55	0.0001374421
82	0xb89bd958	-7.4314594e-05
83	0xb9049812	-0.00012645152
84	0xb76c1192	-1.4070787e-05
85	0x37978f6b	1.8067387e-05
86	0xb9413099	-0.00018424018
87	0x386bff12	5.626592e-05
88	0x38b6407d	8.690448e-05
89	0x3972a388	0.00023139839
90	0xb8c905f1	-9.5855336e-05
91	0x38d657e1	0.00010220684
92	0x392cc7bd	0.00016477607
93	0x375f336f	1.3303811e-05
94	0x3909259b	0.00013079347
95	0xb88f0171	-6.81904e-05
96	0x3791ee93	1.7396442e-05
97	0x38acf301	8.246862e-05
98	0xb9527f6b	-0.00020074628
99	0x392b39a3	0.00016329302
100	0xb797ff01	-1.8119348e-05
101	0xb943dc14	-0.00018678635
102	0xb91913ae	-0.00014598548
103	0xb82d6e6b	-4.134925e-05
104	0x39514815	0.00019958646
105	0xb7e85cae	-2.7699713e-05
106	0x39229534	0.00015505106
107	0xb92e3ce0	-0.00016616611
108	0xb8a71b79	-7.968298e-05
109	0x38d31066	0.000100643185
110	0xb965ba83	-0.00021908623
111	0xb8948b61	-7.083151e-05
112	0xb853e9a5	-5.052392e-05
113	0xb987bf15	-0.00025891574
114	0xb986a46e	-0.0002568098
115	0x3964d643	0.00021823593
116	0x38f82548	0.00011832506
117	0xb90253fb	-0.00012429051
118	0xb97433b1	-0.0002328891
119	0xb90c9f05	-0.0001341068
120	0x3905855d	0.0001273355
121	0x3825b546	3.950789e-05
122	0x37cc5ae6	2.4361023e-05
123	0x396771f9	0.00022072335
124	0xb96ac146	-0.00022387979
125	0xb9477a1e	-0.00019023611
126	0x38ddc277	0.00010574323
127	0xb7cfd077	-2.4773397e-05
128	0x394d2631	0.00019564551
129	0x392b2bcd	0.00016324148
130	0x38a124b1	7.6839126e-05
131	0x39738733	0.00023224652
132	0x39228651	0.0001549956
133	0xb89f54fc	-7.5975404e-05
134	0x38fe74a3	0.00012133389
135	0x396155ec	0.0002148968
136	0x370df08d	8.4602625e-06
137	0xb971ef0b	-0.00023072601
138	0x38f2f082	0.00011584257
139	0xb92e1eea	-0.0001660545
140	0xb90bea2e	-0.00013343312
141	0x396d1050	0.00022608158
142	0xb8c0ec2b	-9.199263e-05
143	0xb7cf6696	-2.4724093e-05
144	0xb8f6d4e4	-0.00011769848
145	0xb8c2a5ff	-9.28156e-05
146	0xb97acff9	-0.00023919334
147	0x393cc091	0.00018000814
148	0xb896e901	-7.195958e-05
149	0x392d7ba1	0.00016544621
150	0x39661cdb	0.00021945259
151	0xb96cf9fb	-0.00022599839
152	0x3827dd31	4.0021903e-05
153	0xb8cd4dd1	-9.789656e-05
154	0x3976b513	0.00023527844
155	0xb9660bd4	-0.00021938916
156	0xb95d449f	-0.00021101766
157	0x396663f5	0.00021971746
158	0x3769be6f	1.3932221e-05
159	0xb9677f35	-0.00022077265
160	0xb986ee59	-0.00025736055
161	0xb927d660	-0.00016006222
162	0x397b418f	0.00023961648
163	0xb7f6d596	-2.9424944e-05
164	0x395fcace	0.00021342488
165	0x3901022a	0.00012303205
166	0x38682276	5.5345205e-05
167	0x3585c4d2	9.966554e-07
168	0xb930116e	-0.00016791161
169	0x392097ea	0.00015315381
170	0x3956ed8e	0.00020497126
171	0x3896dd39	7.193763e-05
172	0x39107a88	0.00013778557
173	0xb903c085	-0.00012564853
174	0xb9842fe0	-0.00025212672
175	0xb8eeee08	-0.00011393061
176	0xb788c34c	-1.6303406e-05
177	0x38dbd014	0.00010481491
178	0x391e6047	0.0001510392
179	0xb80cce21	-3.3570574e-05
180	0xb93b2226	-0.00017846431
181	0xb86ffb65	-5.721617e-05
182	0x394f7fe2	0.00019788698
183	0xb8988eb6	-7.274507e-05
184	0xb659a9c5	-3.2434339e-06
185	0x39688ac1	0.00022176934
186	0x381d1448	3.7450605e-05
187	0x394e5db1	0.00019680594
188	0x3959bb89	0.00020764595
189	0xb956018e	-0.0002040921
190	0x38c6a2c5	9.471694e-05
191	0xb869e2a8	-5.576262e-05
192	0x392617e7	0.00015839898
193	0x3969bc5e	0.00022290784
194	0x38734bc5	5.800628e-05
195	0xb97c79a1	-0.00024077903
196	0xb910f747	-0.00013825028
197	0x394b6a85	0.0001939927
198	0xb76d989f	-1.4161836e-05
199	0xb8ece44d	-0.00011295881
200	0xb8917c8d	-6.937338e-05
201	0x39898c0d	0.00026235022
202	0x3940d9f1	0.00018391736
203	0xb91f9cb3	-0.00015221797
204	0x3922534f	0.00015480559
205	0x37096bbe	8.190922e-06
206	0xb981dbe3	-0.00024768626
207	0xb8e77c6f	-0.00011038116
208	0x39527b7d	0.00020073164
209	0xb923d79e	-0.00015625215
210	0xb866604f	-5.4925968e-05
211	0x3951922d	0.00019986248
212	0x395d2916	0.00021091508
213	0xb842c87c	-4.643992e-05
214	0x392ff057	0.00016778834
215	0x37706be8	1.4330239e-05
216	0x3934b6a1	0.00017234172
217	0xb6054780	-1.9860163e-06
218	0x37525a3f	1.25379875e-05
219	0xb8937da8	-7.0329115e-05
220	0xb91bbd3d	-0.00014852449
221	0xb7460d3a	-1.1804799e-05
222	0xb7416510	-1.1527227e-05
223	0x389d57c1	7.502689e-05
224	0xb85538ef	-5.083618e-05
225	0x392c4e52	0.00016432375
226	0xb8862d46	-6.398051e-05
227	0xb94a4976	-0.00019291588
228	0x396ba073	0.00022471118
229	0x383c2bbc	4.4863424e-05
230	0x381e3816	3.772237e-05
231	0x3896c2b2	7.188822e-05
232	0x39654407	0.00021864484
233	0x3727a488	9.992284e-06
234	0x375f88cc	1.3323686e-05
235	0xb93c2cdf	-0.00017945793
236	0xb92365ac	-0.00015582767
237	0x3963df87	0.00021731677
238	0xb9299610	-0.00016172999
239	0x3940617d	0.00018346864
240	0xb9504f39	-0.00019865939
241	0xb9418257	-0.0001845447
242	0xb90bf5a6	-0.00013347584
243	0x39580450	0.00020600972
244	0x38d44047	0.0001012092
245	0x3740bb1b	1.1487656e-05
246	0x3958b4eb	0.00020666762
247	0x392421d9	0.00015652868
248	0x3988b96c	0.00026078091
249	0x3981446c	0.00024655776
250	0xb95dc01a	-0.00021147766
251	0x3833c5dd	4.28612e-05
252	0xb91c08d2	-0.00014880605
253	0xb8055247	-3.1786298e-05
254	0x3966059e	0.00021936602
255	0xb881cbb6	-6.1891435e-05

gat_layer.attn.weight f4 [1, 64]
0	0x38a97c55	8.0817066e-05
1	0x393262e8	0.00017012248
2	0xb7a5535b	-1.9708348e-05
3	0x398297f3	0.00024908743
4	0xb95e9e86	-0.00021230624
5	0xb8748ed5	-5.8307156e-05
6	0x3911cb0c	0.00013903918
7	0x387e8b7f	6.0688235e-05
8	0x38d69cbd	0.0001023351
9	0x39771037	0.00023561796
10	0xb88ac3c7	-6.616819e-05
11	0xb9491366	-0.0001917608
12	0x38879bd8	6.46633e-05
13	0x3983ec73	0.00025162435
14	0xb94a15f1	-0.00019272395
15	0xb883c2da	-6.282861e-05
16	0x37b76753	2.1863414e-05
17	0xb79281f5	-1.7465072e-05
18	0x394012fe	0.00018317622
19	0xb92fa80c	-0.00016751903
20	0xb9618f5d	-0.00021511079
21	0x37b9cc66	2.2148899e-05
22	0x381b29ca	3.69938e-05
23	0xb94da9a8	-0.00019613525
24	0xb833afc1	-4.284061e-05
25	0xb8a66828	-7.9348974e-05
26	0xb8dd7b8d	-0.00010561114
27	0xb90f3889	-0.00013658604
28	0xb9845f63	-0.0002524807
29	0xb8fd5f7c	-0.000120817655
30	0xb91ed0ef	-0.00015145888
31	0xb8443f4d	-4.6788995e-05
32	0xb92724bd	-0.00015940047
33	0x392634df	0.0001585069
34	0xb96efb2d	-0.00022791019
35	0x38132878	3.508522e-05
36	0xb80018b1	-3.0540574e-05
37	0x39698828	0.00022271334
38	0xb8a58968	-7.893407e-05
39	0x380e804e	3.397493e-05
40	0xb8bcc590	-9.0013375e-05
41	0xb85d00b8	-5.2691175e-05
42	0xb98016d0	-0.0002443106
43	0x3754edf0	1.2691584e-05
44	0x38ef6888	0.000114158785
45	0xb9345fe8	-0.00017201866
46	0x38d05888	9.934703e-05
47	0x38e416c9	0.00010876131
48	0x390b17a6	0.00013264883
49	0x395e3de3	0.00021194624
50	0xb910e092	-0.00013816569
51	0xb8f67e9f	-0.00011753779
52	0xb9805899	-0.00024480073
53	0x39796b40	0.00023786444
54	0xb8ecc29d	-0.000112896065
55	0xb95bbaba	-0.00020955029
56	0x38e5067b	0.00010920778
57	0xb7a3668f	-1.9478872e-05
58	0xb715b3f1	-8.922988e-06
59	0xb90323f5	-0.00012506529
60	0xb8f4fd88	-0.000116820505
61	0xb95e074e	-0.00021174291
62	0xb82d477a	-4.1312982e-05
63	0x397f8791	0.00024369197

linear_layers.0.weight f4 [64, 68]
0	0x39579b15	0.0002056177
1	0x39178230	0.00014448981
2	0xb88cff93	-6.7233246e-05
3	0x39152380	0.00014222972
4	0x392f2644	0.00016703556
5	0xb90c9f00	-0.00013410673
6	0x3978bc3f	0.0002372125
7	0xb8e3e4ce	-0.00010866822
8	0xb8eb0a93	-0.00011207643
9	0xb92c093c	-0.00016406638
10	0x38b1a12e	8.47004e-05
11	0xb90ef3aa	-0.00013632947
12	0x391e4572	0.00015093925
13	0x39791b48	0.00023756654
14	0xb837d5e1	-4.382979e-05
15	0xb8245926	-3.9183673e-05
16	0x390afffb	0.00013256066
17	0xb879e1fe	-5.9576698e-05
18	0xb924eeb7	-0.00015729187
19	0xb963be32	-0.0002171926
20	0xb9515538	-0.0001996354
21	0x38e927d3	0.000111177236
22	0x36da5a69	6.5074314e-06
23	0x3831d74d	4.2400603e-05
24	0x377124dc	1.4373301e-05
25	0xb8fd5cd5	-0.000120812714
26	0xb8d51195	-0.000101599064
27	0xb9099f49	-0.00013124676
28	0xb8c434fe	-9.355879e-05
29	0xb8ad6a21	-8.269051e-05
30	0xb96c3293	-0.00022525554
31	0x3822b650	3.87936e-05
32	0xb9609f9d	-0.00021421765
33	0x391668dc	0.00014344178
34	0x396d4002	0.00022625926
35	0xb8b3a762	-8.5665626e-05
36	0x371f92b6	9.511297e-06
37	0xb980fe12	-0.0002460336
38	0x38f5fdc5	0.000117297786
39	0xb9598e78	-0.00020747806
40	0x383749dc	4.3699387e-05
41	0xb93841de	-0.00017572145
42	0xb94f9a8c	-0.00019798632
43	0xb87d997c	-6.0462844e-05
44	0xb9511896	-0.00019940952
45	0x3876427b	5.8712885e-05
46	0x38df87b1	0.00010658743
47	0x38b3a1e9	8.565543e-05
48	0xb889cf4d	-6.571282e-05
49	0x395006cd	0.00019838959
50	0xb9312501	-0.0001689382
51	0xb973e8fc	-0.0002326108
52	0x3929d227	0.00016195384
53	0x3957a3a7	0.00020564963
54	0x36876428	4.0349732e-06
55	0x38d18b1f	9.99181e-05
56	0xb90b630b	-0.0001329297
57	0xb96f36ec	-0.00022813276
58	0x38859158	6.3690066e-05
59	0xb926c048	-0.00015902624
60	0xb8a86175	-8.029017e-05
61	0x36a01e00	4.771864e-06
62	0xb926a1e5	-0.00015891304
63	0xb8a7d470	-8.00275e-05
64	0xb8acd771	-8.241728e-05
65	0xbc0b26cd	-0.008493138
66	0xb86b06c0	-5.6034653e-05
67	0x3c979eb1	0.018508287
68	0xb92bdb3b	-0.000163895
69	0x38ff5bc0	0.00012176437
70	0x3887354b	6.447228e-05
71	0x39211eb0	0.00015365588
72	0xb97abf1a	-0.00023913049
73	0x39293974	0.00016138499
74	0x37b43784	2.1483524e-05
75	0xb928cac4	-0.00016097265
76	0x3907a42c	0.00012935762
77	0x3540f2ba	7.187879e-07
78	0xb935eb70	-0.00017349212
79	0x3890a754	6.8976224e-05
80	0xb61a2e41	-2.2974712e-06
81	0xb975502b	-0.00023394886
82	0xb91b1b1b	-0.0001479205
83	0x38275139	3.9891547e-05
84	0xb8bd61f6	-9.030469e-05
85	0xb92c497f	-0.00016430578
86	0xb982e4f0	-0.00024966104
87	0x39727a66	0.00023124515
88	0x398209e4	0.000248029
89	0x37552e57	1.2706579e-05
90	0x392e3253	0.0001661268
91	0xb934663f	-0.00017204227
92	0xb96aead3	-0.00022403458
93	0x38eb3461	0.000112154295
94	0x3915ab61	0.00014273591
95	0x3893e2e9	7.0517715e-05
96	0xb95c3198	-0.0002099931
97	0xb922db4c	-0.00015531218
98	0x397cc5f9	0.00024106343
99	0x392b465b	0.0001633404
100	0x391c1677	0.00014885688
101	0xb918afa7	-0.00014561285
102	0x37afc49b	2.0953177e-05
103	0x3961165d	0.00021466003
104	0xb8c6d930	-9.48183e-05
105	0xb8b212cd	-8.491203e-05
106	0xb96933d4	-0.00022239919
107	0xb9679d5f	-0.00022088502
108	0x39320990	0.00016978965
109	0x385b67be	5.2310286e-05
110	0xb8ecb0c7	-0.00011286284
111	0xb950ab7c	-0.00019900309
112	0xb8869fc3	-6.419376e-05
113	0x387f4b30	6.086676e-05
114	0x393c0d9a	0.00017934144
115	0xb9411beb	-0.00018416315
116	0x391e555b	0.00015099852
117	0xb841907e	-4.6149355e-05
118	0x394dceab	0.00019627313
119	0xb8093b9c	-3.271886e-05
120	0x38be3e51	9.071513e-05
121	0xb95f6031	-0.00021302771
122	0xb8d0bd5e	-9.953485e-05
123	0xb8674be0	-5.5145356e-05
124	0xb76dba1b	-1.4169632e-05
125	0x38758722	5.8538404e-05
126	0x3548eba8	7.484873e-07
127	0xb7fc5746	-3.008138e-05
128	0xb8ac8453	-8.2262464e-05
129	0x396a7427	0.00022359249
130	0xb912719a	-0.00013965965
131	0x3928c4de	0.00016095067
132	0x394d5475	0.00019581786
133	0xb9212be1	-0.00015370503
134	0xb7b4a455	-2.1534195e-05
135	0xb93bf718	-0.0001792576
136	0xb97c89b7	-0.00024083896
137	0xb945b740	-0.0001885565
138	0x391fc426	0.00015236493
139	0xb9697542	-0.00022264294
140	0x392a28d4	0.00016227673
141	0x397156a4	0.00023015827
142	0xb96c5144	-0.00022536988
143	0x393b6201	0.00017870219
144	0xb8dfc567	-0.00010670238
145	0x38e4a639	0.000109028486
146	0x3932540a	0.0001700671
147	0xb94db44e	-0.00019617492
148	0xb90ef5a7	-0.00013633688
149	0xb9560903	-0.00020411987
150	0xb6cfcdd0	-6.1930405e-06
151	0xb9097fa5	-0.0001311289
152	0xb7f90b32	-2.9688326e-05
153	0x395df286	0.0002116655
154	0x3951287d	0.00019946876
155	0xb7b65a7a	-2.1738222e-05
156	0xb89426db	-7.064427e-05
157	0xb94dfb68	-0.0001964398
158	0xb95cb6dd	-0.00021048957
159	0xb8d3d7a9	-0.00010101434
160	0xb969ccb3	-0.00022296868
161	0x396f775f	0.00022837285
162	0x38eed718	0.00011388789
163	0xb95230be	-0.00020045319
164	0x3911dc61	0.00013910375
165	0xb8894e12	-6.547211e-05
166	0x37e274ed	2.6995747e-05
167	0xb817bf0c	-3.617913e-05
168	0x393a1690	0.00017746747
169	0x3939a441	0.00017704164
170	0xb920ff0b	-0.000153538
171	0x3754cabc	1.26833875e-05
172	0x391fc7d8	0.00015237869
173	0xb7386c93	-1.0992534e-05
174	0xb7b90875	-2.2057657e-05
175	0x38fa017d	0.00011921206
176	0xb7c15184	-2.3045352e-05
177	0x39623bc3	0.00021575303
178	0x385bd3df	5.241099e-05
179	0xb95dcc79	-0.00021152374
180	0xb8ce8ac2	-9.848691e-05
181	0xb98323e1	-0.00025013
182	0x38136eba	3.5150653e-05
183	0x391be492	0.00014867101
184	0xb83cec39	-4.5042692e-05
185	0x392e4b59	0.00016622002
186	0xb80b4f78	-3.3214194e-05
187	0x39650d1f	0.0002184403
188	0xb73f9a4e	-1.1420414e-05
189	0x392b1729	0.00016316459
190	0xb9076aff	-0.00012914462
191	0x36b799f7	5.471749e-06
192	0x3957d318	0.00020582636
193	0xb7674a92	-1.3786035e-05
194	0xb9643f81	-0.00021767431
195	0x3899a891	7.3270065e-05
196	0xb7acde67	-2.0607562e-05
197	0x38eb4697	0.000112188216
198	0x39788dc9	0.00023703942
199	0x3952424b	0.00020051857
200	0xb96893f5	-0.00022180362
201	0x38e491df	0.00010899058
202	0xb7c90a58	-2.3965884e-05
203	0xb9418405	-0.00018455095
204	0x37f0289c	2.862914e-05
205	0x39759db7	0.00023423774
206	0xb8113fe4	-3.4630197e-05
207	0x38ce7915	9.845399e-05
208	0xb79124af	-1.730243e-05
209	0xb983441d	-0.00025037015
210	0xb8857141	-6.3630294e-05
211	0xb94e8a23	-0.00019697151
212	0x397a8d95	0.00023894601
213	0xb8b9074e	-8.822848e-05
214	0xb756632f	-1.2778487e-05
215	0xb89f57ae	-7.5980424e-05
216	0xb8f3226e	-0.00011593556
217	0xb954ca9e	-0.00020293376
218	0xb94bdf8f	-0.0001944287
219	0xb8bcbadb	-8.999343e-05
220	0x38b664d2	8.6972155e-05
221	0xb9677706	-0.00022074216
222	0xb801cc3d	-3.094621e-05
223	0x394a08db	0.0001926752
224	0x39768fad	0.00023513912
225	0xb8d2c5f5	-0.00010050453
226	0x38aa2bd3	8.1143946e-05
227	0xb8bd64d3	-9.031002e-05
228	0x3912ed3e	0.00014012025
229	0xb8884c34	-6.499179e-05
230	0xb8643a33	-5.441364e-05
231	0xb9460048	-0.00018882856
232	0x394edca1	0.00019727882
233	0x383c34fe	4.4872046e-05
234	0x390b1ef8	0.0001326761
235	0x38c32122	9.304496e-05
236	0xb95422c8	-0.00020230853
237	0xb84cd201	-4.883297e-05
238	0x39139953	0.0001407613
239	0xb9013040	-0.00012320373
240	0xb8aec4f0	-8.333649e-05
241	0xb8adb635	-8.2832215e-05
242	0xb9354e79	-0.00017290738
243	0xb9586a82	-0.00020639042
244	0x393ca982	0.00017992224
245	0xb943d750	-0.0001867686
246	0xb9398010	-0.00017690682
247	0xb91417ac	-0.00014123198
248	0x38751159	5.8428708e-05
249	0xb9646580	-0.00021781586
250	0x3836e4c5	4.360524e-05
251	0x38fc6ac7	0.00012036185
252	0x394e10e9	0.0001965199
253	0x393e2111	0.0001813213
254	0x392f7129	0.00016731456
255	0x388f997b	6.847359e-05

linear_layers.0.bias f4 [64]
0	0x39e4ab44	0.00043615152
1	0xb93ec9ca	-0.00018194984
2	0x38226863	3.8721028e-05
3	0x3865bec7	5.477553e-05
4	0x3a6ef96d	0.0009116147
5	0xb81d22f0	-3.7464255e-05
6	0xb92ce22b	-0.00016487452
7	0xb923ba12	-0.00015614208
8	0xb82ae274	-4.074206e-05
9	0xb91b4a5e	-0.00014809656
10	0xb605a056	-1.9911872e-06
11	0x3982937b	0.00024905414
12	0xb7b60014	-2.1696127e-05
13	0xb8cf290f	-9.878177e-05
14	0x3a7db23b	0.00096777425
15	0xb91ec2af	-0.0001514058
16	0x3a08b10e	0.00052143715
17	0x3930a7b4	0.00016847142
18	0xb90cfe2e	-0.0001344613
19	0xb8acf27c	-8.246765e-05
20	0x39469acf	0.00018940422
21	0x3a4c1af1	0.0007785997
22	0xb927efcf	-0.00016015697
23	0x389855ff	7.263943e-05
24	0x3988dac9	0.0002610295
25	0xb7be0c93	-2.265562e-05
26	0x3a7f6ed1	0.0009743991
27	0x3a4a0918	0.00077070436
28	0xb8f5f1d7	-0.000117275566
29	0x3849ad18	4.808334e-05
30	0x39465cea	0.00018917365
31	0xb8433f84	-4.6550776e-05
32	0xb8d395a8	-0.0001008914
33	0x392be255	0.00016392146
34	0x3a2d7d3a	0.00066180865
35	0xb94fe01f	-0.0001982455
36	0x38ebb2d7	0.00011238985
37	0x39cc0237	0.00038911562
38	0xb926d251	-0.00015909343
39	0x38afb69e	8.3786654e-05
40	0x3a3a28d7	0.00071014225
41	0x3a3889f1	0.0007039598
42	0x3ab1d1a1	0.0013566503
43	0x3a8a7b6e	0.0010565349
44	0x3a27c6e0	0.0006400179
45	0xb8956421	-7.123524e-05
46	0x3a521513	0.00080140046
47	0x3a62c34b	0.0008650317
48	0xb85da10f	-5.2840503e-05
49	0x38e6e534	0.00011009947
50	0x3a503b3e	0.0007943398
51	0xb90d9f4a	-0.00013506148
52	0x39df42be	0.000425836
53	0x3a9b3e64	0.0011844155
54	0x3a00248e	0.00048882596
55	0xb96684c4	-0.00021983968
56	0x389ee6a5	7.576988e-05
57	0x38a28e65	7.751285e-05
58	0x3a33d8b2	0.0006860598
59	0x3a4e562e	0.0007871118
60	0x3a2d9be0	0.00066226535
61	0xb8b33b1c	-8.546395e-05
62	0x391e9b05	0.00015125803
63	0x3950ee20	0.00019925134

linear_layers.2.weight f4 [64, 64]
0	0xb6473e3f	-2.9689543e-06
1	0x3961c6d3	0.0002153174
2	0xb8e3e050	-0.00010865985
3	0x376e1588	1.4190919e-05
4	0xb90c3777	-0.00013372103
5	0xb78bae45	-1.6651242e-05
6	0xb8df220f	-0.000106398125
7	0x3929979f	0.00016173579
8	0x3900b4f6	0.00012274444
9	0x38e293f9	0.00010804082
10	0xb97d974f	-0.00024184327
11	0xb9045c5c	-0.00012622908
12	0xb91c6ec3	-0.00014918581
13	0x382665d8	3.9672334e-05
14	0x39526d78	0.00020067941
15	0xb8f93d40	-0.00011884654
16	0xb98251c7	-0.0002485646
17	0xb815c11d	-3.570422e-05
18	0xb983fbfb	-0.00025174007
19	0x397055d3	0.00022920156
20	0x396a9122	0.00022370045
21	0xb8bd72c2	-9.0335976e-05
22	0x391a81fe	0.0001473501
23	0x395e3e97	0.00021194886
24	0xb7d69d7c	-2.5584122e-05
25	0xb90b6ba0	-0.00013296166
26	0x3970f959	0.00022981073
27	0x38a300ec	7.7726174e-05
28	0x396d07ae	0.00022604942
29	0x393933ef	0.00017662322
30	0xb938f700	-0.00017639622
31	0xb86c16f1	-5.628815e-05
32	0xb9367b73	-0.00017402861
33	0x391b30df	0.00014800158
34	0x3924c71d	0.00015714434
35	0xb8fb2676	-0.000119757766
36	0x397df6d3	0.0002421991
37	0x385acc48	5.2165502e-05
38	0xb7a68297	-1.9849553e-05
39	0xb8ad433e	-8.261808e-05
40	0xb9690482	-0.00022222291
41	0xb9440328	-0.00018693192
42	0xb83d8b66	-4.5190936e-05
43	0xb92080d4	-0.00015306781
44	0xb92ca907	-0.00016466166
45	0xb9836e12	-0.00025068276
46	0x3989b0fc	0.0002626254
47	0xb5e9738e	-1.7393484e-06
48	0xb8e84616	-0.000110756766
49	0xb9824c7f	-0.00024852526
50	0xb95da0a1	-0.00021136041
51	0x3908cace	0.00013045521
52	0x383e2e8e	4.5342887e-05
53	0x377ca59a	1.5058928e-05
54	0xb8ef678e	-0.00011415697
55	0x398711ad	0.00025762376
56	0x3959494d	0.0002072204
57	0xb8d398da	-0.00010089735
58	0xb980cbdb	-0.00024565947
59	0xb810875a	-3.445833e-05
60	0x369af19d	4.617685e-06
61	0xb87e3151	-6.060425e-05
62	0x39273171	0.0001594478
63	0xb941a307	-0.00018466647
64	0x3bdd7535	0.006758357
65	0xb8043f24	-3.1530057e-05
66	0xb9615ccf	-0.00021492246
67	0xb8726fed	-5.7801535e-05
68	0x3c3564a8	0.011071362
69	0x395432fd	0.0002023689
70	0x3950ab26	0.00019900184
71	0xb9359013	-0.00017315177
72	0x38c631b8	9.4506366e-05
73	0xb89392ab	-7.036825e-05
74	0xb8f83e19	-0.00011837128
75	0x3aca8a42	0.0015452581
76	0xb9b93056	-0.00035321963
77	0xb8fab256	-0.000119541466
78	0x3c47388e	0.01215948
79	0xb9100f35	-0.00013738575
80	0x3c0712da	0.008244241
81	0xb9a7ec98	-0.00032028998
82	0x3a8a200e	0.0010538117
83	0xb8ae5a90	-8.313835e-05
84	0x3bd1583a	0.0063886913
85	0x3c0b6c05	0.008509641
86	0x396b541f	0.00022442684
87	0xb8cd6317	-9.793619e-05
88	0x3ac67809	0.0015141974
89	0xb97bfaf2	-0.0002403071
90	0x3c416f11	0.011806265
91	0x3c367cd7	0.011138163
92	0xb9adebad	-0.00033172723
93	0x3ad25e28	0.0016049789
94	0xb94542b7	-0.00018812237
95	0xb93b470b	-0.00017860175
96	0x37acdf86	2.0608084e-05
97	0x3b0be43b	0.0021345753
98	0x3beea6f1	0.0072830846
99	0x389ff433	7.6271965e-05
100	0x397d5e90	0.00024163187
101	0x3bad4768	0.0052880533
102	0xb9828a88	-0.00024898746
103	0xb9bad934	-0.00035638514
104	0x3c1de854	0.009637911
105	0x3c5d3aa3	0.01350275
106	0x3ca53e11	0.020171197
107	0x3c5788c4	0.013155166
108	0x3c250de7	0.010074115
109	0xb8f20f14	-0.00011542268
110	0x3c0474fe	0.008084534
111	0x3c180914	0.009279508
112	0xb987c5d1	-0.0002589659
113	0xb9c6cd2f	-0.00037918377
114	0x3c65a83a	0.014017159
115	0x37aeb420	2.0826294e-05
116	0x3c08aa07	0.008341319
117	0x3c841e79	0.016127812
118	0x3c2b80f9	0.010467761
119	0xb94ae3b7	-0.00019349052
120	0xb961bed1	-0.00021528757
121	0x38fd3ad0	0.00012074935
122	0x3c25df89	0.010124096
123	0x3c75a5da	0.014993155
124	0x3bdb4ac2	0.0066922614
125	0xb9c83845	-0.00038188897
126	0x3938d819	0.0001762811
127	0xb94f17de	-0.0001974995
128	0xb98470e8	-0.00025261124
129	0xb9405d5f	-0.0001834533
130	0x380f50b2	3.416901e-05
131	0x37f35ded	2.9011595e-05
132	0x3978b3aa	0.00023718053
133	0x397d4132	0.00024152247
134	0x38005c49	3.0603525e-05
135	0x390c33d1	0.00013370744
136	0xb9633465	-0.00021667925
137	0xb75e93c2	-1.3266634e-05
138	0x397f8667	0.00024368764
139	0x38f6943e	0.00011757806
140	0x3796ccf7	1.7976838e-05
141	0x39675d1c	0.00022064563
142	0x3965ee18	0.00021927839
143	0xb93a4a0c	-0.00017765927
144	0xb9880b28	-0.00025948253
145	0xb944a2a6	-0.00018752608
146	0x37ac20d4	2.0519285e-05
147	0xb8b1d68f	-8.479982e-05
148	0xb8fe10df	-0.00012114806
149	0x38eb5e71	0.00011223264
150	0xb94775a9	-0.0001902195
151	0x38b51b15	8.635797e-05
152	0x395704e9	0.00020505827
153	0xb807ca4b	-3.237491e-05
154	0x387e70ce	6.0663377e-05
155	0x38f4e479	0.00011677383
156	0x3975ad9f	0.000234297
157	0xb724542a	-9.794758e-06
158	0xb921be6a	-0.00015425091
159	0xb83b5f96	-4.4673296e-05
160	0x3807b774	3.2357362e-05
161	0xb96fca1c	-0.00022868108
162	0x391f8c8d	0.00015215781
163	0x38cce27f	9.769666e-05
164	0xb797a70d	-1.8078392e-05
165	0x384e2fdb	4.9158796e-05
166	0xb97a9c4b	-0.00023900082
167	0x3892bc9e	6.996955e-05
168	0xb8fdd460	-0.00012103538
169	0x38529717	5.0208615e-05
170	0xb922b951	-0.0001551856
171	0xb9515f23	-0.00019967234
172	0x38af697b	8.3642975e-05
173	0xb78f442a	-1.707867e-05
174	0x38f7a346	0.0001180829
175	0xb8efd057	-0.000114352144
176	0xb9802403	-0.00024440893
177	0x38a8c9ba	8.048439e-05
178	0xb9346b36	-0.00017206077
179	0xb5dc47e4	-1.64122e-06
180	0x38b2ab45	8.519603e-05
181	0xb91a32ae	-0.00014705464
182	0x38f36af8	0.000116070674
183	0xb8db9573	-0.00010470571
184	0xb896bf56	-7.1881965e-05
185	0x370c53e1	8.36418e-06
186	0x39704466	0.00022913664
187	0xb99dca36	-0.00030096032
188	0xb94ba939	-0.00019422629
189	0xb9027df0	-0.00012444681
190	0xb95a92f3	-0.00020844843
191	0x396c5af0	0.0002254059
192	0xb924baf2	-0.00015709901
193	0xb9216b84	-0.00015394209
194	0xb8c4f6b7	-9.3919625e-05
195	0xb883a8c6	-6.278003e-05
196	0x3908bf13	0.00013041151
197	0xb9034974	-0.00012520497
198	0xb70f3e53	-8.537975e-06
199	0xb97d4f59	-0.0002415752
200	0x38a1dfdf	7.7187775e-05
201	0xb985e878	-0.0002554094
202	0xb949b035	-0.00019234496
203	0x396b108f	0.00022417515
204	0x3851b073	4.9993814e-05
205	0x393161fb	0.00016916536
206	0x3983ac7b	0.00025114775
207	0xb8ac0d98	-8.204131e-05
208	0xb8b4e40a	-8.6255444e-05
209	0xb896e88e	-7.195874e-05
210	0xb969f95a	-0.00022313502
211	0x397924f4	0.00023760257
212	0xb91eef91	-0.000151573
213	0xb90bf6a8	-0.0001334796
214	0xb96a92c9	-0.00022370661
215	0x3911a402	0.00013889375
216	0xb85a69c8	-5.2073767e-05
217	0xb9392e14	-0.0001766014
218	0xb85c95ae	-5.2591487e-05
219	0x37e9bd58	2.7863935e-05
220	0x39501372	0.0001984367
221	0x396f33a1	0.0002281205
222	0xb80aa970	-3.3059565e-05
223	0x3984b1a2	0.0002530935
224	0xb8ed55f5	-0.000113170514
225	0xb961ccae	-0.00021533921
226	0xb8cc4c61	-9.741705e-05
227	0xb8faa9c7	-0.000119525524
228	0xb919bfab	-0.00014662619
229	0x397ba923	0.00024000234
230	0xb7d4323f	-2.5295767e-05
231	0x396be9a6	0.00022498387
232	0x3958c99e	0.00020674473
233	0xb88c9600	-6.70366e-05
234	0xb85a5f5d	-5.2064064e-05
235	0xb94baaf6	-0.00019423277
236	0xb9845ace	-0.00025244657
237	0x392e3d0e	0.00016616678
238	0x38d08dad	9.944602e-05
239	0x395556cb	0.00020345596
240	0x365d26d9	3.2954179e-06
241	0xb946ca7e	-0.00018958186
242	0x364ca6ac	3.0495385e-06
243	0x374d51ac	1.2237968e-05
244	0xb971eb5b	-0.00023071228
245	0xb90094d0	-0.00012262468
246	0xb931bb03	-0.00016949703
247	0xb98748e9	-0.0002580353
248	0xb8b6a22b	-8.7086424e-05
249	0x38a2f885	7.771052e-05
250	0xb9319bfd	-0.00016938146
251	0xb906626a	-0.00012815898
252	0x37edbe32	2.8341168e-05
253	0x389d8f1f	7.513002e-05
254	0x390cee5b	0.00013440235
255	0xb8a8a02e	-8.0407e-05
