trained_models/model_2021-11-29_10-02-01.pt (torch, 75905 bytes, 11 tensors)

gat_layer1.linear_l.weight f4 [64, 8]
00000000: 7615 24b6 f420 a637 f792 87b7 c81b 60b7
00000010: 2155 2d37 30a6 b4b6 0181 beb7 a008 cfb7
00000020: 725a b3b7 cfe0 81b7 e979 0935 fa89 5ab7
00000030: 88b6 1637 e381 f3b7 2e2e d7b7 0182 9337
00000040: a580 f0b7 4bb6 a4b7 afe3 9436 1e50 2836
00000050: 6d39 6f37 289d 68b7 6900 98b6 8d4e 3f35
00000060: e617 1336 13f8 36b6 954d d6b7 0109 86b7
00000070: f291 75b7 3b5b 9eb7 f11d cc37 2ed2 ed37
00000080: b747 8937 84bb 67b6 63a6 d4b7 2d73 2a37
00000090: 1dde 43b7 8974 dd37 897b 7d37 a258 82b5
000000a0: 7fe3 be37 c44c 7537 6d6f 46b7 b568 aa37
000000b0: cd35 6236 19cd 78b6 0406 8237 106b c837
000000c0: e5c7 f9b7 3d45 2037 7529 9237 6b4c e1b7
000000d0: 0ce6 98b7 d76f 3937 09fa 88b7 72b0 edb7
000000e0: 99d7 9937 c603 15b7 b5db ff36 7fe3 5ab7
000000f0: 8dee f4b7 1eb7 fe37 c6d3 3c37 5fa0 7637
00000100: 20f8 b5b7 55fb e9b4 0945 8437 dd40 0a37
00000110: 8484 47b6 ac43 acb5 62b1 44b7 465e b6b7
00000120: e3e9 f4b6 28a5 c9b7 e7a8 f137 701f 56b7
00000130: c55d fd37 5604 9fb7 d755 d637 6a98 c837
00000140: 79e4 fe37 b390 9cb7 e566 02b8 d796 21b7
00000150: d0aa e137 d0a3 8cb5 babc 9ab7 1afd 3137
00000160: 1a35 bf37 3c51 50b7 65d5 3936 5d73 6ab7
00000170: 2fb0 44b6 f5ea 1736 1df2 e737 3300 1537
00000180: 0f2a 44b6 3906 a1b7 bdb3 46b7 1b82 0035
00000190: e07c 7f35 1190 3237 32ed 09b6 995e a9b7
000001a0: 6a7f dd37 b041 0c34 9ab7 6a36 42bd 45b7
000001b0: c14b be36 19e2 5037 7247 d137 0760 d3b7
000001c0: 5f31 01b8 0775 d437 4272 47b5 04ac f735
000001d0: 6821 a2b7 9c52 0538 061c dfb7 a9ae 30b5
000001e0: 911a 2e37 70ab 00b8 4eb6 d8b7 2e2e 5fb7
000001f0: aad4 0338 ec9c 9337 b019 5636 779e c537
00000200: 48c2 6437 16f1 6937 fa16 36b7 8638 5db6
00000210: 68d2 eeb7 4191 04b8 35e0 81b6 28f6 e3b6
00000220: 9ca0 bfb7 d22b 4cb7 abe7 3d37 597a 3d37
00000230: 6cba d136 a5db 8437 f119 3437 66c8 ef37
00000240: bfb7 7a37 42d2 f336 6016 da36 a2ba 3b37
00000250: 31f4 47b7 8725 c837 d202 c0b6 d61e 01b8
00000260: 27a4 d537 f5df 8a36 cbb4 01b8 03e6 ec37
00000270: 0e0e 7e37 41e2 a937 5091 15b7 ae48 d336
00000280: f417 17b7 b10d af37 d5c7 3a36 2995 eeb7
00000290: 67d4 f837 9dbb 7f37 9db8 ff37 e4ee 0538
000002a0: b609 d036 41a0 f1b7 c60a e735 7b26 8eb7
000002b0: 5f57 e7b7 1f0f a337 4b96 5e37 3c08 8035
000002c0: 3fea a8b7 87fc 7737 5ac4 c937 5e88 b3b7
000002d0: c4fe deb7 e394 bbb7 78f6 1536 b974 35b7
000002e0: 06fe 45b7 4b61 a336 e54f 15b6 a89c 3f37
000002f0: 831d aa37 c33b a537 d0b1 8fb7 eeea 1237
00000300: 2fc7 83b2 66cd e536 f01c e537 cc26 f2b5
00000310: 1115 f8b7 7594 9ab7 7d28 4437 1e53 8eb7
00000320: d5f7 40b7 73cb 7537 f491 90b7 ab88 fdb7
00000330: b7ab 2237 1aec 09b7 9ea5 9836 e812 f437
00000340: efa6 f3b7 1621 da36 6622 0bb7 209b 80b7
00000350: 2492 3536 dd9f fc37 78fc 47b5 69a2 f6b7
00000360: a132 acb7 a137 7ab7 1398 a7b7 ecfb 8ab7
00000370: 725c 93b7 43a2 c337 69d0 c137 087b 49b7
00000380: a0c5 b1b4 0426 c637 4c73 af37 010b cbb6
00000390: ca27 6d37 88e1 5f37 bd83 fb37 e7f1 22b7
000003a0: 4790 1eb7 a06e 7e37 a9be 1437 85ce aab6
000003b0: 44a5 e1b7 93ff 9837 a560 24b7 f7b5 da37
000003c0: d681 17b6 1e85 7236 2eca b735 25b3 e637
000003d0: 8c04 37b7 28b6 a0b7 3e71 2fb7 b3fe 06b8
000003e0: ab06 8ab4 63c2 8637 0fd0 1cb7 0d0c b3b5
000003f0: 54a8 92b6 b195 f9b7 cf6d b9b7 33d3 beb7
-2.4450396e-06 1.9804087e-05 -1.616169e-05 -1.3357909e-05 1.0331424e-05 -5.383765e-06 -2.2709837e-05 -2.468034e-05
-2.138058e-05 -1.5482683e-05 5.121388e-07 -1.3025938e-05 8.983196e-06 -2.902834e-05 -2.5651501e-05 1.7584303e-05
-2.8670134e-05 -1.963521e-05 4.4372496e-06 2.5080585e-06 1.4258881e-05 -1.3864868e-05 -4.5300008e-06 7.126735e-07
2.1918618e-06 -2.7264512e-06 -2.5546915e-05 -1.5978238e-05 -1.46371185e-05 -1.887755e-05 2.4332638e-05 2.8350474e-05
1.6365067e-05 -3.453083e-06 -2.534985e-05 1.0159606e-05 -1.16746205e-05 2.6399519e-05 1.5108738e-05 -9.71155e-07
2.2755701e-05 1.4621011e-05 -1.1827663e-05 2.0314337e-05 3.370794e-06 -3.7074262e-06 1.5500009e-05 2.3891713e-05
-2.9776196e-05 9.552864e-06 1.7423861e-05 -2.6857675e-05 -1.8226936e-05 1.1052899e-05 -1.6328895e-05 -2.8334765e-05
1.8339417e-05 -8.881971e-06 7.6251695e-06 -1.3046781e-05 -2.919815e-05 3.036443e-05 1.1254981e-05 1.4700082e-05
-2.1692424e-05 -4.35825e-07 1.5767773e-05 8.240543e-06 -2.9730445e-06 -1.2834694e-06 -1.17238105e-05 -2.173999e-05
-7.2989947e-06 -2.4037974e-05 2.880809e-05 -1.2762714e-05 3.0203615e-05 -1.8956296e-05 2.555076e-05 2.3912831e-05
3.038555e-05 -1.866403e-05 -3.1090243e-05 -9.631468e-06 2.6901631e-05 -1.0478489e-06 -1.8446113e-05 1.0608952e-05
2.2793702e-05 -1.241668e-05 2.769136e-06 -1.3974347e-05 -2.9308828e-06 2.2637516e-06 2.7650089e-05 8.8811385e-06
-2.9230757e-06 -1.9195593e-05 -1.1843568e-05 4.7873044e-07 9.517662e-07 1.064317e-05 -2.0552657e-06 -2.019042e-05
2.6404585e-05 1.3062413e-07 3.4975587e-06 -1.178618e-05 5.67126e-06 1.2450409e-05 2.494801e-05 -2.5197876e-05
-3.0801977e-05 2.5326864e-05 -7.4299544e-07 1.8452997e-06 -1.932746e-05 3.1786607e-05 -2.6596721e-05 -6.5819273e-07
1.0377394e-05 -3.067724e-05 -2.5834099e-05 -1.3302588e-05 3.1430893e-05 1.7596838e-05 3.1903437e-06 2.3558021e-05
1.3635094e-05 1.3944014e-05 -1.0853395e-05 -3.2964467e-06 -2.8469789e-05 -3.160653e-05 -3.8706007e-06 -6.7937835e-06
-2.2843764e-05 -1.216955e-05 1.1319217e-05 1.1293764e-05 6.2503877e-06 1.5837906e-05 1.0734876e-05 2.8584338e-05
1.4943943e-05 7.2664416e-06 6.499511e-06 1.1189522e-05 -1.191818e-05 2.3859333e-05 -5.722374e-06 -3.0784715e-05
2.5468018e-05 4.1387925e-06 -3.0924373e-05 2.82405e-05 1.5142852e-05 2.0251728e-05 -8.914925e-06 6.296751e-06
-9.005878e-06 2.0868001e-05 2.7832477e-06 -2.8441269e-05 2.9662811e-05 1.52428665e-05 3.0484336e-05 3.1932155e-05
6.2000136e-06 -2.8804063e-05 1.7213977e-06 -1.6945638e-05 -2.7578031e-05 1.9438156e-05 1.3267224e-05 9.53914e-07
-2.013624e-05 1.4781143e-05 2.40525e-05 -2.1401964e-05 -2.6583097e-05 -2.2361468e-05 2.2346194e-06 -1.0815617e-05
-1.18012595e-05 4.869105e-06 -2.2249235e-06 1.14209615e-05 2.0279322e-05 1.9697361e-05 -1.7129729e-05 8.756977e-06
-1.5340985e-08 6.8486434e-06 2.7312402e-05 -1.8041696e-06 -2.9573714e-05 -1.8427361e-05 1.1691937e-05 -1.6966424e-05
-1.1501795e-05 1.4650507e-05 -1.7234102e-05 -3.0223591e-05 9.695933e-06 -8.220808e-06 4.5492334e-06 2.909587e-05
-2.9045592e-05 6.500758e-06 -8.293055e-06 -1.5331025e-05 2.7056167e-06 3.0115183e-05 -7.450067e-07 -2.9401113e-05
-2.0527574e-05 -1.4914113e-05 -1.9978766e-05 -1.6568192e-05 -1.7566814e-05 2.332137e-05 2.3104441e-05 -1.2009179e-05
-3.311261e-07 2.3621142e-05 2.0915315e-05 -6.0511525e-06 1.4135565e-05 1.3344346e-05 2.9982877e-05 -9.712275e-06
-9.451126e-06 1.5165337e-05 8.865879e-06 -5.090437e-06 -2.6899048e-05 1.8238823e-05 -9.797664e-06 2.607236e-05
-2.2576328e-06 3.6138294e-06 1.3693405e-06 2.7501557e-05 -1.0908709e-05 -1.915831e-05 -1.0457179e-05 -3.2185297e-05
-2.5709355e-07 1.6064563e-05 -9.346767e-06 -1.3340047e-06 -4.370735e-06 -2.9752819e-05 -2.2104852e-05 -2.2748112e-05

gat_layer1.linear_r.weight f4 [64, 8]
00000000: 7d61 6037 34e0 a336 fa9f e237 bb4e ee37
00000010: bb0b ce37 6653 0438 2c84 9e37 ac98 9935
00000020: 8da5 acb7 91e5 38b7 eb6b f0b7 40d2 8b37
00000030: 30f3 c7b7 c4bd fbb7 c12c 47b7 352c 88b7
00000040: c792 e337 74ee ae37 9e7e 9fb7 a3f9 7e37
00000050: 35c6 c137 3fb2 0138 980c 4537 dbc3 0737
00000060: a258 f037 98f3 28b7 633d 32b7 3f0f efb7
00000070: 0ce9 5837 757e 6436 77bc 6d36 c43b 7535
00000080: 890c 03b7 bf2a 3fb5 5d82 38b7 c551 e836
00000090: ee40 adb7 11ef 90b6 cbc4 9b37 8a9a 53b7
000000a0: 59f7 7534 a83b 1637 32d2 bd37 c6fd de37
000000b0: 6cd3 a337 7653 0c38 8a36 2337 6fd5 10b7
000000c0: 86a0 55b6 b519 5037 0ba1 1db7 1f30 1c35
000000d0: 9219 7137 b97c 04b8 8f26 9bb7 60c6 efb7
000000e0: 4f6f 3f37 e278 7937 c02c 5b36 0998 d0b7
000000f0: 1006 3db7 1c0a 5eb7 d658 07b8 c3cf 0138
00000100: f39a 5ab7 bedb 0b37 58ee f437 da30 c637
00000110: 0fa6 ab37 8c11 6db7 0637 a8b6 c143 aab7
00000120: e7f7 cab7 0b27 3537 e938 ab37 2f28 bcb7
00000130: 4b36 52b6 4204 3c37 98fb ca37 d6ad 2a37
00000140: c60a 85b4 1d10 a0b7 a0b8 3934 e862 a2b6
00000150: 5c82 b9b7 dac5 9a35 a636 06b8 996d 7cb7
00000160: ffd8 47b7 acd2 7eb7 0731 8337 b3b0 5bb7
00000170: 625b 72b6 21e6 8ab7 21a7 59b5 69dd 70b6
00000180: 6a1a 00b8 0b96 d737 a243 b1b7 46b9 adb7
00000190: 9c5c ad37 a62a 0638 a889 cdb7 5b28 e0b6
000001a0: 5e53 a4b6 4093 ae37 7231 c537 7091 2036
000001b0: 630e ee37 14d0 6637 9895 b0b7 983a d035
000001c0: e843 21b7 0565 f737 e04b dbb7 2224 8d37
000001d0: 25f3 03b8 0b3a d7b7 ff41 a3b7 a363 d3b7
000001e0: d5b5 2fb6 c58f 4bb7 efbb 1737 cbdd 7637
000001f0: a6d6 d8b7 240e 99b7 33eb d7b7 168b e4b7
00000200: 11a1 d037 771e c5b7 1299 8cb6 05b5 d837
00000210: 8799 00b8 37e7 92b6 964a 9bb7 ed3e 06b8
00000220: 8cf7 c4b7 715d fe37 f3f9 f737 2b9c bb35
00000230: 5346 ea37 ec08 fbb7 6439 da36 6d2c f8b7
00000240: 5d26 56b7 640a 8ab7 95c0 fa37 c942 a035
00000250: 6956 9fb6 9c6c d237 1fcf b8b6 ecd1 1136
00000260: fae4 1537 eb7f c537 6c99 e634 acbe c137
00000270: 3bfb adb6 7647 b737 9184 4037 755d 9cb7
00000280: 08e2 c4b7 13f2 6b37 11e7 d237 9003 00b7
00000290: 9634 b037 af88 6e37 99aa bcb7 6ecf c737
000002a0: 9cc4 feb6 0f64 e937 12aa 9eb6 3a7d 1437
000002b0: 1a00 89b7 467d 9e37 730f 9fb7 2bcd d937
000002c0: 2ac5 98b2 98bd e5b7 345c b5b7 2092 8d37
000002d0: 6d31 3d37 6995 6237 a3e8 f3b7 e7fd 8bb7
000002e0: db4d c5b6 ff1f dd37 06a0 7937 e077 7ab6
000002f0: 3698 c6b6 75e0 5336 dd4e e9b7 6f1a 3a37
00000300: 6133 1b37 2e58 b7b7 a74b fd33 7244 dd37
00000310: 3f75 eb37 cb4c a037 9966 0638 64d2 9836
00000320: 61fd ff35 cc02 d7b6 7604 e637 de89 ec37
00000330: 9b7a 8537 82f7 0438 ca01 0838 1d85 6337
00000340: 1766 2ab6 0887 92b7 03a6 a737 8e4f dc37
00000350: cf7e f536 365c 0038 6c0a 95b6 9d3f 06b6
00000360: f2f4 fc37 670a a3b7 d1de 96b6 fd76 b437
00000370: f128 be37 67b5 f537 f37b 6fb7 4152 47b7
00000380: 2642 62b6 f84e 2fb7 52e0 4db7 8441 c137
00000390: ccf0 f4b7 9500 a237 9e0e 9d36 52d7 b237
000003a0: 1158 6636 fe10 61b7 b1f1 0bb6 a263 ea37
000003b0: de2f e136 fe40 c337 d1d0 9b37 0137 bd36
000003c0: 92f1 0137 fc95 f437 2ff7 d837 f0ee 8d37
000003d0: 3346 8137 f17f 9bb6 97b7 d8b7 adaf 5e35
000003e0: eb94 32b7 250d 03b8 0041 b737 2383 9cb7
000003f0: beef 9fb6 efda 1ab6 04fa 9f37 47b0 6cb7
1.3374139e-05 4.8838792e-06 2.7015794e-05 2.8408473e-05 2.4562576e-05 3.1548923e-05 1.8896615e-05 1.1443822e-06
-2.0581088e-05 -1.1020705e-05 -2.8660483e-05 1.6667997e-05 -2.3835892e-05 -3.0009898e-05 -1.1871744e-05 -1.6233049e-05
2.7128857e-05 2.0853455e-05 -1.9013238e-05 1.5197703e-05 2.309969e-05 3.0922e-05 1.1745047e-05 8.092228e-06
2.8651502e-05 -1.0070296e-05 -1.06239195e-05 -2.849812e-05 1.2928864e-05 3.4048255e-06 3.5425453e-06 9.135658e-07
-7.811127e-06 -7.121525e-07 -1.0997607e-05 6.923658e-06 -2.0653442e-05 -4.3193654e-06 1.8569079e-05 -1.26125615e-05
2.2907388e-07 8.9545865e-06 2.2628436e-05 2.6582635e-05 1.9529565e-05 3.345633e-05 9.7282555e-06 -8.632763e-06
-3.183291e-06 1.24037515e-05 -9.395425e-06 5.8184554e-07 1.4370673e-05 -3.158741e-05 -1.8495395e-05 -2.8583396e-05
1.1410403e-05 1.4869702e-05 3.265959e-06 -2.486633e-05 -1.1266689e-05 -1.3234585e-05 -3.2269243e-05 3.094949e-05
-1.30298895e-05 8.336208e-06 2.9198054e-05 2.3626188e-05 2.0462116e-05 -1.4130386e-05 -5.0131957e-06 -2.029713e-05
-2.4195715e-05 1.0797531e-05 2.041129e-05 -2.2430058e-05 -3.1324041e-06 1.1206665e-05 2.4197434e-05 1.0173264e-05
-2.478102e-07 -1.908099e-05 1.7296634e-07 -4.8394904e-06 -2.2114422e-05 1.1531477e-06 -3.1998985e-05 -1.5045888e-05
-1.1911848e-05 -1.5188631e-05 1.5639247e-05 -1.3094558e-05 -3.6114002e-06 -1.6558044e-05 -8.1082004e-07 -3.5891665e-06
-3.0542178e-05 2.5699866e-05 -2.1131538e-05 -2.0709482e-05 2.0666332e-05 3.198781e-05 -2.4502006e-05 -6.680418e-06
-4.897286e-06 2.0810985e-05 2.3507255e-05 2.3926514e-06 2.837851e-05 1.3757515e-05 -2.1050495e-05 1.5514261e-06
-9.6121585e-06 2.9491735e-05 -2.6142166e-05 1.6825335e-05 -3.145928e-05 -2.5657026e-05 -1.9461846e-05 -2.5199557e-05
-2.6182872e-06 -1.2133217e-05 9.044058e-06 1.4714383e-05 -2.584916e-05 -1.8245606e-05 -2.573952e-05 -2.7244485e-05
2.4870535e-05 -2.3498416e-05 -4.190145e-06 2.58335e-05 -3.066056e-05 -4.378056e-06 -1.8512172e-05 -3.2006694e-05
-2.3480294e-05 3.0322672e-05 2.9561086e-05 1.3978037e-06 2.7927721e-05 -2.9925686e-05 6.5035874e-06 -2.9584591e-05
-1.2764326e-05 -1.645572e-05 2.9892e-05 1.1940366e-06 -4.7486287e-06 2.5084526e-05 -5.5077394e-06 2.1728874e-06
8.934405e-06 2.3543796e-05 4.2952468e-07 2.3096181e-05 -5.185049e-06 2.1848577e-05 1.1474957e-05 -1.8640168e-05
-2.3470275e-05 1.4063454e-05 2.514155e-05 -7.630224e-06 2.1005322e-05 1.421773e-05 -2.2490787e-05 2.381924e-05
-7.5926782e-06 2.7822358e-05 -4.7285657e-06 8.850644e-06 -1.633172e-05 1.8893403e-05 -1.8961471e-05 2.5963955e-05
-1.7784789e-08 -2.7387214e-05 -2.1619817e-05 1.6876555e-05 1.1276786e-05 1.3505437e-05 -2.9076187e-05 -1.6688324e-05
-5.880121e-06 2.6360152e-05 1.4878815e-05 -3.732268e-06 -5.9185795e-06 3.1572101e-06 -2.7812488e-05 1.10926185e-05
9.2506825e-06 -2.1856362e-05 1.1794992e-07 2.6377125e-05 2.806878e-05 1.9109246e-05 3.204364e-05 4.5544457e-06
1.9072723e-06 -6.407825e-06 2.7420214e-05 2.8197592e-05 1.5911928e-05 3.1701762e-05 3.2426593e-05 1.3561247e-05
-2.5391398e-06 -1.7467435e-05 1.9985257e-05 2.626309e-05 7.3163314e-06 3.0603456e-05 -4.4417593e-06 -2.0004584e-06
3.0154803e-05 -1.9435958e-05 -4.4962876e-06 2.151308e-05 2.266883e-05 2.9290748e-05 -1.4274369e-05 -1.18804755e-05
-3.3715128e-06 -1.0449199e-05 -1.2271181e-05 2.3037901e-05 -2.9199196e-05 1.9312176e-05 4.6806663e-06 2.131952e-05
3.4323932e-06 -1.3415001e-05 -2.0853297e-06 2.7941369e-05 6.711095e-06 2.3276076e-05 1.8574678e-05 5.6390422e-06
7.745244e-06 2.9156909e-05 2.586431e-05 1.6919774e-05 1.5410687e-05 -4.6342543e-06 -2.5834697e-05 8.2957087e-07
-1.0644299e-05 -3.1245076e-05 2.1845568e-05 -1.8657714e-05 -4.766479e-06 -2.3075224e-06 1.90707e-05 -1.4107739e-05

gat_layer1.attn.weight f4 [1, 64]
00000000: 860d c0b4 8791 27b7 7bc6 0ab7 194a 9fb6
00000010: ff2f 1e35 d60f b436 c5e3 3fb5 2297 0236
00000020: 3ad9 bcb6 75d9 17b7 4f8c 1fb7 320a c936
00000030: e1e1 3a37 498c 1537 c204 15b7 b392 3f37
00000040: f581 2cb5 9ad7 d036 0963 1537 251c 6fb6
00000050: d06c f5b5 228a 1d37 ad4b 18b7 ea39 9335
00000060: ae5d 1a36 6cd8 1a37 884e 4f37 e872 2137
00000070: 4fb0 5d37 9cee 1eb7 b06b 97b6 96c7 3437
00000080: 132c f6b6 50a9 1a37 469c 6ab3 aa31 0d37
00000090: 6173 eeb6 706e 0ab7 062d 69b6 ca99 2537
000000a0: 6080 5f36 1ab7 f135 b2af 84b5 3d1b 5337
000000b0: e548 0936 04de 14b6 3926 b0b4 6079 0f36
000000c0: ec49 26b7 9b27 2137 0286 03b7 8827 a435
000000d0: f521 f736 1cba d235 9a61 0736 ac00 66b6
000000e0: 4770 46b6 b2f6 2e36 1572 3db7 41f8 03b7
000000f0: 4f6b 28b6 dd48 e636 766a 3ab7 0254 25b6
-3.5772626e-07 -9.987859e-06 -8.271653e-06 -4.7471954e-06 5.892943e-07 5.3662616e-06 -7.1484493e-07 1.945948e-06
-5.628125e-06 -9.050932e-06 -9.509807e-06 5.9914537e-06 1.11390555e-05 8.913755e-06 -8.8822e-06 1.1418643e-05
-6.4264106e-07 6.2239824e-06 8.9041505e-06 -3.5630158e-06 -1.8285591e-06 9.390091e-06 -9.077526e-06 1.0969209e-06
2.3002317e-06 9.229505e-06 1.2356446e-05 9.6231015e-06 1.32136765e-05 -9.473089e-06 -4.512687e-06 1.0775306e-05
-7.336502e-06 9.218536e-06 -5.46245e-08 8.415818e-06 -7.1063846e-06 -8.251154e-06 -3.4745913e-06 9.870573e-06
3.3304314e-06 1.8009189e-06 -9.8859e-07 1.2582922e-05 2.045702e-06 -2.2182949e-06 -3.2810365e-07 2.137931e-06
-9.911582e-06 9.605569e-06 -7.83941e-06 1.2230457e-06 7.3651267e-06 1.5700384e-06 2.017338e-06 -3.4273062e-06
-2.9569653e-06 2.6071616e-06 -1.129184e-05 -7.86601e-06 -2.5096413e-06 6.8630166e-06 -1.1111251e-05 -2.4635815e-06

gat_layer.linear_l.weight f4 [64, 64]
00000000: 36c8 2cb7 0d40 0b37 286b e4b6 78cf fdb6
00000010: 4695 14b7 34df 1bb7 49f4 0eb5 4b2a 9a36
00000020: b121 1d37 3032 94b6 7c8a bdb5 5494 24b7
00000030: 7092 2137 9d0f 3f37 a089 9036 1806 1137
00000040: 17cc 3eb7 4388 5d36 4c7c 0b36 1c71 8e36
00000050: 0632 1337 2b98 c3b6 9a68 05b7 adb2 2e36
00000060: ee2c 9f36 65e4 31b7 f3d9 0537 6471 4037
00000070: 14bf 22b7 779c 1eb7 9e1c 8036 528b 26b7
00000080: 0ea1 3e36 9ddf 0336 7cb0 2637 c7eb c1b6
00000090: 387a 44b6 187a 1436 54c5 0337 ec18 f0b6
000000a0: 4228 c436 f707 2a37 b680 d6b6 9b1c 0737
000000b0: 9b72 07b7 ff05 dbb6 4bcb 3537 5d63 c536
000000c0: ef78 acb5 9e01 22b5 dbdf 88b6 cbaf 4bb6
000000d0: c221 2d37 075a 5136 dffd b936 4247 0437
000000e0: 1feb 0d35 ecc8 17b6 b12d 49b6 1d85 4234
000000f0: 3f80 aeb6 3bdf de36 7d3d 1b36 e400 bdb6
00000100: 919f 1fb7 4881 98b6 406b 0637 ffae ddb6
00000110: 2249 06b7 7217 3cb7 8fe3 9336 7f74 2f37
00000120: c689 7f35 48c4 0eb7 5f07 1e37 bc2e 34b4
00000130: 6dd1 d836 3119 1c37 7d5d d6b6 9ab6 9fb6
00000140: 2179 5036 b1e4 8fb5 715a 79b6 43a6 cb36
00000150: 074d 2936 f186 2c36 8fd9 0137 de14 0136
00000160: 7f72 1237 c232 76b6 e1c5 0337 a026 40b7
00000170: e747 0337 48db 41b6 288c 0fb7 f0fd a2b6
00000180: 80ad 9335 dc6f b6b5 4e25 04b7 b341 a536
00000190: 42c5 a835 9bb8 d8b5 090a 3a37 3bd6 f436
000001a0: 16ac 1537 e4f9 16b7 5de6 bf34 87e2 31b6
000001b0: ebba eb35 6cf2 9236 647e 2f37 dd64 e036
000001c0: adc2 b8b6 5db9 ff36 b5a6 89b4 f81f afb6
000001d0: 6ce8 df35 01bb 84b5 a55d ff36 80f5 1eb7
000001e0: 2b9e 94b6 413f c036 c258 87b6 19a1 bf36
000001f0: 2bb5 e5b6 a13a f236 55c1 abb6 0f31 f234
00000200: 4d6b 38b7 985a 4336 0f2c 9434 62f8 5eb4
00000210: 4fe6 1cb7 d740 0637 9b36 f8b5 12aa 9ab6
00000220: bcc3 4c36 0210 f436 aa68 0737 ac67 a636
00000230: d188 94b4 22ac 36b7 abd7 2237 29a4 2437
00000240: 9a87 f136 ecd6 59b6 b2d6 cfb6 6239 89b6
00000250: f2dc 0a37 ba3d c335 abd5 0037 cd30 0cb7
00000260: 4e94 1ab7 a0ef dab6 8ef1 b636 0e80 b0b4
00000270: 1e71 e534 9e9c 69b5 c756 3b37 36a0 24b7
00000280: 8918 1e37 de7e 1337 d50b dc36 366c 10b7
00000290: ab53 8336 b7f1 e736 82d3 dab6 4687 4736
000002a0: e9f9 e336 780d 9536 c465 0c37 dd4d 8b36
000002b0: a254 0b36 1fd5 8936 1785 fe36 0deb b5b6
000002c0: 2b3d 32b7 fc8b 2a37 1b7f 2e36 72a2 fb36
000002d0: c8f8 80b6 ac7d 63b6 b3b4 79b5 52b5 dc35
000002e0: 3e59 a536 e628 8136 0d36 1f37 3b93 18b4
000002f0: f230 2633 1430 5c34 fc70 2cb6 dd76 1cb7
00000300: 0184 57b6 e197 7b36 a973 43b7 e1dd d536
00000310: bdb3 bf36 9613 09b7 d8f3 12b7 1795 6036
00000320: bc36 80b6 8291 6a36 fb2a 3fb6 6357 6035
00000330: a087 6bb5 7e40 1ab5 c1c0 1737 6c1c 52b5
00000340: 1083 3e36 6e56 feb5 9a57 2d35 70f4 ab36
00000350: 483d 90b6 969c c5b5 7123 1c36 6ae6 fb36
00000360: 0b74 b4b5 1557 0b37 8866 70b6 21ab 9435
00000370: 8209 6f36 eaf3 dc36 3618 0537 f6eb 95b6
00000380: b557 2737 65ca b035 b31b fdb6 1bdb 44b6
00000390: 1bf1 6db6 9525 1e35 993f 1b36 0478 8bb4
000003a0: dabc 9bb6 01a3 c936 94c6 1437 2c3a 0837
000003b0: 855c f336 5e63 0437 0361 47b6 2809 f5b5
000003c0: 5f5e 2db7 7af5 2f36 316e d236 ed7f 9636
000003d0: bdc6 a7b4 43ab ccb6 8285 20b6 0125 2936
000003e0: 3aaf 2337 618e e7b6 3e51 b435 7591 1537
000003f0: ddfc efb4 baad 8936 7a3d d7b5 108f 7db6
-1.0298614e-05 8.299959e-06 -6.807404e-06 -7.56414e-06 -8.856243e-06 -9.2906885e-06 -5.3254604e-07 4.594481e-06
9.365774e-06 -4.4165863e-06 -1.4121902e-06 -9.809697e-06 9.630443e-06 1.1388122e-05 4.307556e-06 8.644092e-06
-1.1372401e-05 3.301088e-06 2.0784964e-06 4.2450974e-06 8.77353e-06 -5.8291675e-06 -7.951772e-06 2.6032023e-06
4.7437998e-06 -1.0603199e-05 7.978163e-06 1.1470493e-05 -9.700441e-06 -9.453964e-06 3.8180287e-06 -9.926809e-06
2.8405952e-06 1.9650681e-06 9.935462e-06 -5.7792963e-06 -2.9277417e-06 2.2124786e-06 7.8541525e-06 -7.1554587e-06
5.845942e-06 1.0134644e-05 -6.392681e-06 8.053287e-06 -8.073311e-06 -6.5274066e-06 1.08357735e-05 5.882625e-06
-1.2850195e-06 -6.0352056e-07 -4.079176e-06 -3.0351682e-06 1.0319463e-05 3.119583e-06 5.542984e-06 7.884404e-06
5.286874e-07 -2.2617705e-06 -2.997793e-06 1.8116084e-07 -5.200534e-06 6.642103e-06 2.313259e-06 -5.6327426e-06
-9.5142905e-06 -4.5450033e-06 8.0119935e-06 -6.6066855e-06 -8.00405e-06 -1.1211132e-05 4.4074327e-06 1.0457937e-05
9.519539e-07 -8.50956e-06 9.41925e-06 -1.6780808e-07 6.461682e-06 9.30419e-06 -6.3885805e-06 -4.759827e-06
3.1064922e-06 -1.0720888e-06 -3.7156535e-06 6.069227e-06 2.5227798e-06 2.5708543e-06 7.7396535e-06 1.9234644e-06
8.728936e-06 -3.6686401e-06 7.854281e-06 -1.1453085e-05 7.8249495e-06 -2.888688e-06 -8.556097e-06 -4.8575384e-06
1.1002849e-06 -1.3592612e-06 -7.876499e-06 4.9250316e-06 1.2574385e-06 -1.6146981e-06 1.10888e-05 7.2967064e-06
8.921159e-06 -8.998879e-06 3.5744134e-07 -2.6506912e-06 1.7563265e-06 4.3793607e-06 1.046024e-05 6.6874622e-06
-5.5062906e-06 7.6211713e-06 -2.5639534e-07 -5.219128e-06 1.6682438e-06 -9.889192e-07 7.610494e-06 -9.474694e-06
-4.429157e-06 5.7294096e-06 -4.0336463e-06 5.710998e-06 -6.8458226e-06 7.2189873e-06 -5.118704e-06 4.5111707e-07
-1.0992238e-05 2.9109997e-06 2.7599205e-07 -2.0765722e-07 -9.3519475e-06 8.002119e-06 -1.8493332e-06 -4.6093564e-06
3.0512301e-06 7.27363e-06 8.070996e-06 4.9592545e-06 -2.7666695e-07 -1.0888123e-05 9.706167e-06 9.813383e-06
7.198146e-06 -3.246062e-06 -6.1940746e-06 -4.0895984e-06 8.276884e-06 1.4546597e-06 7.679143e-06 -8.356013e-06
-9.213645e-06 -6.5248023e-06 5.4521433e-06 -3.2875727e-07 4.2736878e-07 -8.702717e-07 1.1166273e-05 -9.812464e-06
9.423246e-06 8.791421e-06 6.5578884e-06 -8.608264e-06 3.9138445e-06 6.912476e-06 -6.521529e-06 2.973205e-06
6.7942206e-06 4.442114e-06 8.368344e-06 4.1515873e-06 2.0761877e-06 4.1077287e-06 7.5852836e-06 -5.421584e-06
-1.0623869e-05 1.0165382e-05 2.6002006e-06 7.499294e-06 -3.843659e-06 -3.3898787e-06 -9.302268e-07 1.6444048e-06
4.9277724e-06 3.849261e-06 9.489723e-06 -1.4209665e-07 3.8694402e-08 2.0506587e-07 -2.5695763e-06 -9.326e-06
-3.2114333e-06 3.749032e-06 -1.1649835e-05 6.373725e-06 5.713168e-06 -8.1703965e-06 -8.759052e-06 3.3465383e-06
-3.821069e-06 3.4953414e-06 -2.8486236e-06 8.3573667e-07 -8.774168e-07 -5.746332e-07 9.04518e-06 -7.8272456e-07
2.8388495e-06 -1.8949629e-06 6.4575e-07 5.1246534e-06 -4.2986685e-06 -1.4723216e-06 2.326644e-06 7.5072066e-06
-1.3444818e-06 8.305321e-06 -3.5822468e-06 1.1076664e-06 3.561931e-06 6.5849063e-06 7.933055e-06 -4.4680155e-06
9.974397e-06 1.3171926e-06 -7.543212e-06 -2.9333812e-06 -3.5456094e-06 5.8914276e-07 2.3133819e-06 -2.597809e-07
-4.641345e-06 6.009243e-06 8.8677225e-06 8.119776e-06 7.252735e-06 7.890949e-06 -2.970978e-06 -1.8256587e-06
-1.0333576e-05 2.6219918e-06 6.2713157e-06 4.485241e-06 -3.1250775e-07 -6.0996113e-06 -2.391957e-06 2.5204502e-06
9.756355e-06 -6.9009116e-06 1.343469e-06 8.914959e-06 -4.47012e-07 4.1031426e-06 -1.603664e-06 -3.7783211e-06

gat_layer.linear_r.weight f4 [64, 64]
00000000: 9098 b136 a520 fcb6 80de efb6 873a e736
00000010: 1ee8 0cb7 d2c7 3237 8ef2 2035 69f0 7636
00000020: c624 5ab6 a5a4 f6b5 0b02 7236 29a2 0d37
00000030: 3ef2 bc35 36d3 22b7 fb13 16b7 8cd5 3b37
00000040: 41cf 4bb6 7437 0ab7 0ed2 5735 39b4 a2b6
00000050: ad7b ea36 0442 d8b6 7ad7 21b6 bf29 aab6
00000060: 4902 5c36 c801 3137 8ca5 fbb6 738f d3b5
00000070: 34a1 4db6 ff9c fa36 212f 8e36 2b69 a336
00000080: 61f1 dc36 ceba e236 0706 7335 7a57 16b7
00000090: 7295 c1b6 814c 23b6 35eb 65b6 448e 0ab6
000000a0: 17da fbb6 ae18 b6b6 0577 2ab7 379f 8fb6
000000b0: 72a3 ab36 227a 96b6 4378 9a36 b23d 3436
000000c0: d5df ccb5 7430 3bb7 1441 aab6 b7bb 3037
000000d0: 0386 c5b5 eb0a 2537 ef3b 3bb5 7f95 2936
000000e0: 1c42 30b7 b765 54b4 7b1a 37b7 5c59 fcb5
000000f0: e5f8 82b5 28ea f236 11f4 2fb7 f953 e6b6
00000100: 21ef f0b6 bfef cab6 86e0 8b36 1afb efb6
00000110: 7f25 1bb6 ece9 2c37 e714 3f37 bb36 c436
00000120: 1c5b f135 c5f0 3937 d835 1b37 5232 b4b6
00000130: 46dc 96b6 f91c 2c37 697b 0bb7 9f60 30b7
00000140: a7f8 6036 88a2 e1b6 1b84 f5b5 39ca c836
00000150: f1f1 3935 a7c8 70b6 f52f c3b4 f3ec 2b37
00000160: 18f2 b036 0d79 d6b6 a9c1 2a37 1cde 70b6
00000170: 3ce1 1eb7 fd92 0537 a98a 98b6 f72d 1f37
00000180: 61b2 e0b5 4ccd 0eb6 2e37 2735 676f 2db7
00000190: 1bb7 bab6 da62 2d37 48e7 25b7 f3d1 b036
000001a0: e035 f036 5ecb 9734 460b 7336 2ec9 0537
000001b0: b56c 2334 ff6c 3037 c13a a436 7e08 3fb6
000001c0: 88a5 20b3 7c9d e436 0808 1f37 c64a 21b7
000001d0: 87db 1437 2e17 c0b6 ae4e 6936 f81a 06b7
000001e0: a571 7f36 dc17 bd36 be38 3ab7 d249 7c33
000001f0: 8b54 1b36 2984 0737 4f9c 24b7 3070 07b7
00000200: 477f 0fb6 0119 2537 ff93 1236 a8c2 a4b6
00000210: 5691 c5b6 81c1 4235 dc06 8236 efe9 c436
00000220: abf1 9b35 f1f5 1d37 2d82 c536 800a 23b7
00000230: 4e08 c7b6 eca6 ce36 e494 f6b5 fba5 7eb6
00000240: b765 9e35 1878 fab6 e407 93b5 308f 49b5
00000250: e698 2137 9c76 adb6 c207 b336 f3a3 a036
00000260: d862 4e36 2450 e6b6 4511 e2b5 2306 14b6
00000270: 4e5f b436 b9fe 7d35 c23e 29b7 4dca 29b6
00000280: f2e8 1f37 49f9 db36 5bda cc36 4937 00b7
00000290: eace 9eb6 a714 5b35 7c0e 0db6 2927 c636
000002a0: 89cd 1437 d8a3 28b7 2947 dc36 d1c3 bd36
000002b0: 2ae0 76b6 190f 1bb7 89ef b0b6 9051 3136
000002c0: 0527 80b5 c4fc 2db7 8c4d 1e37 3b29 4f37
000002d0: cf4a 3bb7 3e37 11b7 0141 49b6 d36b 2337
000002e0: 7d96 6f36 f4f3 10b6 a95e b336 ea37 b635
000002f0: 01bf b536 a478 6cb3 6edb 1237 43e8 ce36
00000300: 3c74 8c36 8bde f135 375c 9236 67ba dab6
00000310: be52 aa36 0eb0 edb6 229a bc36 5089 6a36
00000320: e312 f236 0868 1037 d10f 3cb7 3304 8336
00000330: 15a5 3a37 f4cb ee36 e8cc d036 4bab fd33
00000340: 505b 01b7 6fba 2cb7 c304 1ab7 254d 4cb6
00000350: 0df8 12b7 ced4 e4b6 e65e a1b6 8ac0 d436
00000360: 8df2 8836 8e32 16b6 41c8 d836 764d f5b6
00000370: d4d2 deb6 72ff 3937 287c fe34 ebfa 87b6
00000380: d4bf 2fb7 7063 1eb7 4074 cb36 f5ca f0b5
00000390: 5324 c9b6 f7b8 13b5 f323 00b7 b656 94b6
000003a0: d78c ef36 e15d 4037 19e2 fa36 c7ee 3337
000003b0: d955 0fb7 2be6 d2b6 2d07 49b6 1408 0137
000003c0: a7ae 0237 dabf ceb5 3d12 41b6 5836 deb6
000003d0: 5ea9 61b6 28a5 0f36 046a 1837 099e 11b4
000003e0: 9aae 9436 4e3d d636 b205 3a37 79a2 1e36
000003f0: 79f2 e3b6 b1e5 60b6 7631 0337 a989 9ab6
5.2927717e-06 -7.5139856e-06 -7.1486575e-06 6.89115e-06 -8.398694e-06 1.0656151e-05 5.995761e-07 3.6796794e-06
-3.2505936e-06 -1.8376346e-06 3.6062e-06 8.442011e-06 1.4077593e-06 -9.705129e-06 -8.945349e-06 1.1195789e-05
-3.0369995e-06 -8.238352e-06 8.039941e-07 -4.848957e-06 6.988141e-06 -6.444987e-06 -2.4116293e-06 -5.0712547e-06
3.2783885e-06 1.0550437e-05 -7.499655e-06 -1.5762474e-06 -3.0641213e-06 7.4688573e-06 4.2374163e-06 4.8700217e-06
6.584611e-06 6.757072e-06 9.0533325e-07 -8.961064e-06 -5.769246e-06 -2.4333424e-06 -3.4260568e-06 -2.0646412e-06
-7.505772e-06 -5.4268958e-06 -1.0160501e-05 -4.280267e-06 5.1152247e-06 -4.4845665e-06 4.603558e-06 2.6858002e-06
-1.5264328e-06 -1.115735e-05 -5.073971e-06 1.0534123e-05 -1.4716646e-06 9.837308e-06 -6.9750143e-07 2.526998e-06
-1.050581e-05 -1.9781042e-07 -1.09138155e-05 -1.880147e-06 -9.758193e-07 7.2394214e-06 -1.0487639e-05 -6.86431e-06
-7.1803956e-06 -6.0479792e-06 4.168661e-06 -7.151987e-06 -2.3118625e-06 1.0306463e-05 1.1389354e-05 5.8476267e-06
1.7982416e-06 1.1082918e-05 9.251256e-06 -5.370276e-06 -4.4959916e-06 1.0258745e-05 -8.313779e-06 -1.0512914e-05
3.3523336e-06 -6.7244437e-06 -1.829237e-06 5.9840063e-06 6.926994e-07 -3.5879582e-06 -3.6356474e-07 1.0247563e-05
5.273392e-06 -6.391789e-06 1.017788e-05 -3.5892072e-06 -9.469975e-06 7.961641e-06 -4.546095e-06 9.4878405e-06
-1.6741216e-06 -2.1279147e-06 6.2292645e-07 -1.0337541e-05 -5.5645482e-06 1.0334619e-05 -9.888616e-06 5.26965e-06
7.1588292e-06 2.827391e-07 3.6216384e-06 7.974259e-06 1.5220105e-07 1.0515795e-05 4.8944207e-06 -2.846616e-06
-3.7403453e-08 6.813263e-06 9.479008e-06 -9.613757e-06 8.8726e-06 -5.7247444e-06 3.4765503e-06 -7.993302e-06
3.806411e-06 5.6354165e-06 -1.1099675e-05 5.874046e-08 2.314601e-06 8.077398e-06 -9.811555e-06 -8.072748e-06
-2.1382746e-06 9.840588e-06 2.184184e-06 -4.910242e-06 -5.887977e-06 7.2552217e-07 3.8751004e-06 5.8684886e-06
1.1618735e-06 9.415192e-06 5.886212e-06 -9.718002e-06 -5.931629e-06 6.1587107e-06 -1.8371761e-06 -3.7945563e-06
1.180152e-06 -7.4645613e-06 -1.095465e-06 -7.50867e-07 9.631947e-06 -5.1696097e-06 5.335519e-06 4.787458e-06
3.0753927e-06 -6.8638637e-06 -1.6843338e-06 -2.205729e-06 5.375513e-06 9.4620515e-07 -1.0087797e-05 -2.5300717e-06
9.531375e-06 6.555729e-06 6.1050937e-06 -7.642267e-06 -4.732855e-06 8.161391e-07 -2.1019068e-06 5.9054187e-06
8.869342e-06 -1.0051728e-05 6.564795e-06 5.655435e-06 -3.6787337e-06 -9.242235e-06 -5.2730943e-06 2.642253e-06
-9.548099e-07 -1.0370455e-05 9.435589e-06 1.2347761e-05 -1.1163486e-05 -8.655536e-06 -2.9989171e-06 9.740662e-06
3.570137e-06 -2.1599672e-06 5.3456356e-06 1.357633e-06 5.416456e-06 -5.5057754e-08 8.753368e-06 6.1663172e-06
4.1858566e-06 1.8020668e-06 4.3618743e-06 -6.5186064e-06 5.0760273e-06 -7.083646e-06 5.62078e-06 3.4948644e-06
7.2143607e-06 8.6072905e-06 -1.1209356e-05 3.904593e-06 1.11249e-05 7.116696e-06 6.2227373e-06 1.18123886e-07
-7.7102595e-06 -1.0295406e-05 -9.180224e-06 -3.0443273e-06 -8.760032e-06 -6.8197032e-06 -4.8092215e-06 6.340507e-06
4.0813525e-06 -2.2381168e-06 6.4606143e-06 -7.3105866e-06 -6.640659e-06 1.1086335e-05 4.7401522e-07 -4.052524e-06
-1.0475476e-05 -9.440686e-06 6.0634047e-06 -1.7940462e-06 -5.9944955e-06 -5.5030927e-07 -7.637765e-06 -4.420838e-06
7.139151e-06 1.146595e-05 7.476902e-06 1.0724826e-05 -8.543452e-06 -6.285283e-06 -2.995551e-06 7.69088e-06
7.789268e-06 -1.5404032e-06 -2.8769857e-06 -6.622442e-06 -3.3626197e-06 2.1404794e-06 9.08459e-06 -1.356167e-07
4.43107e-06 6.384834e-06 1.108779e-05 2.3638406e-06 -6.7933547e-06 -3.35123e-06 7.8197245e-06 -4.6055834e-06

gat_layer.attn.weight f4 [1, 64]
00000000: 2c58 1837 4d38 42b6 f6c4 f8b5 0ed4 bab6
00000010: 0727 f336 37f8 20b3 5f3f d7b5 392a 9d35
00000020: e339 5db5 aae0 9035 e8bf afb6 8a37 83b6
00000030: d234 fdb6 5463 27b7 43a6 dc36 abc6 22b6
00000040: 29a2 c6b5 7313 2e36 3ba1 c636 48b5 3037
00000050: d656 0cb6 ff2a 3d37 5ebb 29b7 0dea 20b7
00000060: b85e c1b4 7153 0837 7b43 f036 f4d8 66b5
00000070: d567 c8b6 f277 33b7 11f5 95b6 ba80 3eb6
00000080: 63bc 1eb7 7258 ca36 b26d c135 7ef2 8c36
00000090: 15fd 30b4 d80f 2737 a250 0236 7161 bab6
000000a0: 2752 d3b6 568b 26b7 54d5 ed35 4388 d9b5
000000b0: a164 dab5 3d26 c935 9c79 a0b5 666b fbb6
000000c0: 22af 8e36 6314 62b6 7fde 19b6 b3d5 18b7
000000d0: 64d4 13b7 f456 a7b6 9ed8 05b5 bc60 adb6
000000e0: b1c1 f2b6 aed5 1237 63c4 0936 bcf5 f5b4
000000f0: 21d5 a3b5 6718 fe36 a204 0ab7 e48e 62b7
9.080435e-06 -2.8941024e-06 -1.8534763e-06 -5.5679184e-06 7.2465077e-06 -3.7478653e-08 -1.6037192e-06 1.17097e-06
-8.241315e-07 1.0794222e-06 -5.2377472e-06 -3.91057e-06 -7.5461367e-06 -9.977102e-06 6.5758663e-06 -2.425552e-06
-1.4799344e-06 2.5939341e-06 5.9196295e-06 1.0532625e-05 -2.091217e-06 1.1275289e-05 -1.011681e-05 -9.591237e-06
-3.6017968e-07 8.125659e-06 7.160413e-06 -8.5997385e-07 -5.972552e-06 -1.0697158e-05 -4.4690755e-06 -2.8387135e-06
-9.461396e-06 6.0303655e-06 1.4411546e-06 4.200555e-06 -1.6483348e-07 9.957665e-06 1.9418444e-06 -5.5545756e-06
-6.297854e-06 -9.926813e-06 1.7719963e-06 -1.6207417e-06 -1.6271553e-06 1.4986796e-06 -1.1956322e-06 -7.4928857e-06
4.252318e-06 -3.368849e-06 -2.2928286e-06 -9.109662e-06 -8.811334e-06 -4.9871105e-06 -4.986158e-07 -5.167063e-06
-7.2347107e-06 8.752029e-06 2.0528903e-06 -4.5813601e-07 -1.2206475e-06 7.5726307e-06 -8.22652e-06 -1.3503919e-05

linear_layers.0.weight f4 [64, 68]
00000000: 501a ccb6 7eba 45b6 9959 08b6 08b8 82b6
00000010: 5bc6 ab36 5bab d736 b69a abb6 09c3 b236
00000020: 7dce 15b5 fda1 4a36 1369 0ab7 949d 37b7
00000030: 54bf 14b7 dd3d 0837 10c1 1d37 fc26 a236
00000040: 1acd 0c37 d62d e136 6cbc 95b5 df29 b4b6
00000050: d9e4 9ab6 f6fb 3136 5b4f 4536 90ac 1937
00000060: beb9 bf36 7765 0a35 258e 73b6 6bea 7bb5
00000070: 6820 ccb6 897c cab6 c07b eb36 0bf5 0b37
00000080: a3ed 5bb6 c49e e636 790e b9b6 9360 fa36
00000090: f867 4f35 50cf a4b6 7c03 1737 c0b3 bdb6
000000a0: 0ff0 cc36 6a9c f536 bb89 47b6 8032 2eb7
000000b0: d304 adb6 8747 76b6 64cc 1d37 61ec 19b7
000000c0: 4807 7f36 5dae 8936 fb84 2737 598f 9a35
000000d0: ce6a fa36 b523 a3b6 8e4b 0237 82a5 3337
000000e0: 3cef 1e37 7fc5 0bb7 dc88 c3b6 1948 9b36
000000f0: 9464 0eb6 4141 a536 6a09 3d36 0932 ab35
00000100: 8074 09b6 022f d2b6 9857 e435 4098 4cb7
00000110: e719 2437 d4a7 9036 738c 6636 2938 08b7
00000120: 0519 2137 8955 b536 6cd5 a1b6 f3c1 2cb7
00000130: 0e73 1536 b163 1e36 f9ba acb5 c676 0ab6
00000140: 92d6 ecb6 32dc 45b6 40dc 8735 0d76 5fb6
00000150: 030c c136 3f69 05b7 150d 0bb7 d563 01b7
00000160: 01ac 19b6 e488 f735 05f6 ab36 c0d4 21b7
00000170: 69e7 9cb6 68d9 8736 a0bc 2ab7 35bd 6935
00000180: de6b a736 46bb 5b36 1066 30b6 4be0 60b6
00000190: f7a2 c3b6 4825 8636 e3c4 0237 1f62 4e35
000001a0: c970 b534 fb23 b0b4 4e33 23b7 3f63 9336
000001b0: 0b6e 3935 94c3 9836 4ac3 6936 73bc 0ab6
000001c0: 1b16 a035 936d 15b7 2e48 8e36 ed44 d335
000001d0: 2573 12b7 ea6c 07b7 84f5 3e34 5232 2e37
000001e0: 2b5a b6b6 b087 2136 1c68 1db7 baef da34
000001f0: 7124 2bb6 e5f7 1d37 6748 2537 1d91 b5b6
00000200: 288e 11b7 6ebc bbb5 b02b c036 f025 0637
00000210: a04a ebb4 e626 c8bb 27cf 2435 bf0f 643c
00000220: 92a7 e0b6 8b74 fa34 ba71 27b7 c1cd 32b7
00000230: 4daa 1e37 3d23 7c36 a4fd d5b6 a723 85b6
00000240: 515c a9b6 6027 8236 5429 a536 045e 2c37
00000250: 060a ac36 7aa5 d1b5 349c ba36 1fa9 da36
00000260: 90ff 10b7 c1da 05b7 39fe ba36 5b49 1c37
00000270: bd0b 04b7 cace 9d35 9491 3536 c2e2 12b7
00000280: d3d4 32b7 9b2e 1f36 f681 c636 6133 3735
00000290: fcb7 efb6 14d1 30b7 b862 1237 3614 9b36
000002a0: 952c dfb6 9453 2137 0252 4535 0d1e 0c37
000002b0: 52db 6db6 eb00 56b6 90bd b836 a059 9136
000002c0: a03c 35b6 371e 7db6 751e 3e36 7e38 e4b6
000002d0: 2a9f 1cb7 e737 abb6 c2a2 9936 63d1 ab35
000002e0: 9f4d 4db6 951c 69b6 1a83 cb36 5fc2 38b7
000002f0: 00b7 1d37 0cd3 0136 0a50 aa36 3b18 9c35
00000300: 43d6 8a36 2291 1136 138a a435 c1e9 2737
00000310: cc8b 03b7 28fe 3337 f763 14b6 471f 1e37
00000320: 0464 a636 e11d 4f35 4faa 4f35 c7e3 02b7
00000330: 10b8 bfb6 a514 8036 2940 d6b6 a12f 6336
00000340: 967c 7fb5 9cf4 d736 6492 2f37 420e e3b6
00000350: 2a38 8136 d80b 2bb5 3733 1b36 502a 6036
00000360: 1029 7db6 8054 1337 35a0 b336 4835 d636
00000370: bfc8 1c37 abd5 8036 9003 12b6 0573 de36
00000380: 4b28 a235 b8a1 dcb6 5f1b c936 6a2f 9db6
00000390: 2ae5 1437 6723 2835 5c37 2637 dd43 08b7
000003a0: 4532 22b4 82a5 2537 88c4 bd36 589b 8d36
000003b0: c3f5 7db6 ddeb d736 6e3b d736 e1ba d1b6
000003c0: 8de0 acb6 346b dbb6 8d61 cc36 5021 ddb6
000003d0: 4c87 d336 1090 0cb7 93a4 65b6 7b9d 8eb6
000003e0: e7ef fd36 8d04 0b35 98f9 89b5 2dc1 a8b6
000003f0: 5af2 91b5 90d0 26b6 8abe c935 1b10 f3b6
-6.082737e-06 -2.946384e-06 -2.0317732e-06 -3.895726e-06 5.1192887e-06 6.4274477e-06 -5.114208e-06 5.3275185e-06
-5.5807305e-07 3.0194635e-06 -8.2499055e-06 -1.0944339e-05 -8.8660345e-06 8.120635e-06 9.40288e-06 4.8325146e-06
8.392404e-06 6.7108585e-06 -1.1156203e-06 -5.3692925e-06 -4.616199e-06 2.6521716e-06 2.9401479e-06 9.1596885e-06
5.713867e-06 5.1556657e-07 -3.629256e-06 -9.384591e-07 -6.0834464e-06 -6.034567e-06 7.017952e-06 8.342099e-06
-3.2771866e-06 6.873017e-06 -5.5151145e-06 7.4618233e-06 7.7264804e-07 -4.911715e-06 9.001113e-06 -5.6535646e-06
6.1076203e-06 7.319778e-06 -2.973348e-06 -1.0382966e-05 -5.1563634e-06 -3.669849e-06 9.405518e-06 -9.174547e-06
3.80022e-06 4.1032167e-06 9.984938e-06 1.1515614e-06 7.4630143e-06 -4.8619354e-06 7.766195e-06 1.0707767e-05
9.473235e-06 -8.331029e-06 -5.8273854e-06 4.6277532e-06 -2.1218193e-06 4.9249797e-06 2.8168674e-06 1.2755055e-06
-2.0482403e-06 -6.26396e-06 1.7012817e-06 -1.2194796e-05 9.781193e-06 4.311072e-06 3.4354423e-06 -8.1193075e-06
9.602173e-06 5.404178e-06 -4.8230195e-06 -1.0297156e-05 2.22697e-06 2.3601863e-06 -1.2869415e-06 -2.0632738e-06
-7.0583274e-06 -2.9483458e-06 1.0122385e-06 -3.3298304e-06 5.7532466e-06 -7.951922e-06 -8.2880915e-06 -7.712243e-06
-2.2898896e-06 1.8442774e-06 5.1248376e-06 -9.6458825e-06 -4.676102e-06 4.048623e-06 -1.0176707e-05 8.7074596e-07
4.9895452e-06 3.274255e-06 -2.6285452e-06 -3.3509157e-06 -5.8304245e-06 3.9978513e-06 7.794445e-06 7.6883765e-07
3.379594e-07 -3.2808734e-07 -9.727502e-06 4.392495e-06 6.9078004e-07 4.5527213e-06 3.4833379e-06 -2.0673294e-06
1.1927362e-06 -8.906604e-06 4.2403326e-06 1.5740785e-06 -8.729087e-06 -8.071986e-06 1.7784447e-07 1.0382924e-05
-5.4345196e-06 2.406985e-06 -9.382169e-06 4.0780088e-07 -2.5502197e-06 9.415647e-06 9.851624e-06 -5.4111138e-06
-8.675772e-06 -1.3987426e-06 5.727132e-06 7.995855e-06 -4.3826458e-07 -0.0061081527 6.139621e-07 0.01391977
-6.695228e-06 4.6650925e-07 -9.980455e-06 -1.0657533e-05 9.457185e-06 3.7571438e-06 -6.3774223e-06 -3.9678594e-06
-5.0473395e-06 3.8788858e-06 4.9221944e-06 1.0273889e-05 5.1271663e-06 -1.5619873e-06 5.5614164e-06 6.5165946e-06
-8.642572e-06 -7.97835e-06 5.5728274e-06 9.315404e-06 -7.870546e-06 1.1757595e-06 2.705584e-06 -8.755074e-06
-1.0659179e-05 2.3719974e-06 5.9159893e-06 6.824758e-07 -7.1441737e-06 -1.0539097e-05 8.725263e-06 4.621713e-06
-6.651108e-06 9.615807e-06 7.3507556e-07 8.351647e-06 -3.5443413e-06 -3.188902e-06 5.5056953e-06 4.3317705e-06
-2.700639e-06 -3.7717525e-06 2.8329935e-06 -6.801506e-06 -9.335383e-06 -5.102705e-06 4.578703e-06 1.2801432e-06
-3.0592562e-06 -3.4736343e-06 6.0651337e-06 -1.101251e-05 9.400537e-06 1.9345343e-06 5.0757126e-06 1.1629958e-06
4.137664e-06 2.1691162e-06 1.2259137e-06 1.0008401e-05 -7.8407575e-06 1.0728407e-05 -2.2111906e-06 9.424816e-06
4.958829e-06 7.715699e-07 7.736134e-07 -7.801637e-06 -5.7136713e-06 3.8171006e-06 -6.385166e-06 3.385336e-06
-9.51762e-07 6.4359756e-06 1.0464897e-05 -6.766787e-06 3.851038e-06 -6.37197e-07 2.312661e-06 3.340323e-06
-3.772384e-06 8.781557e-06 5.3532663e-06 6.3838997e-06 9.345064e-06 3.8395715e-06 -2.175777e-06 6.6295056e-06
1.2081667e-06 -6.5753375e-06 5.993453e-06 -4.6844843e-06 8.874844e-06 6.2636394e-07 9.90726e-06 -8.122032e-06
-1.5105714e-07 9.873302e-06 5.655518e-06 4.220212e-06 -3.784299e-06 6.4349574e-06 6.414418e-06 -6.250441e-06
-5.1521406e-06 -6.5391887e-06 6.09103e-06 -6.5901913e-06 6.3040407e-06 -8.378192e-06 -3.4219454e-06 -4.250263e-06
7.567916e-06 5.178816e-07 -1.0279937e-06 -5.029279e-06 -1.0873875e-06 -2.4857327e-06 1.5031121e-06 -7.2438393e-06

linear_layers.0.bias f4 [64]
00000000: b94c 1437 0f21 0fb9 596d b436 f464 9136
00000010: 92da 01b7 a09f 712e b7a7 363a c357 d4b9
00000020: d31e 04b9 50a0 a5b9 a6f7 3437 a0dd 2737
00000030: 2755 32b9 5798 ce3a c565 dd35 4ed0 1baf
00000040: d164 ec35 6118 e5b8 1063 dc38 75c2 1537
00000050: 4d59 c236 eef1 6537 4a50 fc39 607f ae38
00000060: 73aa 01b7 8fbf 5cb5 0085 d5b6 4aba 4a36
00000070: 3c03 14b7 3101 95b5 9ca5 24b9 ccab 293a
00000080: e28a 3f2e 8ec5 8136 df15 30b7 606c 0fb6
00000090: f25b 83b9 f19b af36 3c0b 76b6 3eb9 543a
000000a0: 6e64 7e39 9806 7b36 fae7 7b37 607d b0b5
000000b0: a9b0 3535 35f4 ec34 63b4 c23a 6ba9 1ab9
000000c0: 186f 0336 7edb 0237 737d d8b8 ba9f 70b9
000000d0: a9c2 4b37 d1f1 8eb8 4115 2f37 0f3a bb38
000000e0: 9d38 3b39 a38d 3c3a 862f 5339 ed5a 73b6
000000f0: cf5f db36 7f3f c3b7 2b9d e734 f848 d7b9
8.839351e-06 -0.00013649858 5.3771478e-06 4.3330892e-06 -7.739889e-06 5.493883e-11 0.00069677405 -0.0004050118
-0.00012599984 -0.00031590695 1.0786496e-05 1.0005577e-05 -0.00017007125 0.0015761954 1.6495402e-06 -1.4171173e-10
1.7612712e-06 -0.00010924112 0.00010508869 8.926368e-06 5.7920465e-06 1.3705792e-05 0.00048125006 8.320692e-05
-7.728685e-06 -8.223514e-07 -6.363378e-06 3.020878e-06 -8.8222405e-06 -1.1101712e-06 -0.00015701953 0.0006472438
4.3551725e-11 3.867498e-06 -1.049551e-05 -2.1371743e-06 -0.00025054772 5.2335604e-06 -3.6663396e-06 0.00081147614
0.0002426074 3.7405753e-06 1.5014777e-05 -1.3149511e-06 6.768483e-07 4.413611e-07 0.0014854785 -0.00014749698
1.9585186e-06 7.799708e-06 -0.00010323049 -0.00022947686 1.2145066e-05 -6.8161295e-05 1.0435761e-05 8.927669e-05
0.000178548 0.00071927364 0.00020140232 -3.6262747e-06 6.537862e-06 -2.327538e-05 4.3141458e-07 -0.00041062362

linear_layers.2.weight f4 [64, 64]
00000000: 6b99 1fb7 07d7 bfb5 887b 1d37 6a2c c6b6
00000010: f31b 8636 9efe a636 d941 dcb6 a689 66b7
00000020: 1234 0037 65da e6b5 7889 36b6 f963 8436
00000030: 6e40 a1b5 bddf ecb6 1e3a 82b6 8bbb 02b7
00000040: ef51 c4b6 daca b436 e7a6 26b6 e738 eab6
00000050: 07fc 22b7 0b4c 3037 72fc 95b6 aa69 e136
00000060: 29d4 06b7 075a 9034 20e5 ebb6 60ee 8336
00000070: 2ad1 1db7 eeb5 2137 25e9 f9b6 a3fb b736
00000080: 84ac 8936 7978 afb6 1a3d 4bb6 5ed3 0c37
00000090: 11dd d8b6 dc0e 6537 50e6 0c37 aa75 f1b6
000000a0: ac9f b1b6 1986 6236 358b 2cb7 d663 3436
000000b0: 5a07 3037 01ea 3e36 7327 6db7 9a52 92b2
000000c0: 4b56 3bb7 d6be a536 b2ce 8ab6 e3fe 61b6
000000d0: 85dd 2eb7 7943 f3b6 d191 2f37 2db6 0fb7
000000e0: ea6f 0937 c8f9 fab6 f9d1 1fb5 4465 1f37
000000f0: 6cb4 a1b6 833e 9434 c5cf 98b6 cf47 8236
00000100: 548e 11b6 42c6 a536 3822 5136 5748 3437
00000110: 1bd5 beb6 4855 f6b6 0a18 3eb7 dece 60b7
00000120: 66bb 2636 22bd 3ab6 02e5 30b7 c704 02b7
00000130: 4d6b 2337 f130 26b7 cfa2 27b7 9642 3535
00000140: 95e7 32b7 83cb 2ab7 756a 75b6 4fd6 3236
00000150: d8ce 12b7 8a2b 2237 a547 17b7 fdc2 35b6
00000160: b2a6 c836 3c1a d135 46db b636 ff76 de36
00000170: 9dbd db36 d2a3 4d36 150b 1937 30ce 49b7
00000180: c6ea a436 bbc5 ff36 e9a1 05b7 b15e a2b6
00000190: 8c8f 45b7 e938 edb6 3595 87b6 8510 fb35
000001a0: e8ab 73b5 643f 0b37 0e85 cd36 48b3 1637
000001b0: 21fa e6b6 c3f1 dd35 4618 b236 14b9 afb6
000001c0: da32 1db7 fe17 d3b5 fe4f 86b6 0164 33b6
000001d0: b6e2 2b36 fead bf36 a420 88b6 aea7 3bb6
000001e0: 5c8f f0b6 6424 dd35 eb7c 0637 8d1f 99b6
000001f0: 664d 6136 d234 0635 18b2 4936 4bab cf36
00000200: 5657 af35 afb7 863b 47d7 1437 bcfb 5f36
00000210: 04f4 e136 3e6b e8b5 f4ff bf3b 6530 4f3c
00000220: df94 703b 3fc8 1e3c be38 3db7 c62e 27b8
00000230: 2015 ad3b 817a 5b3c a0e4 85b6 25db e0b6
00000240: 3918 5db6 442b 4c3b 767d 5b3a 46c7 88b7
00000250: 5153 a2b6 aaa6 f0b6 3bb7 843b 5d22 383a
00000260: 48c3 0e37 d7fb 3836 bbe7 1236 870d 06b7
00000270: cc55 8036 577e fd36 a797 963b 762f b43b
00000280: 6dd4 2236 4673 c936 8ddd b836 a2a5 0ab7
00000290: 1c32 013c 931f 08b8 7016 0136 b01d e23b
000002a0: 1953 053b 296c 8536 7c67 f736 6ff1 fab6
000002b0: c3ed 20b8 36b3 96b7 7d64 4f3c 2bbe 8c3b
000002c0: 2751 3c35 ed52 c4b6 cd30 3f3b 07a2 ec3b
000002d0: 04e2 3a36 e21a fb3a d3e2 00b6 38d4 353a
000002e0: 19f7 c43a 43b1 c53b c863 db3a 5942 fab6
000002f0: 7bb3 e136 e7b1 353a 1ef1 e2b7 5141 523c
00000300: 60cc 57b6 ca45 2ab7 30fd 0db7 614d 35b7
00000310: 8c4f beb6 f4db 96b6 76a6 28b7 07b6 43b6
00000320: ef47 8db5 03ea 1fb6 4960 f636 50b4 ad36
00000330: 33f3 7236 a49f 2836 dcc3 8ab6 25fc 2eb7
00000340: cbcf bf36 a229 c836 0461 69b6 d019 beb6
00000350: 6286 3e37 c2fb 3cb7 f912 22b7 d545 0db6
00000360: 79a3 38b7 86d5 f2b6 5103 0eb5 721f 78b6
00000370: 3f26 1737 5c7e 6334 c1c8 ce35 acf9 2237
00000380: 1e50 efb6 0d7f fbb6 74f5 f436 42ea 29b6
00000390: 6a6b afb6 a0ab 9336 dba0 8d36 14e5 2837
000003a0: 281a abb6 30be 15b7 6b43 8a34 63d6 30b7
000003b0: 43b3 8f36 3fbf 0d36 4e3b 3337 f0f5 14b7
000003c0: 71a4 de36 0594 9b36 dcbf 63b6 b3e0 fc36
000003d0: cbfa 5c36 1579 73b6 6b2c 42b6 9af9 81b6
000003e0: 6200 30b7 bcbd ae36 facc 21b6 f2e5 33b7
000003f0: 3b9e e035 08f8 1037 a49a 2fb7 4b53 b4b6
-9.512859e-06 -1.429319e-06 9.386691e-06 -5.9060303e-06 3.996765e-06 4.976827e-06 -6.5641766e-06 -1.3741117e-05
7.641518e-06 -1.7199897e-06 -2.720013e-06 3.945545e-06 -1.2014186e-06 -7.0593946e-06 -3.8810676e-06 -7.79227e-06
-5.8507935e-06 5.388033e-06 -2.4833078e-06 -6.9803677e-06 -9.714632e-06 1.0508123e-05 -4.4699345e-06 6.7178235e-06
-8.03642e-06 2.6887594e-07 -7.0302194e-06 3.9318547e-06 -9.406629e-06 9.638707e-06 -7.44792e-06 5.4831194e-06
4.1030016e-06 -5.2294313e-06 -3.0284923e-06 8.393863e-06 -6.463037e-06 1.3652923e-05 8.398274e-06 -7.1960576e-06
-5.2935993e-06 3.375468e-06 -1.0284411e-05 2.6880202e-06 1.0492129e-05 2.8448414e-06 -1.4135486e-05 -1.70342e-08
-1.116616e-05 4.9395994e-06 -4.136783e-06 -3.3675976e-06 -1.0422785e-05 -7.249819e-06 1.0464763e-05 -8.56588e-06
8.191893e-06 -7.479659e-06 -5.9537666e-07 9.500716e-06 -4.819178e-06 2.7612631e-07 -4.5541406e-06 3.8826615e-06
-2.168953e-06 4.9404634e-06 3.1163345e-06 1.0745679e-05 -5.68725e-06 -7.3412994e-06 -1.13304795e-05 -1.3399605e-05
2.4845008e-06 -2.782625e-06 -1.05437375e-05 -7.749716e-06 9.74054e-06 -9.905766e-06 -9.9918825e-06 6.752465e-07
-1.0663546e-05 -1.0180173e-05 -3.656981e-06 2.664881e-06 -8.750438e-06 9.66609e-06 -9.016982e-06 -2.70846e-06
5.9798704e-06 1.5579349e-06 5.4495495e-06 6.6299685e-06 6.5487825e-06 3.0642736e-06 9.122091e-06 -1.202854e-05
4.914912e-06 7.622611e-06 -7.965115e-06 -4.8389998e-06 -1.1775537e-05 -7.0697756e-06 -4.0406835e-06 1.8705765e-06
-9.077471e-07 8.299805e-06 6.1249657e-06 8.982439e-06 -6.883653e-06 1.6536145e-06 5.307639e-06 -5.2369523e-06
-9.369769e-06 -1.5727708e-06 -4.0028235e-06 -2.6731288e-06 2.5612949e-06 5.712499e-06 -4.0569157e-06 -2.7962774e-06
-7.1692466e-06 1.6476374e-06 8.016107e-06 -4.5634283e-06 3.3572665e-06 4.9995754e-07 3.0054998e-06 6.189022e-06
1.3063934e-06 0.0041112523 8.871611e-06 3.3376118e-06 6.7339297e-06 -1.7316559e-06 0.0058593694 0.0126458155
0.0036709828 0.009691297 -1.1278489e-05 -3.9859464e-05 0.0052820593 0.013395906 -3.9903243e-06 -6.701232e-06
-3.2945666e-06 0.0031153718 0.0008372882 -1.6305257e-05 -4.8376755e-06 -7.1719596e-06 0.004050163 0.00070241635
8.509327e-06 2.7564727e-06 2.189058e-06 -7.990172e-06 3.8246853e-06 7.5546955e-06 0.004595715 0.005498822
2.426353e-06 6.0036864e-06 5.509419e-06 -8.264005e-06 0.007885482 -3.2454333e-05 1.9235558e-06 0.0069005117
0.002034372 3.9763004e-06 7.373221e-06 -7.478687e-06 -3.8368406e-05 -1.7964845e-05 0.012658236 0.0042951307
7.015355e-07 -5.850909e-06 0.0029173375 0.0072214636 2.7847718e-06 0.0019157792 -1.9205515e-06 0.0006936225
0.0015027254 0.006033094 0.0016738111 -7.4583045e-06 6.726417e-06 0.00069311116 -2.7053578e-05 0.012832955
-3.2156458e-06 -1.0149039e-05 -8.463205e-06 -1.0806457e-05 -5.6717017e-06 -4.4959543e-06 -1.00523375e-05 -2.9163218e-06
-1.0526254e-06 -2.382906e-06 7.3425804e-06 5.176793e-06 3.620237e-06 2.5126874e-06 -4.1355215e-06 -1.0429915e-05
5.716434e-06 5.965311e-06 -3.4776176e-06 -5.665446e-06 1.1356171e-05 -1.126429e-05 -9.66037e-06 -2.1051285e-06
-1.1005316e-05 -7.2370194e-06 -5.290395e-07 -3.6973183e-06 9.009206e-06 2.1186992e-07 1.5406623e-06 9.714084e-06
-7.132082e-06 -7.4951736e-06 7.300341e-06 -2.5319318e-06 -5.227911e-06 4.400921e-06 4.2208535e-06 1.0066917e-05
-5.099242e-06 -8.925374e-06 2.5753556e-07 -1.0540333e-05 4.282601e-06 2.1121957e-06 1.0683039e-05 -8.878749e-06
6.635259e-06 4.6365917e-06 -3.3937313e-06 7.5363437e-06 3.2928535e-06 -3.62803e-06 -2.8934107e-06 -3.873557e-06
-1.0490507e-05 5.207692e-06 -2.4110182e-06 -1.072277e-05 1.6735352e-06 8.640818e-06 -1.0466818e-05 -5.3741146e-06

linear_layers.2.bias f4 [64]
00000000: 1825 0038 ac8a 8636 c297 efba 8148 79b6
00000010: 396d 73b6 9b57 dc36 1403 8937 0d6c 6c3c
00000020: 6abf fbb5 5adb c637 6163 14b7 2dec 85b8
00000030: 07c7 4cba 1937 cd3a 8682 66b6 f641 32b7
00000040: e3dc 9aba ee42 eab4 fc2d 22b7 060a 8c37
00000050: 38e3 973b 8d27 483c 54ef 2bb7 b898 8237
00000060: 456f cab8 3554 1037 dde0 8037 f576 ca37
00000070: da4e 44b6 9cb5 f435 f875 1d37 b8b7 9536
00000080: 1587 6aba 65d3 d732 20bd fab9 e4f2 28b7
00000090: 784c 0a3c 1d9a 143a 5d05 e5b5 5599 783c
000000a0: 29be d8b6 be85 c639 080a 27b7 90fe 87b6
000000b0: 58b9 cd3b b771 223c 9d62 acba 3346 e537
000000c0: 0794 08bb 30cb 08b7 582f 0237 451c 2f3c
000000d0: 0332 1e3c a434 c7b6 cb55 4737 db65 6c37
000000e0: 697b 6437 84bb aab6 0adc f4b6 c1ef fa36
000000f0: 40bc 2bb7 f4fa bf3a eab0 a2b6 1921 c436
3.0552124e-05 4.0096547e-06 -0.001827948 -3.7146094e-06 -3.6273398e-06 6.5667095e-06 1.6333106e-05 0.014430058
-1.8756666e-06 2.3705583e-05 -8.844626e-06 -6.3859254e-05 -0.000781164 0.0015656679 -3.4348645e-06 -1.06249845e-05
-0.0011815097 -4.3634594e-07 -9.666659e-06 1.6693968e-05 0.004635241 0.012216461 -1.0248117e-05 1.5568323e-05
-9.652836e-05 8.602675e-06 1.53635e-05 2.413567e-05 -2.9252174e-06 1.8232272e-06 9.385396e-06 4.4619337e-06
-0.00089465204 2.5125425e-08 -0.00047824625 -1.0070133e-05 0.008441083 0.00056687166 -1.706339e-06 0.015173276
-6.459439e-06 0.0003786515 -9.956311e-06 -4.0529485e-06 0.006278198 0.009914807 -0.0013151948 2.7331616e-05
-0.0020840184 -8.15354e-06 7.759627e-06 0.010687892 0.009655478 -5.9367903e-06 1.18812995e-05 1.4090411e-05
1.3618593e-05 -5.0882245e-06 -7.2973826e-06 7.4784916e-06 -1.0236225e-05 0.0014646933 -4.8485717e-06 5.8451083e-06

linear_layers.4.weight f4 [1, 64]
00000000: 3ae1 2038 ae1d 7bb7 2638 0cbd edea 3c37
00000010: 8e38 c3b7 a357 3db7 ea57 9237 111d 4fbd
00000020: ecc6 0b35 0021 0038 9f8b 6ab5 4c50 9bba
00000030: 79a6 6fbc 49cc b3bb 6b46 7736 e426 fab6
00000040: 8143 b5bc 7322 f535 8881 27b7 c603 b937
00000050: 2c1c 85bc 724a 2fbd 1ccb 2b36 1aed af37
00000060: f891 ecba a114 b3b7 1a88 9437 ebf7 e737
00000070: ad98 23b7 aa7a 53b6 0cd0 d5b7 b1dd 33b7
00000080: de3e 89bc 0d13 9036 f5a0 12bc 005b b935
00000090: f61a f2bc f9cf ffba f900 6134 75e1 59bd
000000a0: dc75 cf36 ffe6 acba b7a6 a7b6 89b5 ec36
000000b0: 9314 b4bc f451 0ebd 62c5 c9bc bbb9 1238
000000c0: ccde 1fbd 25ff 3c37 5928 9437 3055 19bd
000000d0: 6da2 0abd bfac 2237 a703 6537 84d3 8a37
000000e0: ba86 8037 d28a fe36 54e3 01b7 743b b1b7
000000f0: 6d6a 14b7 5fb8 a7bb 13cc 9eb5 90a5 6fb7
3.835673e-05 -1.4967676e-05 -0.034233235 1.1260371e-05 -2.3272147e-05 -1.1285682e-05 1.7445494e-05 -0.05056483
5.2071005e-07 3.054831e-05 -8.737497e-07 -0.0011849492 -0.0146270925 -0.005486999 3.6846857e-06 -7.455108e-06
-0.022126915 1.8263949e-06 -9.9841345e-06 2.2055476e-05 -0.016248785 -0.042795606 2.559921e-06 2.0972035e-05
-0.0018048873 -2.1348069e-05 1.7706352e-05 2.7652792e-05 -9.751105e-06 -3.151285e-06 -2.5488458e-05 -1.0720848e-05
-0.01675361 4.293752e-06 -0.008949508 1.3810059e-06 -0.029553872 -0.0019516937 2.0955112e-07 -0.05319353
6.1828014e-06 -0.0013191401 -4.996396e-06 7.0544816e-06 -0.021982467 -0.034746125 -0.024630252 3.4982088e-05
-0.039030835 1.1265079e-05 1.7661763e-05 -0.037434757 -0.033846308 9.696173e-06 1.3650314e-05 1.6549377e-05
1.5321526e-05 7.5859507e-06 -7.741928e-06 -2.112773e-05 -8.846267e-06 -0.0051184143 -1.1831311e-06 -1.4284058e-05
