trained_models/model_2021-11-29_13-47-12.pt (torch, 75905 bytes, 11 tensors)

gat_layer1.linear_l.weight f4 [64, 8]
000000 9c c8 71 b7 37 7e 2b 37 90 37 e5 37 87 20 c8 37
       -1.4411427e-05 1.0221781e-05 2.73248e-05 2.3857005e-05
000010 a1 54 e6 37 43 88 82 b6 be f3 e1 b7 90 e4 c8 33
       2.7457545e-05 -3.890165e-06 -2.6935591e-05 9.354801e-08
000020 a9 00 f2 34 cc 64 e3 36 01 92 e8 b7 78 68 ad 36
       4.5076493e-07 6.7768615e-06 -2.7724544e-05 5.1679635e-06
000030 86 0f 81 37 9f 57 2c 36 6d bc 62 37 d0 0f af b7
       1.5385227e-05 2.5681e-06 1.3514521e-05 -2.0868989e-05
000040 df d4 6b 37 00 6e bb 37 8b 73 cf 37 28 22 14 35
       1.4056654e-05 2.234336e-05 2.4730127e-05 5.5184e-07
000050 59 eb be b6 92 65 e8 b7 05 d2 0d b7 68 44 64 b7
       -5.6898393e-06 -2.7703853e-05 -8.453154e-06 -1.3605786e-05
000060 e8 3d 9b b7 60 be ac b7 d5 d7 59 37 1a 68 dd 36
       -1.8506267e-05 -2.0592648e-05 1.298446e-05 6.5984323e-06
000070 44 3c af 37 fc 34 c7 b7 2a 4b c2 35 7b 2e 60 b7
       2.0889689e-05 -2.3747321e-05 1.4476002e-06 -1.33622625e-05
000080 2e 02 c3 37 3d e8 b1 37 7f c2 6e b7 6b e0 09 37
       2.3246826e-05 2.1208189e-05 -1.423119e-05 8.218088e-06
000090 f7 6c 6a 37 4a e7 5d 37 27 67 83 b7 55 c8 ae 37
       1.3972857e-05 1.3226478e-05 -1.5664451e-05 2.0835703e-05
0000a0 f0 fa 95 b6 e8 b4 72 b7 d8 60 c7 37 4f a9 45 37
       -4.469759e-06 -1.4466445e-05 2.3767745e-05 1.1781535e-05
0000b0 03 f3 88 37 43 ca 62 37 64 45 6f 37 d4 50 81 b6
       1.6325625e-05 1.3517742e-05 1.4261666e-05 -3.853909e-06
0000c0 df 33 98 37 d8 a8 c9 37 f7 a0 51 36 0b cd 84 37
       1.8143966e-05 2.4039691e-05 3.123712e-06 1.5831107e-05
0000d0 b0 c5 04 b7 8f 19 c5 b3 c4 95 8c 37 9b e0 81 37
       -7.913841e-06 -9.1781764e-08 1.675904e-05 1.5482588e-05
0000e0 b6 66 28 b7 3f 9f 81 37 18 d8 aa 37 10 a4 e2 37
       -1.0037495e-05 1.5452153e-05 2.0366206e-05 2.7017697e-05
0000f0 8a d1 2e b6 fa e1 c1 37 4d f3 a8 37 7b ce b6 b7
       -2.6049988e-06 2.3112621e-05 2.0140456e-05 -2.179224e-05
000100 66 a2 b5 b7 ae ab 0e b7 b4 29 ae b7 39 3a aa 37
       -2.1652504e-05 -8.503832e-06 -2.0761836e-05 2.0292691e-05
000110 a5 97 9c 35 37 6d a3 b7 d9 82 e2 b7 78 dd e7 b7
       1.166704e-06 -1.9481971e-05 -2.700223e-05 -2.7640475e-05
000120 0b 73 91 b7 90 2c d8 37 e9 78 f1 35 2e a9 96 b7
       -1.7338918e-05 2.5769958e-05 1.7991089e-06 -1.7960174e-05
000130 a7 fb d0 b7 5b ea dd b7 cf 10 6b 37 1a d3 06 37
       -2.4912717e-05 -2.6454383e-05 1.4011005e-05 8.036173e-06
000140 77 1b 17 b7 1d d1 c1 b6 06 9a c7 37 4d 79 9c b4
       -9.006696e-06 -5.776192e-06 2.3794371e-05 -2.9145522e-07
000150 59 5d 1b b7 70 2f bb 36 3b 82 8f 37 62 c6 cd b7
       -9.260454e-06 5.5785567e-06 1.7107572e-05 -2.4530284e-05
000160 d8 b3 d8 b6 1e 41 5e 37 aa ce d8 b6 3d c3 b1 b6
       -6.458238e-06 1.3247392e-05 -6.4613605e-06 -5.29774e-06
000170 0c 79 2d 36 f1 f5 8b b7 82 8e da b7 bb 23 d6 36
       2.5849467e-06 -1.6684617e-05 -2.6053985e-05 6.3818566e-06
000180 c5 77 00 36 92 c9 23 b5 22 ab 99 b7 8f 56 57 37
       1.9143201e-06 -6.1015555e-07 -1.8318711e-05 1.2835152e-05
000190 6f 3b 90 36 fd fe c7 b7 ed 9d d1 b6 17 5c 4a b7
       4.2984534e-06 -2.3841387e-05 -6.2470704e-06 -1.206158e-05
0001a0 a4 a0 07 b7 5a 7a 0b b7 27 b3 86 b7 b8 02 d6 b7
       -8.084029e-06 -8.313533e-06 -1.605747e-05 -2.5512054e-05
0001b0 e6 d4 10 37 1b 4d cb b7 9e 6d a3 b7 01 00 13 37
       8.632638e-06 -2.423539e-05 -1.9482159e-05 8.761884e-06
0001c0 61 d8 e8 37 5e ea 27 b7 ad 6f c3 b6 31 1c be 36
       2.7757314e-05 -1.00085435e-05 -5.8244536e-06 5.665723e-06
0001d0 b1 54 bd b7 a9 22 c7 b7 72 63 e6 37 e3 30 85 37
       -2.2569993e-05 -2.3738789e-05 2.7464444e-05 1.58776e-05
0001e0 10 e2 88 37 19 a3 30 b7 87 f9 1d b7 d0 5d e3 b7
       1.6317732e-05 -1.0528392e-05 -9.416027e-06 -2.7104194e-05
0001f0 18 20 a6 36 bb 4e 6e b7 a8 5c 69 b7 9c 19 0a b7
       4.9509217e-06 -1.4204236e-05 -1.3909455e-05 -8.231404e-06
000200 79 d7 b3 b7 5f 56 ab 36 53 da ca b7 8d b7 da 37
       -2.14388e-05 5.106252e-06 -2.4181942e-05 2.6073098e-05
000210 97 0b d0 37 01 76 a4 b7 57 cd e1 b7 4a 20 81 b7
       2.480093e-05 -1.9605273e-05 -2.6917709e-05 -1.5393034e-05
000220 b7 10 da b6 ce 1b 91 b7 10 f0 de b7 27 5d e5 b7
       -6.498852e-06 -1.7298295e-05 -2.657625e-05 -2.7342305e-05
000230 89 0c 72 36 bf d9 52 b7 2b 51 51 b7 7c 7e 9b 37
       3.6068107e-06 -1.2567673e-05 -1.2476269e-05 1.8536339e-05
000240 45 75 01 b7 e5 f0 c6 37 51 28 c4 37 08 22 d1 36
       -7.716303e-06 2.3715615e-05 2.3383795e-05 6.232647e-06
000250 d2 1b 54 37 8f cd 57 b7 70 85 8d 37 a4 cd 8b b7
       1.2642662e-05 -1.2862859e-05 1.6870647e-05 -1.666585e-05
000260 10 90 49 b6 38 3f db b6 e8 98 c4 b7 50 76 ca b7
       -3.003519e-06 -6.5340682e-06 -2.3436223e-05 -2.413537e-05
000270 6b 12 c5 b7 5a 8d 47 b7 86 eb 9a b6 a5 3b da 37
       -2.3492807e-05 -1.1894235e-05 -4.616976e-06 2.60154e-05
000280 d1 ab 0c 37 6a 69 e5 37 f4 1e e4 37 53 cd 6f 37
       8.384654e-06 2.7348015e-05 2.7194132e-05 1.4293316e-05
000290 21 a9 85 b7 d4 ab af 35 b3 dd 08 37 6f 86 ac b7
       -1.5933592e-05 1.3088525e-06 8.15785e-06 -2.0566598e-05
0002a0 18 0e bc b6 b7 09 0a b7 31 eb df b7 44 c0 cb b7
       -5.6044773e-06 -8.227703e-06 -2.6693191e-05 -2.4289016e-05
0002b0 38 66 c9 36 5e d6 ae b6 ae d5 92 b5 e7 de e4 b6
       6.0021666e-06 -5.2105597e-06 -1.0940037e-06 -6.8208788e-06
0002c0 f4 50 0f b7 c6 53 9d 36 e5 7a ea 37 57 9a b8 b7
       -8.542313e-06 4.688717e-06 2.7952201e-05 -2.200638e-05
0002d0 64 5e 96 36 20 ac da b7 f0 0b d4 37 d4 d0 40 b7
       4.481337e-06 -2.6067777e-05 2.5277928e-05 -1.1492713e-05
0002e0 cc 2a 1f 37 5b 9e 8c b7 7e f4 dd b7 81 ca f2 b5
       9.487103e-06 -1.676304e-05 -2.6459104e-05 -1.8089341e-06
0002f0 59 ea d5 b7 94 9b a6 b5 05 d8 a4 37 78 7b a8 37
       -2.5500705e-05 -1.2413243e-06 1.9650915e-05 2.0084655e-05
000300 8c b5 e4 b6 99 2f a3 b7 29 5e 6e 36 bf c9 ba b6
       -6.8160643e-06 -1.9453279e-05 3.5519572e-06 -5.5667183e-06
000310 f0 63 c7 37 29 f5 84 b7 b4 d0 40 b7 69 13 6f b7
       2.3769186e-05 -1.5849788e-05 -1.1492684e-05 -1.4250029e-05
000320 0f ce e5 b7 84 92 be 37 63 9e 02 37 7f d5 5e b7
       -2.739488e-05 2.2717992e-05 7.785481e-06 -1.328194e-05
000330 fe f4 cc b7 0c bb 4b b6 c5 42 c2 37 25 e9 8c b6
       -2.4432778e-05 -3.0358233e-06 2.3157694e-05 -4.1994667e-06
000340 96 81 f2 b6 a9 ca f5 b5 7b db 9d 36 3f f0 4b b6
       -7.227248e-06 -1.8312904e-06 4.7045155e-06 -3.0389199e-06
000350 3d 3f db b7 76 4b 22 37 29 01 bd b7 e6 22 76 b7
       -2.6136282e-05 9.673522e-06 -2.2531096e-05 -1.4670868e-05
000360 8f b8 2a b7 5b e7 c7 37 1f ac 0f 37 a3 69 8a 36
       -1.01757605e-05 2.3830382e-05 8.563539e-06 4.125018e-06
000370 ab 46 87 37 18 b0 b2 37 87 eb 8b b7 95 df a1 36
       1.6126161e-05 2.1301254e-05 -1.6679767e-05 4.8242023e-06
000380 cc 79 db b6 b8 96 86 37 19 9e c7 b7 76 20 6a 36
       -6.5408876e-06 1.6044229e-05 -2.3796269e-05 3.4887612e-06
000390 a6 0d 5f b7 3e 8b 2f 37 27 a9 3e 36 b2 bf 8c 37
       -1.3295014e-05 1.0463233e-05 2.8410666e-06 1.6778566e-05
0003a0 30 2f c8 37 43 64 4d b7 17 8f db b6 70 60 28 b7
       2.3863831e-05 -1.2242296e-05 -6.5433665e-06 -1.0036034e-05
0003b0 df e9 e2 b7 97 da 43 37 be dd a1 b7 64 44 aa b7
       -2.7050204e-05 1.16738e-05 -1.9295952e-05 -2.0297426e-05
0003c0 8b 75 41 37 90 ec c5 b7 79 ca e3 b6 10 e8 e1 37
       1.1531064e-05 -2.3594388e-05 -6.788698e-06 2.6930153e-05
0003d0 af d7 5c b4 9c 33 30 b7 12 61 c0 b7 ab f3 8e 36
       -2.0567562e-07 -1.0502434e-05 -2.2933385e-05 4.2602965e-06
0003e0 be fc 47 37 e7 6e be b7 95 72 d5 37 f3 ae cc 35
       1.192017e-05 -2.2701408e-05 2.5444935e-05 1.5250101e-06
0003f0 eb 6f 97 36 f9 1c cf 37 31 ee 3d b6 a4 19 c3 b7
       4.5131796e-06 2.4689814e-05 -2.830184e-06 -2.3257751e-05

gat_layer1.linear_r.weight f4 [64, 8]
000000 a5 d2 c1 36 87 4a b8 b6 14 6f 08 b4 88 e6 74 37
       5.7763705e-06 -5.4923034e-06 -1.2706397e-07 1.4597208e-05
000010 73 55 dc b7 9b 85 e8 b7 64 a9 7c 37 71 32 e3 b7
       -2.6265834e-05 -2.771877e-05 1.505981e-05 -2.7083997e-05
000020 9c f7 a9 b7 ff 42 cc b6 57 e8 80 37 a3 7d e5 b7
       -2.0261672e-05 -6.087473e-06 1.536698e-05 -2.7357431e-05
000030 32 88 83 b6 f2 b3 a1 b6 8f 4d 70 37 ac 56 a2 b7
       -3.9199595e-06 -4.8191223e-06 1.4323173e-05 -1.9352265e-05
000040 3d 27 e4 b7 e1 26 59 b7 e5 3a d0 37 b2 3e 43 37
       -2.719799e-05 -1.294326e-05 2.4822957e-05 1.1637503e-05
000050 34 ad 2c 37 fd 5f bd b7 d4 ef 8a 37 22 96 2e 35
       1.0292326e-05 -2.2575254e-05 1.656256e-05 6.5038523e-07
000060 18 7a ab 36 f3 eb b2 37 9b b8 ec 36 b9 32 e4 b6
       5.1104107e-06 2.1329126e-05 7.054839e-06 -6.8008344e-06
000070 28 74 b1 37 e0 a7 22 36 ec d0 1d 36 72 2c 62 b7
       2.1154134e-05 2.4237597e-06 2.3516432e-06 -1.3480998e-05
000080 3f 84 b9 b5 a3 e5 89 37 1d 72 ac b7 96 7e 63 37
       -1.3822063e-06 1.6438606e-05 -2.0557136e-05 1.3559727e-05
000090 e9 42 21 b6 f0 eb ad b7 4b 11 25 37 b8 4e ae 37
       -2.4029816e-06 -2.0733074e-05 9.838793e-06 2.0779073e-05
0000a0 5a 24 6b b7 09 c7 72 b7 86 00 4e 36 b3 01 ae b7
       -1.4015555e-05 -1.44706655e-05 3.0696697e-06 -2.0743208e-05
0000b0 35 d5 ac 36 4d 26 5f 37 91 c6 1f 37 74 54 cb b6
       5.15082e-06 1.3300753e-05 9.523371e-06 -6.059703e-06
0000c0 c5 0f cb 37 8c aa 28 b7 0a 07 23 37 1d 50 36 b7
       2.4206829e-05 -1.0053289e-05 9.717196e-06 -1.0866698e-05
0000d0 9f bf 01 b6 b3 7e a9 b7 dc b9 8d 37 cd 10 dc 37
       -1.9334036e-06 -2.0205369e-05 1.6895057e-05 2.6233867e-05
0000e0 24 23 a8 37 3a fd 24 b7 e1 6d 81 37 ec d8 96 b7
       2.0043524e-05 -9.834121e-06 1.5429165e-05 -1.7982406e-05
0000f0 23 8b f8 33 d0 49 ad 37 b7 86 76 37 ef 1c d0 37
       1.1573709e-07 2.0657579e-05 1.4694108e-05 2.4809005e-05
000100 25 83 82 37 6c 67 35 37 0a 72 69 37 d8 1c e3 b7
       1.5558277e-05 1.08125205e-05 1.3914434e-05 -2.707394e-05
000110 20 26 42 37 b0 6f f3 b6 5c b3 71 37 a0 17 cc b5
       1.1572178e-05 -7.2549665e-06 1.440648e-05 -1.520606e-06
000120 86 b1 d0 36 ab 52 a5 b6 1d d2 ac 37 43 30 84 b7
       6.2195495e-06 -4.927007e-06 2.060184e-05 -1.57581e-05
000130 22 39 c0 37 4c dd 3d b7 5d 60 dc 37 de 5d c5 b7
       2.2914788e-05 -1.1316803e-05 2.6270916e-05 -2.352794e-05
000140 e0 69 af b5 c3 77 6a b7 fd 65 46 37 15 80 28 37
       -1.306933e-06 -1.3975371e-05 1.1825466e-05 1.0043402e-05
000150 a7 85 fd 36 1d c0 18 37 31 f8 7e b7 9f 42 42 b7
       7.5555467e-06 9.104636e-06 -1.5197366e-05 -1.15788125e-05
000160 7e d6 9c b7 5f a2 6a b7 79 4d b7 37 85 f0 8a 36
       -1.869653e-05 -1.3985292e-05 2.1851376e-05 4.1407206e-06
000170 d3 f8 9f b7 27 83 81 37 ed 8b 1f b7 a8 b3 06 37
       -1.9070145e-05 1.5439071e-05 -9.5097175e-06 8.028852e-06
000180 51 f7 c4 b7 cc 64 9f b7 27 e0 cb 34 25 e6 ce 36
       -2.3480186e-05 -1.9001214e-05 3.797479e-07 6.1660708e-06
000190 bd 84 57 b7 59 7a e2 b6 87 09 45 b6 5f 1f 8c b6
       -1.2845904e-05 -6.749568e-06 -2.9360833e-06 -4.175977e-06
0001a0 1b e6 ba 36 b8 8a a4 36 a9 ab cc 37 11 5b 7e 37
       5.5700198e-06 4.90373e-06 2.439863e-05 1.5160783e-05
0001b0 b0 b3 14 b6 09 f6 b5 36 60 7d d0 37 6c 8c d8 37
       -2.215831e-06 5.4228626e-06 2.4853915e-05 2.5814596e-05
0001c0 26 01 15 37 65 45 45 b7 9a 98 8e 37 8a 51 30 b7
       8.8813595e-06 -1.1758272e-05 1.699878e-05 -1.0509402e-05
0001d0 c5 37 bf 37 9f cc 02 b7 d4 1b 02 37 98 04 4d b7
       2.2794944e-05 -7.796246e-06 7.755083e-06 -1.2220022e-05
0001e0 91 3a da b7 20 1d cf b7 13 36 e1 37 ed 7b fe b6
       -2.6014897e-05 -2.4689885e-05 2.684727e-05 -7.5842167e-06
0001f0 25 57 e3 b7 12 20 a1 b6 69 52 00 b7 2a 02 8a b7
       -2.7101089e-05 -4.8019074e-06 -7.648582e-06 -1.645189e-05
000200 19 cd 6e 37 62 4d 0a 37 2b 06 c4 37 74 af 5b 37
       1.42336585e-05 8.243458e-06 2.3367893e-05 1.3094268e-05
000210 77 a0 ac b6 91 8f 19 b6 47 fe e9 36 df b3 69 37
       -5.14468e-06 -2.2882343e-06 6.973543e-06 1.3929762e-05
000220 c6 29 d3 37 1e 67 1e 37 3b d2 4f b7 d4 5b 5a b7
       2.5172612e-05 9.441543e-06 -1.238711e-05 -1.3015193e-05
000230 a1 2a 80 37 c9 98 a9 b6 2b c9 c2 b7 50 8c dc 37
       1.527864e-05 -5.054379e-06 -2.3220278e-05 2.6291382e-05
000240 e5 1f e5 b7 3d 56 c3 b7 6d 8f a6 b7 1f 19 bd 37
       -2.731378e-05 -2.328597e-05 -1.985553e-05 2.2542254e-05
000250 3a e6 1d b7 28 89 86 b7 47 0d 53 b7 28 2e a3 36
       -9.411533e-06 -1.6037913e-05 -1.2579671e-05 4.863152e-06
000260 3c f6 bf b7 eb 59 e4 37 ef aa 9a b7 29 0e 14 36
       -2.2883636e-05 2.722159e-05 -1.8437828e-05 2.206196e-06
000270 01 b8 76 b7 51 a8 7d b7 58 d4 a7 b7 1a fb 04 b7
       -1.4705584e-05 -1.5119164e-05 -2.0006832e-05 -7.926277e-06
000280 cb 63 2c b7 4a 84 92 37 44 ea c5 b7 45 6e 41 b6
       -1.0275234e-05 1.7466158e-05 -2.3593318e-05 -2.8823426e-06
000290 08 7e 75 37 73 c3 8c 37 a7 be 8f 37 34 96 a6 b7
       1.4632482e-05 1.6780314e-05 1.7135708e-05 -1.9858686e-05
0002a0 f3 d6 50 37 5b e8 3c 37 cf 7e 97 b7 e4 d5 13 b7
       1.2447813e-05 1.1259773e-05 -1.8059653e-05 -8.811683e-06
0002b0 db 25 be b6 25 11 eb b7 b7 28 ac b7 99 57 39 37
       -5.666848e-06 -2.8022167e-05 -2.0522957e-05 1.1047255e-05
0002c0 28 42 96 37 0c cb 05 37 95 84 84 37 a5 55 c8 37
       1.79122e-05 7.974693e-06 1.5797365e-05 2.388174e-05
0002d0 99 10 62 b7 14 b1 d9 37 4b a4 9c 37 bb ac b7 b7
       -1.3474514e-05 2.5950874e-05 1.8673154e-05 -2.1895734e-05
0002e0 97 4a d6 b7 be 45 f8 36 6e 20 05 37 97 9b 8b b7
       -2.5545522e-05 7.399095e-06 7.934968e-06 -1.6642543e-05
0002f0 7e 64 c9 36 b7 3a 4c 35 b8 79 96 37 90 68 66 37
       6.0019656e-06 7.6081363e-07 1.7938073e-05 1.3733414e-05
000300 09 29 1d 37 c0 73 d0 b7 2f 72 51 37 70 01 67 36
       9.3674835e-06 -2.4849433e-05 1.2483956e-05 3.442252e-06
000310 59 88 25 37 16 aa 9b b5 26 29 8b 37 15 db 81 b7
       9.866512e-06 -1.1597901e-06 1.6589252e-05 -1.5480016e-05
000320 77 0f e3 37 73 5c 43 37 8b 18 6c 37 25 c0 d1 b7
       2.706771e-05 1.1644431e-05 1.40724105e-05 -2.5004216e-05
000330 6b 30 e4 35 27 a8 a2 b7 6a 86 71 37 4c 4f b6 36
       1.7001415e-06 -1.9390207e-05 1.4396015e-05 5.433254e-06
000340 1d 74 0f b7 69 58 d4 37 14 82 9f 37 42 ba 86 b7
       -8.550499e-06 2.5313539e-05 1.901485e-05 -1.6060778e-05
000350 41 f8 94 37 d0 03 e8 36 67 a4 ca 37 70 55 51 b6
       1.7758577e-05 6.9145826e-06 2.4156832e-05 -3.1193158e-06
000360 61 63 94 b6 58 76 4c b6 f9 c6 d5 b6 eb e3 ca b7
       -4.422313e-06 -3.0467254e-06 -6.371058e-06 -2.4186409e-05
000370 88 12 b7 b7 32 df 9e b6 01 cc c0 37 0c 16 46 b7
       -2.182393e-05 -4.7347503e-06 2.298318e-05 -1.1806853e-05
000380 ac c6 e0 b7 97 9b c8 b7 0c 8e 49 b6 f7 e5 e2 37
       -2.6795395e-05 -2.391431e-05 -3.0034016e-06 2.7048385e-05
000390 7a 74 46 b7 8c 61 d7 b7 e5 88 d4 37 db b0 99 37
       -1.1828839e-05 -2.5675421e-05 2.5336116e-05 1.8321376e-05
0003a0 35 c1 93 37 98 ca 60 37 da f8 83 b6 01 98 40 36
       1.7613735e-05 1.33986105e-05 -3.9330744e-06 2.8698707e-06
0003b0 a2 7e 33 b7 f4 9b 63 36 1b 6e 4d b6 04 c2 4e b6
       -1.0698715e-05 3.3916413e-06 -3.061147e-06 -3.0809324e-06
0003c0 46 d0 e3 37 d1 5d ea 37 a2 31 81 b6 db 8b 56 36
       2.7157494e-05 2.793866e-05 -3.8502776e-06 3.1969892e-06
0003d0 ec e1 55 35 8b 9c f0 37 d2 63 60 b7 54 5b 0a 37
       7.9677443e-07 2.8683125e-05 -1.3374682e-05 8.246705e-06
0003e0 53 19 df 37 8e cf 57 37 ee bf a8 36 03 06 c3 36
       2.6595464e-05 1.2863324e-05 5.0291337e-06 5.8121527e-06
0003f0 85 a6 af 37 81 e5 1b b7 2e 3c a6 b7 c4 f8 37 37
       2.0939167e-05 -9.2921555e-06 -1.9816765e-05 1.096557e-05

gat_layer1.attn.weight f4 [1, 64]
000000 73 92 17 34 39 ad 81 36 11 a7 65 36 b5 2b a9 b6
       1.4116249e-07 3.8646654e-06 3.4220905e-06 -5.0416807e-06
000010 ec c0 a4 35 d0 44 8b b5 bb ac 97 b6 e2 90 66 b6
       1.22751e-06 -1.0376334e-06 -4.520259e-06 -3.4357004e-06
000020 8d 78 f4 36 9e 6d 37 36 5a 0d 5a 36 db 81 b0 36
       7.2858006e-06 2.733293e-06 3.2492303e-06 5.260326e-06
000030 db 1b c5 b6 5b ec 2b b7 fa 93 38 b6 33 3e 98 34
       -5.8743003e-06 -1.0247425e-05 -2.750427e-06 2.8357462e-07
000040 c7 49 19 b7 77 9f 89 36 3d 6e 17 37 a0 81 ae b5
       -9.136688e-06 4.1014823e-06 9.025968e-06 -1.3001736e-06
000050 34 2f 2b 37 4d ac 01 b5 93 f4 42 b6 c7 f0 4a 36
       1.0203385e-05 -4.8306975e-07 -2.9050614e-06 3.0240496e-06
000060 d4 ac 02 36 d1 c0 1f 37 c2 d7 3f 36 ad 07 eb 35
       1.9472109e-06 9.522032e-06 2.8586805e-06 1.7511098e-06
000070 86 03 da b6 b4 ab 56 b6 de a7 2a b7 4d bc 62 36
       -6.4973165e-06 -3.198843e-06 -1.0171874e-05 3.378623e-06
000080 bc 68 bb 36 5a 91 08 37 96 50 c0 36 ab da 0f 37
       5.585227e-06 8.140074e-06 5.7314273e-06 8.574377e-06
000090 60 3c a3 b6 de 30 18 37 40 e1 19 b7 73 eb cd b6
       -4.864807e-06 9.071284e-06 -9.171956e-06 -6.136886e-06
0000a0 c9 eb 03 b7 04 41 5d b6 80 02 c4 b6 7d d5 ab 36
       -7.8631065e-06 -3.296941e-06 -5.841546e-06 5.1210504e-06
0000b0 d6 d0 28 b5 d9 7d 7d 36 99 92 be 36 89 f8 5f 36
       -6.2888773e-07 3.777319e-06 5.6795075e-06 3.3374256e-06
0000c0 32 92 72 b6 18 21 82 36 ec c2 57 35 a0 fa 23 37
       -3.6145907e-06 3.8781545e-06 8.037739e-07 9.77391e-06
0000d0 91 8f ee 36 a1 d8 c1 b6 62 a2 7b 36 b3 36 0a b7
       7.109666e-06 -5.777067e-06 3.7496434e-06 -8.238177e-06
0000e0 bc a4 7e 36 cb 85 26 37 2d 51 9e 36 88 da 25 37
       3.7944837e-06 9.925522e-06 4.718217e-06 9.885647e-06
0000f0 c1 fd 02 37 6b 67 0b 37 34 5f da b6 59 f1 b3 36
       7.8076855e-06 8.3091245e-06 -6.5079894e-06 5.3627123e-06

gat_layer.linear_l.weight f4 [64, 64]
000000 5b 52 a2 b4 96 a6 c9 b6 1c 01 d9 36 bb f3 4a b6
       -3.0234773e-07 -6.00966e-06 6.467233e-06 -3.0242215e-06
000010 d9 f9 20 b5 e6 5e 07 36 4c 73 34 36 48 8d 0b b7
       -5.996822e-07 2.0171806e-06 2.6889202e-06 -8.31794e-06
000020 d8 2d 75 b6 7d 62 9a b5 7a 08 0f 37 40 6f 01 36
       -3.653453e-06 -1.1502558e-06 8.525438e-06 1.9287254e-06
000030 50 43 eb 35 23 4d 03 37 d5 27 07 37 0e c1 b1 36
       1.7528455e-06 7.826168e-06 8.055901e-06 5.2974856e-06
000040 86 7d 76 b4 5a 3f a4 36 18 10 fe 36 fc 57 fc b6
       -2.29562e-07 4.894956e-06 7.5716634e-06 -7.520428e-06
000050 d3 8e bc 36 45 c7 1f 37 83 2c 5d b6 85 c9 e1 b4
       5.6194635e-06 9.523535e-06 -3.2957475e-06 -4.205614e-07
000060 d8 70 d6 36 06 bb 46 b4 32 16 14 b7 1a 7e 86 b6
       6.3908337e-06 -1.8508226e-07 -8.826655e-06 -4.0081914e-06
000070 ab 32 89 36 76 4b 00 b4 ef 7c 00 b7 2d ca 44 36
       4.0888167e-06 -1.1948381e-07 -7.658483e-06 2.9323958e-06
000080 59 7e 53 36 4e 12 d8 36 e6 e0 a6 b6 93 07 1c 36
       3.1514994e-06 6.4394326e-06 -4.973367e-06 2.325022e-06
000090 1a 6e b2 b6 1e 6e c7 36 7f 03 05 b7 50 ce 4a b6
       -5.317631e-06 5.9434815e-06 -7.928232e-06 -3.0220435e-06
0000a0 7a 99 9d b6 af 53 a0 b6 cb 52 4c b6 5f 5b ce 36
       -4.6968316e-06 -4.7781136e-06 -3.044656e-06 6.1499154e-06
0000b0 d2 0b fc 36 fe 01 8c 36 72 a2 41 b6 65 5c ab b5
       7.5115613e-06 4.172557e-06 -2.8853797e-06 -1.2767383e-06
0000c0 25 d5 fd b6 87 39 d2 b3 ba fb d1 36 09 c8 07 b7
       -7.564801e-06 -9.789351e-08 6.25799e-06 -8.093201e-06
0000d0 4d 0f 8f b6 2b e1 e7 b6 ae ff 03 37 12 be 2b b6
       -4.2635133e-06 -6.9105495e-06 7.8677385e-06 -2.559162e-06
0000e0 09 41 6e 35 8a 5e 8e b6 05 6a f3 36 1c 54 e4 b6
       8.875655e-07 -4.2429356e-06 7.2543066e-06 -6.804721e-06
0000f0 00 aa a5 b6 7a de 51 36 d2 04 cf 36 00 07 1a b7
       -4.937174e-06 3.1272925e-06 6.169642e-06 -9.180745e-06
000100 23 da fa b2 17 67 22 37 3d 0f 90 b6 94 2f 82 b6
       -2.9203028e-08 9.679955e-06 -4.2933084e-06 -3.8798407e-06
000110 0d 36 f5 b6 f8 a4 b6 b5 c6 59 7f b6 19 95 f5 b6
       -7.3078613e-06 -1.3608069e-06 -3.8050216e-06 -7.3189262e-06
000120 c5 52 06 b7 1b e2 8e 36 ef b0 1f 37 8e 68 dd b6
       -8.006294e-06 4.258252e-06 9.518334e-06 -6.598485e-06
000130 8c fd b5 b5 c8 1d 01 b7 63 e5 9d 36 98 b2 9d 36
       -1.3559343e-06 -7.695933e-06 4.7056687e-06 4.6997557e-06
000140 79 c9 95 b6 80 8c 13 b6 c1 6c fb 36 9a 9a 53 34
       -4.4640005e-06 -2.1986489e-06 7.4930435e-06 1.970715e-07
000150 f5 2b 4b b6 eb 59 19 37 b4 d4 d4 36 9a fd 61 b6
       -3.0274944e-06 9.140446e-06 6.3428542e-06 -3.3675228e-06
000160 ce e4 0b b7 38 e3 f4 35 e3 2b b3 36 03 41 55 b5
       -8.338318e-06 1.8245546e-06 5.339725e-06 -7.944329e-07
000170 3b 1f 93 b5 80 84 b8 34 3b a9 8f 36 6f 61 b9 36
       -1.0961443e-06 3.4369077e-07 4.281433e-06 5.5247724e-06
000180 d9 f8 7c b6 f9 8f 18 34 a3 52 24 b6 bd f6 1b b7
       -3.7695775e-06 1.420848e-07 -2.4486005e-06 -9.296168e-06
000190 ee 4d 99 b6 27 6b f9 36 0d 50 76 36 84 ef ec b5
       -4.5688275e-06 7.4332524e-06 3.6703452e-06 -1.7653078e-06
0001a0 6c 1b ad b6 65 b3 b7 36 00 54 04 b6 de 08 b9 36
       -5.158994e-06 5.4747093e-06 -1.9718427e-06 5.514462e-06
0001b0 45 0b 45 36 76 87 11 b7 3a f8 11 37 5a bc 05 37
       2.9361847e-06 -8.674213e-06 8.700468e-06 7.971272e-06
0001c0 68 2d bd b6 5a bf 25 37 85 ae 83 36 43 95 86 34
       -5.637925e-06 9.879319e-06 3.924421e-06 2.5068047e-07
0001d0 c0 34 eb b6 6f a3 11 37 78 43 17 b7 5e 7c 14 37
       -7.0096867e-06 8.680726e-06 -9.01601e-06 8.850444e-06
0001e0 14 bc 08 37 6b 70 02 36 e4 b1 cd b6 1c cc 0b 37
       8.150022e-06 1.9436945e-06 -6.1301853e-06 8.3325685e-06
0001f0 ec 0e 58 35 69 fa 88 36 50 f3 e1 b6 7e a8 12 37
       8.0487985e-07 4.0822674e-06 -6.733848e-06 8.741508e-06
000200 c4 44 f0 34 f7 98 e0 36 11 64 d2 b6 cf 34 83 36
       4.4753517e-07 6.6935277e-06 -6.270137e-06 3.910252e-06
000210 87 a0 b8 b6 be 8f 00 b7 c0 00 0e 35 0f c3 25 b7
       -5.502315e-06 -7.662862e-06 5.2900214e-07 -9.880182e-06
000220 2d a9 b3 34 f7 11 98 36 bc 66 59 36 ec 50 8b 35
       3.346444e-07 4.5320444e-06 3.239532e-06 1.0379858e-06
000230 10 27 1e b6 1a 47 cd b6 a0 9a da b6 21 06 06 37
       -2.3566572e-06 -6.1177534e-06 -6.514907e-06 7.988449e-06
000240 29 0c ec b6 08 18 1f 37 31 c4 10 37 97 ae 07 37
       -7.0347637e-06 9.482734e-06 8.628748e-06 8.087277e-06
000250 1a 3b a5 b6 f1 22 07 37 71 c8 05 37 ae a3 8a 36
       -4.9242635e-06 8.0547625e-06 7.974087e-06 4.1317753e-06
000260 70 aa 16 b7 2a 7b 0f 37 7c da 28 31 dc 25 0b 37
       -8.98038e-06 8.552141e-06 2.4571412e-09 8.29386e-06
000270 31 bc 18 37 21 b7 36 b6 01 81 96 36 5b d3 01 b5
       9.103723e-06 -2.7226708e-06 4.4853664e-06 -4.836381e-07
000280 09 61 24 37 09 bf 11 37 08 26 09 b7 4e 9a c4 b6
       9.7977545e-06 8.687152e-06 -8.174691e-06 -5.8592186e-06
000290 9f 65 7e b6 87 0e ae 36 fe 05 6c b6 bd e1 5f 35
       -3.79081e-06 5.1872953e-06 -3.5170228e-06 8.3402466e-07
0002a0 00 1c 68 b6 b9 0b fe b6 e5 bf f5 b6 62 23 6f 34
       -3.4586992e-06 -7.5711546e-06 -7.3239084e-06 2.2271482e-07
0002b0 da b7 d6 b6 05 87 81 35 c2 f3 36 b6 54 a5 ae 36
       -6.3991e-06 9.650545e-07 -2.7262e-06 5.204851e-06
0002c0 71 88 1c b7 69 47 91 36 fb ac d4 b6 86 31 c1 b6
       -9.330092e-06 4.32965e-06 -6.33823e-06 -5.7576135e-06
0002d0 d6 4d 0a b7 2d 73 a4 b6 d0 3c d9 b5 8c 56 1d b7
       -8.243564e-06 -4.900989e-06 -1.6185459e-06 -9.37808e-06
0002e0 9f 1f 1f b7 3b 69 ec b4 a6 5b bc 35 f2 e2 03 37
       -9.484501e-06 -4.403499e-07 1.4033765e-06 7.861048e-06
0002f0 33 f5 bf b6 02 32 aa 35 d5 8f 9a b6 92 39 20 36
       -5.7207885e-06 1.2680541e-06 -4.606302e-06 2.3875368e-06
000300 d0 02 1d b7 41 8e 25 b7 23 7b 85 36 75 1a d7 b6
       -9.358584e-06 -9.8678875e-06 3.978044e-06 -6.4105793e-06
000310 f3 c2 d2 36 9c 63 67 b6 bc 00 0f b7 4d e5 48 36
       6.281183e-06 -3.4479663e-06 -8.523635e-06 2.9935793e-06
000320 16 98 b0 36 77 96 69 b6 fe c3 0e b7 b4 0f 2f b6
       5.262914e-06 -3.4807288e-06 -8.509493e-06 -2.6086173e-06
000330 26 f8 0f b7 49 98 25 36 67 2f fc b6 9f 09 92 b6
       -8.581241e-06 2.4675558e-06 -7.5157036e-06 -4.352259e-06
000340 b7 a0 04 b6 b2 0a 2a b6 79 23 07 36 ce 57 c2 36
       -1.976308e-06 -2.53382e-06 2.0137215e-06 5.7918724e-06
000350 9b 80 d3 36 10 b2 22 b7 58 cc 86 36 93 bc 39 b6
       6.3032617e-06 -9.697411e-06 4.0173e-06 -2.7676913e-06
000360 d9 88 0e 37 40 1c 92 36 7a f5 57 b5 52 c3 0d 37
       8.495722e-06 4.354428e-06 -8.0450957e-07 8.4497315e-06
000370 09 0e 8c 36 48 4e 5c b6 ff d3 27 37 ad f2 41 b6
       4.173959e-06 -3.282812e-06 1.0003335e-05 -2.8900497e-06
000380 5d db 40 b6 12 85 d4 36 8a e3 75 b6 0c c3 cc 36
       -2.8737916e-06 6.3335838e-06 -3.664029e-06 6.10238e-06
000390 8d de 20 b7 07 cc c8 36 6a d6 11 b5 51 2d c8 33
       -9.58856e-06 5.9842164e-06 -5.4328723e-07 9.321469e-08
0003a0 48 8d 6f 36 8f 0e 27 36 40 72 aa b6 06 14 23 36
       3.5696012e-06 2.4893413e-06 -5.0796953e-06 2.4300548e-06
0003b0 cb 16 9a 35 f4 c1 17 36 bc 57 07 37 02 e4 c7 35
       1.1480528e-06 2.261365e-06 8.067054e-06 1.4893014e-06
0003c0 76 94 b8 b6 98 cf 43 b6 81 fb 0a b7 38 4c 22 36
       -5.5009104e-06 -2.91781e-06 -8.283999e-06 2.4184246e-06
0003d0 67 cb 75 36 ee 84 cb b6 06 cd e3 b6 27 01 a3 36
       3.662624e-06 -6.0653465e-06 -6.788995e-06 4.8579127e-06
0003e0 6c bc ca b6 41 f4 4d 36 32 93 55 36 58 af 7b 36
       -6.0420043e-06 3.0689555e-06 3.1825152e-06 3.7503978e-06
0003f0 88 67 18 b6 59 82 20 b6 56 4a 89 36 f6 9c c6 b6
       -2.2710028e-06 -2.391773e-06 4.091572e-06 -5.9191325e-06

gat_layer.linear_r.weight f4 [64, 64]
000000 4a b0 f2 b5 99 63 98 b6 a3 67 11 36 bb 3e bc b6
       -1.8081712e-06 -4.5415477e-06 2.1667008e-06 -5.6101394e-06
000010 8c eb d8 36 6c 0a 7c b6 73 db 07 b7 b7 de f9 b3
       6.464723e-06 -3.7556993e-06 -8.097722e-06 -1.1635478e-07
000020 f3 6f 21 b5 46 26 08 36 a4 ea f9 36 0a e1 22 b7
       -6.014008e-07 2.0287857e-06 7.448094e-06 -9.708348e-06
000030 0c 5f 2c 36 41 34 9a b6 6e 3a 41 36 0f 17 bb 36
       2.5685322e-06 -4.595641e-06 2.8793252e-06 5.5757187e-06
000040 bb a8 96 36 aa fe 00 37 ad 42 10 37 73 19 0d 37
       4.489991e-06 7.688688e-06 8.598593e-06 8.41018e-06
000050 23 94 ab 36 a8 4f 8e b6 d6 8d aa 34 a7 40 da 35
       5.1134425e-06 -4.241203e-06 3.1768167e-07 1.6261082e-06
000060 97 32 22 b7 43 34 90 35 b0 25 34 b6 49 89 b4 35
       -9.667731e-06 1.0744046e-06 -2.6844027e-06 1.3451e-06
000070 08 c5 14 37 87 30 26 b7 1c 7a 84 b6 dc c7 59 34
       8.867362e-06 -9.90567e-06 -3.948122e-06 2.0282408e-07
000080 b3 fe 1c 37 b0 34 c3 36 74 07 9f 36 cf 12 71 35
       9.357626e-06 5.8175865e-06 4.739437e-06 8.9806866e-07
000090 42 15 cc b6 3f 8d f7 36 57 e6 d6 b6 a6 06 07 37
       -6.0821485e-06 7.377617e-06 -6.404512e-06 8.048175e-06
0000a0 aa 79 ce 35 e0 7c 70 b5 76 67 c9 36 43 ca 5f 35
       1.5383605e-06 -8.9588684e-07 6.0023112e-06 8.3368303e-07
0000b0 f5 56 77 36 0c ae c1 b6 ee 0b 28 36 4c 00 3e 36
       3.6856484e-06 -5.77211e-06 2.5040895e-06 2.831238e-06
0000c0 ef f8 64 b6 1f cb f5 b6 cd 6b 37 36 cf 38 73 b5
       -3.4119546e-06 -7.3252154e-06 2.7331873e-06 -9.060722e-07
0000d0 f9 cc 6f 36 34 d7 46 36 c6 9a ce 36 9e b9 f1 b6
       3.5733085e-06 2.9629564e-06 6.1572964e-06 -7.2039684e-06
0000e0 50 b6 e7 36 74 66 ff 36 25 ac 65 36 46 f7 11 37
       6.9055604e-06 7.6115193e-06 3.422386e-06 8.700246e-06
0000f0 a3 fe 64 35 8d 2a f9 36 9b 45 30 b6 ca a5 c4 b6
       8.5307164e-07 7.425732e-06 -2.626656e-06 -5.8605556e-06
000100 50 11 11 37 5e 58 15 37 04 fc 62 b5 2b 42 28 b5
       8.646704e-06 8.901667e-06 -8.455829e-07 -6.2681164e-07
000110 db 6c 33 b5 d6 ef f4 b6 d0 83 9a b6 01 06 b5 36
       -6.68411e-07 -7.2996872e-06 -4.6049026e-06 5.3949193e-06
000120 1b ae b1 b4 b6 07 2c 36 7a 4b ef b6 55 df ab 36
       -3.3095498e-07 2.5634486e-06 -7.1315417e-06 5.1221964e-06
000130 96 44 09 37 36 8c ea 36 d1 9c 71 b6 5b 44 15 b7
       8.181805e-06 6.990066e-06 -3.6003078e-06 -8.897007e-06
000140 f9 1d 11 b6 90 eb c1 35 e6 64 1a 37 f6 38 09 b7
       -2.162413e-06 1.4448178e-06 9.2026075e-06 -8.179099e-06
000150 20 69 59 b3 12 94 e5 b6 6b ca 80 b6 4f 6e 09 37
       -5.061986e-08 -6.8419695e-06 -3.838262e-06 8.19152e-06
000160 de 57 16 37 59 1e aa 36 70 98 6f b6 8d c1 94 36
       8.961155e-06 5.0699277e-06 -3.5702506e-06 4.433276e-06
000170 e6 88 27 b7 e2 76 08 b7 17 e2 b3 b6 97 05 04 b7
       -9.98585e-06 -8.133911e-06 -5.360936e-06 -7.869115e-06
000180 c3 ba 21 b7 9c ce 17 37 78 a0 8b 35 7f e6 e7 36
       -9.639832e-06 9.048406e-06 1.040301e-06 6.9111697e-06
000190 60 67 38 b6 d4 d3 0a 34 e4 bd 06 b6 18 a7 13 36
       -2.7478309e-06 1.2929314e-07 -2.0078087e-06 2.2001968e-06
0001a0 f0 c6 f7 b6 ee 1b df b6 5a 64 0b b7 21 4e 84 b4
       -7.384333e-06 -6.6491693e-06 -8.3084105e-06 -2.4643762e-07
0001b0 c4 10 f0 36 c8 5a d9 36 31 a8 a3 b6 c0 78 1d 37
       7.154509e-06 6.4776723e-06 -4.8773586e-06 9.3860435e-06
0001c0 3d 1e de 36 66 f6 a8 36 6f ab db b6 8a 3c d7 35
       6.6196358e-06 5.0354747e-06 -6.546666e-06 1.6036367e-06
0001d0 16 23 68 b4 1e ff b4 b5 b2 57 13 b7 5b ab 94 35
       -2.1619448e-07 -1.3485294e-06 -8.782301e-06 1.107673e-06
0001e0 52 93 2a 37 ed 22 1d 37 44 04 0a 36 c1 29 ae 36
       1.016709e-05 9.366061e-06 2.0566085e-06 5.190465e-06
0001f0 59 7c 72 36 5a 0e 02 b6 4e d0 24 b7 fb 86 90 35
       3.613319e-06 -1.9379863e-06 -9.8236615e-06 1.076812e-06
000200 0c 1c 8e b6 60 78 4a b6 c1 39 61 b6 2a d3 9e 36
       -4.235195e-06 -3.0170413e-06 -3.356123e-06 4.7333497e-06
000210 69 32 9b 36 bd 2d f9 36 2f c4 03 37 31 4b c0 36
       4.6252285e-06 7.426103e-06 7.853886e-06 5.7307993e-06
000220 4f fc 32 b6 15 0d 26 b7 46 03 70 36 e0 e9 a8 35
       -2.667093e-06 -9.897417e-06 3.5764692e-06 1.2585042e-06
000230 34 b5 83 b6 ef 50 56 b6 b6 71 24 b7 90 e1 ea b5
       -3.925199e-06 -3.1935595e-06 -9.801637e-06 -1.7500006e-06
000240 ad 67 15 37 7d 02 dd b6 aa 40 84 36 a9 85 77 b6
       8.905231e-06 -6.586603e-06 3.9414344e-06 -3.6883669e-06
000250 41 c1 09 37 69 da cb b6 66 8e a6 b5 25 78 94 36
       8.210832e-06 -6.0752977e-06 -1.2409407e-06 4.4247304e-06
000260 26 79 0e 35 c9 1c 5e b5 23 c6 7d b6 d6 40 12 b7
       5.3075416e-07 -8.274333e-07 -3.7815269e-06 -8.717374e-06
000270 3e 65 0a b7 49 eb c1 b6 3c 6a b1 36 48 b3 1f b7
       -8.249013e-06 -5.779239e-06 5.2873784e-06 -9.518881e-06
000280 51 a9 63 36 58 cc 11 37 f4 04 88 b5 44 4c 52 b6
       3.392419e-06 8.690251e-06 -1.0134231e-06 -3.133683e-06
000290 5d ed 0b 37 b1 d5 2e 36 89 c8 21 37 02 26 3b 36
       8.340311e-06 2.6052405e-06 9.6430385e-06 2.7887295e-06
0002a0 95 be 0d b7 fe e7 3a b6 5b 99 49 36 90 95 20 35
       -8.448628e-06 -2.7851197e-06 3.0040599e-06 5.9822287e-07
0002b0 a5 45 d1 36 a6 e7 bb b6 b6 34 8d 36 b2 19 6b b3
       6.236793e-06 -5.6000017e-06 4.208264e-06 -5.473857e-08
0002c0 0f 45 e5 35 7f 67 7d 35 c3 a1 83 36 77 33 4a b6
       1.7081928e-06 9.440045e-07 3.922936e-06 -3.0130302e-06
0002d0 f9 57 97 b6 ca 30 e1 b6 1a 18 ef b6 74 b0 17 b7
       -4.510392e-06 -6.7112023e-06 -7.125561e-06 -9.041385e-06
0002e0 0c dc 0b 37 80 8a d7 36 31 9f 88 36 00 c9 b7 36
       8.336279e-06 6.423623e-06 4.071648e-06 5.4772245e-06
0002f0 0f f0 09 b7 ec 13 dc 35 21 32 9e b6 92 bd 1c b7
       -8.221729e-06 1.6397075e-06 -4.7146027e-06 -9.342462e-06
000300 46 67 2b b5 2c 69 f0 36 1e a6 1c 36 2c 5f dc 33
       -6.3852747e-07 7.164801e-06 2.3342504e-06 1.026186e-07
000310 6d 0a 8a b6 f9 5d f5 b6 e7 d8 3b 34 bf db a2 36
       -4.113934e-06 -7.312509e-06 1.7494641e-07 4.853558e-06
000320 bc b0 ba b6 8d 65 9d b6 59 d8 0a 34 e5 81 44 36
       -5.5638066e-06 -4.6907867e-06 1.2930958e-07 2.9281885e-06
000330 5f 05 8d 35 4c 00 8f 36 a6 72 b8 b6 25 60 06 37
       1.0506882e-06 4.2617667e-06 -5.496974e-06 8.009408e-06
000340 ec 8b b8 36 e5 b6 12 b7 6a d5 a8 36 c8 f5 05 b5
       5.4999164e-06 -8.744862e-06 5.031635e-06 -4.990402e-07
000350 ed 62 45 36 53 7b ae 36 24 e8 0d 37 6e 23 9e b6
       2.941287e-06 5.199961e-06 8.458304e-06 -4.7128915e-06
000360 9b 7b 75 b6 db f2 29 b6 12 20 02 b7 93 92 ec b6
       -3.6579793e-06 -2.5324323e-06 -7.756071e-06 -7.0504116e-06
000370 83 d6 a5 35 18 16 22 b7 0b 8b 0e b7 f7 03 58 b6
       1.2355889e-06 -9.661097e-06 -8.496233e-06 -3.2188816e-06
000380 41 0a aa b6 2d 75 c1 36 4d e2 c3 b6 a2 ff 14 b7
       -5.0675885e-06 5.7654893e-06 -5.8377977e-06 -8.881007e-06
000390 f2 91 d8 b6 1a f3 4b 35 6b 1e 76 35 b1 c4 59 33
       -6.454292e-06 7.597715e-07 9.1686405e-07 5.070314e-08
0003a0 68 72 a2 b6 e1 f8 00 36 c7 9e 4d b6 35 6a d6 36
       -4.841295e-06 1.9218353e-06 -3.06398e-06 6.390061e-06
0003b0 7c 17 a7 36 0c 0e 24 37 8c 4b 82 36 15 5b eb b6
       4.979722e-06 9.778432e-06 3.8830967e-06 -7.014149e-06
0003c0 ef 5b fd b5 bf a4 90 b6 7a c6 f9 b6 c4 b4 a6 36
       -1.8876725e-06 -4.3107134e-06 -7.443884e-06 4.9682294e-06
0003d0 a2 06 db b6 95 cb 94 b6 32 0e 10 37 7d 1f b4 b6
       -6.5274808e-06 -4.434444e-06 8.586374e-06 -5.3680837e-06
0003e0 2a 31 fd b5 c0 44 ce b6 56 43 ba 36 c9 e5 40 35
       -1.8864278e-06 -6.147282e-06 5.551071e-06 7.1859955e-07
0003f0 a2 35 d6 36 e1 a5 48 35 93 32 28 b7 b5 78 09 37
       6.3839407e-06 7.474719e-07 -1.0025356e-05 8.193941e-06

gat_layer.attn.weight f4 [1, 64]
000000 bc 25 1e b7 d3 71 21 36 31 22 b3 b6 35 0a c6 36
       -9.42632e-06 2.4057124e-06 -5.338596e-06 5.902048e-06
000010 1e e7 93 34 67 d2 ec b6 30 57 d2 b6 6e 71 03 37
       2.7549044e-07 -7.057842e-06 -6.2686377e-06 7.834618e-06
000020 ea 59 e1 b6 3c 0c ea 36 08 75 69 b6 12 72 07 b6
       -6.71599e-06 6.9751677e-06 -3.4787827e-06 -2.0182965e-06
000030 44 ba 2a b6 6a 43 66 b6 a3 ad b3 36 6c 99 24 b7
       -2.5440395e-06 -3.431191e-06 5.3548297e-06 -9.810883e-06
000040 11 5f ff 36 8a d3 83 b6 b4 2d 7c 36 a8 85 e4 b6
       7.6106594e-06 -3.9287306e-06 3.757753e-06 -6.810489e-06
000050 35 9f f7 b6 45 e0 d0 b5 d1 b2 a3 36 d0 07 af b4
       -7.3797078e-06 -1.5562479e-06 4.8785955e-06 -3.2601974e-07
000060 59 44 cb b3 46 6a f4 b6 89 65 46 b6 76 78 82 36
       -9.4653565e-08 -7.2841385e-06 -2.95634e-06 3.8883254e-06
000070 e5 6d d7 36 f5 e0 70 b5 6e 9c 18 b5 91 1b c9 b6
       6.4202927e-06 -8.973432e-07 -5.685205e-07 -5.993476e-06
000080 c2 0c 1a b7 81 b7 9c 36 d2 56 e2 b5 89 26 c2 36
       -9.182086e-06 4.670525e-06 -1.686358e-06 5.7861366e-06
000090 7b ec 93 36 8f 4e a9 b6 08 b3 30 36 e4 2b 04 37
       4.4084713e-06 -5.045738e-06 2.6330254e-06 7.878032e-06
0000a0 39 7c d8 36 02 36 c1 35 10 1a 9b 36 26 36 19 37
       6.451763e-06 1.4395339e-06 4.622394e-06 9.132118e-06
0000b0 d9 1d ef b6 5a 0e 00 b7 27 fb b7 b6 50 41 d9 b6
       -7.12623e-06 -7.632736e-06 -5.483063e-06 -6.4747073e-06
0000c0 64 86 88 b6 97 c0 ff b5 41 c3 87 36 07 5a dc b6
       -4.068761e-06 -1.9055032e-06 4.046044e-06 -6.5669915e-06
0000d0 a9 41 2f b6 ed e6 e9 b6 e0 d1 c8 b6 5d 16 ab b6
       -2.6115251e-06 -6.9708244e-06 -5.984897e-06 -5.0988006e-06
0000e0 df 59 12 b7 60 dc 40 35 d7 21 26 b6 fb 6d fd 36
       -8.723203e-06 7.184626e-07 -2.4755625e-06 7.552791e-06
0000f0 44 95 1c b7 e4 5d 94 36 3c 96 df b6 a7 5b 0a 37
       -9.333078e-06 4.421674e-06 -6.6634075e-06 8.24678e-06

linear_layers.0.weight f4 [64, 68]
000000 1b 7c d9 b5 4a d0 8c 36 4e ad c8 b6 a0 af 81 b6
       -1.6203879e-06 4.196573e-06 -5.98064e-06 -3.864945e-06
000010 3d 22 4a 35 ca 89 0d b6 6e ee d4 b6 0f b3 c8 36
       7.530069e-07 -2.109084e-06 -6.345849e-06 5.9813096e-06
000020 c4 6d d5 36 8c c5 0e 36 48 a7 f0 b4 92 25 00 37
       6.360673e-06 2.1274636e-06 -4.4825197e-07 7.638142e-06
000030 b5 87 e4 36 eb 7a 40 b5 16 f4 84 36 ed 2e 1b 37
       6.810728e-06 -7.1704443e-07 3.962322e-06 9.249646e-06
000040 2b ad f0 34 f4 d0 80 b5 a1 a0 b5 b6 69 1f 41 36
       4.482948e-07 -9.597557e-07 -5.41292e-06 2.8777524e-06
000050 e9 97 87 36 0a dc 12 b7 4e 7f 00 35 b6 55 ac b6
       4.040998e-06 -8.75351e-06 4.786897e-07 -5.1359775e-06
000060 f4 37 16 b6 c8 60 4b 36 8c 0a 64 b6 0a 11 62 b6
       -2.238431e-06 3.0305691e-06 -3.3980787e-06 -3.3686542e-06
000070 4a 2c 20 37 57 ec 1c 37 4c 0e 05 b7 c9 a0 43 36
       9.547055e-06 9.353352e-06 -7.9307465e-06 2.9150854e-06
000080 12 c4 1d 35 18 35 b0 b6 36 9c d8 35 07 ae 14 37
       5.877238e-07 -5.2513897e-06 1.6138717e-06 8.862006e-06
000090 cf 21 d8 36 bf 22 b2 35 fe eb fa 36 c4 02 e1 36
       6.4412375e-06 1.3272146e-06 7.4780537e-06 6.7058445e-06
0000a0 42 51 c3 36 1d fd 16 37 c9 e7 d1 b6 00 08 15 35
       5.8209125e-06 8.999629e-06 -6.2556687e-06 5.5518467e-07
0000b0 55 d9 a8 b6 07 bd bc b6 d3 d6 97 b5 73 8b 07 37
       -5.032091e-06 -5.6248423e-06 -1.1312899e-06 8.079095e-06
0000c0 e3 8c 0a b6 a3 11 7b b6 1f c4 08 b7 78 e7 dd b5
       -2.064561e-06 -3.741218e-06 -8.151895e-06 -1.6533149e-06
0000d0 34 3e 15 b6 80 06 c1 36 d2 49 35 34 7f a3 0e b5
       -2.2238937e-06 5.752605e-06 1.6883794e-07 -5.313704e-07
0000e0 8f 15 0e 36 c1 4b a4 b6 63 cd 7f b6 2c b8 e2 36
       2.1172198e-06 -4.8964e-06 -3.8117512e-06 6.7567653e-06
0000f0 50 6b 1b 37 28 45 5c b6 00 2c 1f 37 ee e0 b0 b6
       9.263706e-06 -3.2822809e-06 9.487383e-06 -5.271394e-06
000100 9d 48 1e 35 7f 55 85 35 b9 50 eb b6 f4 e3 c4 b6
       5.8965253e-07 9.934155e-07 -7.012943e-06 -5.8677924e-06
000110 d6 f2 be 34 0d 2e 5f b6 75 bd bc 36 57 d9 ee b6
       3.5566944e-07 -3.3256395e-06 5.6248923e-06 -7.1182544e-06
000120 06 fa 57 35 ef f5 f2 b6 57 b9 34 36 10 c2 c0 36
       8.0457573e-07 -7.2407925e-06 2.6929972e-06 5.7446377e-06
000130 83 d0 09 b7 ee 95 1c 37 56 c1 0e 37 d8 e1 d7 36
       -8.214384e-06 9.333233e-06 8.508874e-06 6.433791e-06
000140 45 92 25 b6 a2 3c 06 37 61 cb 06 b7 1a e7 92 36
       -2.4672056e-06 8.00114e-06 -8.034375e-06 4.378043e-06
000150 24 b9 ad 36 c3 1a 21 b7 0a 26 0b 35 66 75 f7 36
       5.177355e-06 -9.602579e-06 5.183689e-07 7.3748406e-06
000160 9a b2 25 36 ae 94 9e 36 1e eb 8b 36 14 ba 07 b7
       2.4690876e-06 4.7260755e-06 4.169894e-06 -8.089952e-06
000170 df 93 a2 b5 d9 97 0c b7 84 9f b4 36 ce 72 10 b4
       -1.2112977e-06 -8.380005e-06 5.382988e-06 -1.3452811e-07
000180 7b 8a a6 b6 82 2c 9b 36 80 b3 1c b7 34 1f 11 35
       -4.9633068e-06 4.6245414e-06 -9.340118e-06 5.4062116e-07
000190 17 ce 5e 35 20 c1 cb 36 eb 98 87 b6 f9 82 96 b6
       8.3001345e-07 6.072354e-06 -4.0411155e-06 -4.4855956e-06
0001a0 b1 51 15 b7 87 56 1a b6 ee f0 f0 36 f9 94 0e b6
       -8.900112e-06 -2.2998154e-06 7.1806053e-06 -2.1246362e-06
0001b0 39 c6 d5 35 90 b3 b1 b6 7d cc 15 36 a9 e9 48 36
       1.5927427e-06 -5.295915e-06 2.2321758e-06 2.993833e-06
0001c0 6d 23 1d b7 4a 13 9c 35 1c 3a 0f b7 be e0 ad b5
       -9.366177e-06 1.162852e-06 -8.536994e-06 -1.2954913e-06
0001d0 b6 ec d0 b6 80 01 9a b6 05 19 21 37 a7 f1 ea 36
       -6.22644e-06 -4.5897323e-06 9.602173e-06 7.0018755e-06
0001e0 94 8e 0d b5 35 4b dd b6 56 cb c2 34 e8 bb e4 b6
       -5.273407e-07 -6.5950685e-06 3.6283262e-07 -6.8168047e-06
0001f0 87 5a ab b6 f5 80 19 b7 73 2b 42 36 a5 56 97 b6
       -5.106736e-06 -9.149536e-06 2.8933543e-06 -4.5102374e-06
000200 d8 7d 06 b7 45 0a f6 b5 d1 fa cf 36 87 8e 5e 36
       -8.016323e-06 -1.8331417e-06 6.1982796e-06 3.316354e-06
000210 3a 9e d3 36 87 f8 ba bc a1 38 8a b9 69 ab 12 3d
       6.30671e-06 -0.022823585 -0.00026363603 0.035808
000220 a0 32 31 b6 d0 e4 bc 36 8a 35 0b b7 4c 67 3b b6
       -2.6404523e-06 5.629474e-06 -8.297511e-06 -2.7925298e-06
000230 a1 89 c7 36 24 cf 9d b6 97 33 a1 36 93 b9 9e b6
       5.9466843e-06 -4.703079e-06 4.8041798e-06 -4.7303706e-06
000240 ee c7 c3 b6 d3 5f d1 36 af ca cb b6 ab c2 01 37
       -5.8347277e-06 6.239841e-06 -6.073467e-06 7.734324e-06
000250 40 5b 9c b6 10 2d fe 36 79 71 97 b5 ee b9 92 34
       -4.659785e-06 7.575036e-06 -1.1283402e-06 2.73299e-07
000260 16 c6 ba 34 bc 32 1b b7 e0 f2 37 b6 e8 82 bf 36
       3.4789326e-07 -9.2505325e-06 -2.7410497e-06 5.707483e-06
000270 f0 89 a8 b6 13 c3 de 36 d0 4e 7c b6 19 46 21 b7
       -5.022848e-06 6.638825e-06 -3.75968e-06 -9.612669e-06
000280 13 23 59 b6 7f 15 0f 37 f4 f9 d8 35 1a 39 57 36
       -3.2355936e-06 8.528469e-06 1.6166e-06 3.2070734e-06
000290 13 6e 66 36 cf 99 ad b6 ca 6e aa 34 24 05 90 36
       3.4336742e-06 -5.1737075e-06 3.1745577e-07 4.292133e-06
0002a0 b0 2d cf 36 a5 a1 8d b6 fe 67 1b 37 ce ec 18 37
       6.1743995e-06 -4.2209454e-06 9.2629325e-06 9.115041e-06
0002b0 9e 96 f2 b5 75 98 12 37 cf 30 6e 36 91 85 04 37
       -1.807424e-06 8.737775e-06 3.5493174e-06 7.8989115e-06
0002c0 5a 3d 1e 37 d7 3d 76 36 27 21 0a 36 36 de d6 36
       9.431818e-06 3.6692852e-06 2.05829e-06 6.4035657e-06
0002d0 e9 02 25 b4 27 3e 07 37 5c a3 49 b4 e9 b7 05 37
       -1.5367881e-07 8.061098e-06 -1.8779014e-07 7.970238e-06
0002e0 9f e5 9b b5 33 1c ff 36 e1 5b a8 b5 07 5d df 36
       -1.1615228e-06 7.602875e-06 -1.2543716e-06 6.6567477e-06
0002f0 85 8d 1a 37 b3 83 ca 35 92 e8 9f 35 f5 ae b7 36
       9.212065e-06 1.5088502e-06 1.191411e-06 5.4741927e-06
000300 00 db a4 b6 6f f9 92 36 b1 7b 24 b7 8b 39 e4 35
       -4.913076e-06 4.380177e-06 -9.803961e-06 1.7004071e-06
000310 b3 8f ab 36 de 0b d6 34 b6 e0 0a 37 ec 6a c6 36
       5.112926e-06 3.986924e-07 8.277761e-06 5.913307e-06
000320 d2 75 17 b7 fe 18 8b bc 88 e4 4f b9 fe 30 da 3c
       -9.0277335e-06 -0.01697969 -0.00019826193 0.02663469
000330 6c a4 f3 b6 b8 98 4e 35 aa 27 b4 b6 cc 43 ac 36
       -7.2611056e-06 7.6963215e-07 -5.3690355e-06 5.133892e-06
000340 02 8e 06 b6 a0 c4 88 34 94 81 89 b6 8d c6 78 b5
       -2.0050215e-06 2.5475038e-07 -4.098003e-06 -9.267613e-07
000350 13 d4 f4 b4 db 04 8d b6 1e d7 96 36 44 17 ba b6
       -4.5602846e-07 -4.2026927e-06 4.4953913e-06 -5.5459404e-06
000360 09 e9 a0 b6 e0 0f 21 37 fe bc c4 b6 0e 97 72 b4
       -4.7955004e-06 9.600044e-06 -5.863257e-06 -2.259296e-07
000370 71 25 e7 b6 b4 c4 09 b7 eb 29 f7 36 3b b3 f7 36
       -6.888695e-06 -8.211635e-06 7.3660535e-06 7.382039e-06
000380 1f 53 01 37 db 18 94 36 29 5e 7f 35 41 bf c2 b6
       7.708352e-06 4.4136373e-06 9.5131924e-07 -5.8039154e-06
000390 3e 2d f6 36 8e 5c c1 b6 9a 77 e2 b6 58 35 56 b6
       7.336638e-06 -5.762623e-06 -6.7492483e-06 -3.1919535e-06
0003a0 c5 82 18 b7 80 2d c6 b6 57 4f 5a b6 58 b3 b4 36
       -9.090353e-06 -5.9061567e-06 -3.2530713e-06 5.3852964e-06
0003b0 b0 e8 a5 36 49 10 72 36 84 af 39 36 89 42 df b6
       4.9444716e-06 3.607029e-06 2.7669312e-06 -6.6536636e-06
0003c0 79 de 06 b6 06 0d f6 b5 0e 31 89 b6 8f 35 ee 35
       -2.0097052e-06 -1.8332219e-06 -4.088629e-06 1.7747969e-06
0003d0 ed d8 c3 b6 2e 83 c6 36 f0 55 fa 36 8c a5 00 b3
       -5.8367064e-06 5.916131e-06 7.460585e-06 -2.9952886e-08
0003e0 7b 46 0d 37 90 bc 33 b6 00 7b 52 36 ab c7 03 37
       8.420665e-06 -2.6782836e-06 3.1364034e-06 7.854697e-06
0003f0 5c 0f db b6 1f ab fb b6 71 e2 93 36 1b f6 3e 36
       -6.5284967e-06 -7.500304e-06 4.4073026e-06 2.8455459e-06

linear_layers.0.bias f4 [64]
000000 7f e0 4f b6 93 6d 01 3b 0d b8 c2 3a 6a 45 31 3a
       -3.0976078e-06 0.001974915 0.0014855877 0.00067623577
000010 3e 34 bf 33 48 a4 c1 b6 7c 3e 31 3a 74 cb 14 34
       8.9036334e-08 -5.770973e-06 0.0006761325 1.385759e-07
000020 55 3d 92 3a bf fc 02 37 e2 20 e9 39 85 e3 1b 33
       0.0011157194 7.807451e-06 0.00044465723 3.6295678e-08
000030 c3 1e 8d 38 b0 53 d0 34 0c b1 5b 3a 71 80 ab 3a
       6.729134e-05 3.880391e-07 0.0008380569 0.0013084543
000040 3f 44 f7 36 73 e8 d0 37 0f 9f a8 b5 20 c4 d4 34
       7.3691185e-06 2.4903775e-05 -1.2563268e-06 3.9630777e-07
000050 42 de a8 3a ce de 02 37 89 6f 19 3a 50 a5 5e 3a
       0.0012883621 7.80048e-06 0.0005853107 0.00084932614
000060 af 62 19 34 00 45 e2 3a 6a 49 08 3b 1b eb 4c 3b
       1.4285136e-07 0.0017262995 0.0020795711 0.0031268063
000070 47 90 f3 3a db 64 35 b6 2c 65 15 37 ad 8d 7f b6
       0.0018582427 -2.7029807e-06 8.904648e-06 -3.8080427e-06
000080 d2 47 49 3a e0 04 db 3a 21 8a 8c 3a 4d f6 d8 34
       0.00076782436 0.0016709827 0.0010722318 4.0412343e-07
000090 8d 47 97 3a 16 08 8d b6 c5 b3 90 39 33 e0 72 3a
       0.001154171 -4.203069e-06 0.0002759976 0.00092649757
0000a0 56 da 14 3a 02 84 e1 3a fd be ba 3a 82 a5 3b 36
       0.00056782865 0.0017205479 0.0014247593 2.796151e-06
0000b0 22 68 9c 35 f7 b5 20 36 95 26 dc 34 e3 11 08 3b
       1.1653212e-06 2.3947775e-06 4.1006265e-07 0.0020762614
0000c0 92 3f d9 37 9e f4 14 b7 db ff 1b 34 fb 4f f2 b6
       2.5898018e-05 -8.878442e-06 1.452858e-07 -7.221473e-06
0000d0 46 41 28 3b 34 ac 74 3a 3e 48 20 36 3d 06 44 3b
       0.0025673672 0.00093335216 2.3883908e-06 0.0029910945
0000e0 14 5f 97 3a 71 88 e6 36 6a bb b6 39 e3 ee 26 3a
       0.0011548721 6.870418e-06 0.0003485338 0.00063679944
0000f0 e7 a7 1d b6 29 64 69 39 34 8c 79 34 36 6b 30 3a
       -2.3492555e-06 0.00022257924 2.3240938e-07 0.0006729843
