trained_models/model_2021-11-29_11-24-57.pt (torch, 76033 bytes, 11 tensors)

gat_layer1.linear_l.weight f4 [64, 8]
0	0xb8032ab5	-3.1272608e-05
1	0xb6c70e63	-5.932337e-06
2	0xb7b017d4	-2.099193e-05
3	0x3809e901	3.2880347e-05
4	0xb5f27522	-1.8064495e-06
5	0x37a395a5	1.9500798e-05
6	0xb7b72e79	-2.183694e-05
7	0xb78f18b7	-1.7058437e-05
8	0x381aa631	3.687124e-05
9	0x370a77e3	8.253354e-06
10	0x37b809e2	2.1939111e-05
11	0x37f093de	2.8679086e-05
12	0xb6c0e1f5	-5.7483508e-06
13	0x3616e2f9	2.2483857e-06
14	0xb7c88dfd	-2.3907976e-05
15	0xb7edc4ea	-2.8344297e-05
16	0xb779e159	-1.4894024e-05
17	0xb78a8820	-1.651427e-05
18	0xb80d4b36	-3.3687065e-05
19	0x36dcd102	6.5808426e-06
20	0xb81c14bd	-3.7212612e-05
21	0xb8088621	-3.2549844e-05
22	0x3810d150	3.4527213e-05
23	0xb79897d5	-1.8190514e-05
24	0x36bb70f3	5.5861833e-06
25	0xb747a8be	-1.1900613e-05
26	0x3803c6e2	3.1418058e-05
27	0xb7f94ced	-2.9718934e-05
28	0x380de8f1	3.3833963e-05
29	0xb7f92c32	-2.9703693e-05
30	0x371b3ffe	9.253619e-06
31	0x37fefa62	3.0395753e-05
32	0xb7bc02e9	-2.2412702e-05
33	0xb807e5f9	-3.2400687e-05
34	0xb58d3bb8	-1.0522699e-06
35	0x374b5ed1	1.2121819e-05
36	0x37f7852f	2.9506713e-05
37	0x379f5067	1.8991717e-05
38	0xb7708b20	-1.4337507e-05
39	0x373f9eeb	1.1421488e-05
40	0x380c8006	3.3497832e-05
41	0x3833a340	4.2828964e-05
42	0x380e84ed	3.3979235e-05
43	0x378f3b73	1.7074612e-05
44	0x3810cf87	3.452555e-05
45	0x37bf5f3d	2.2813323e-05
46	0x35b9639a	1.3812562e-06
47	0x381beb73	3.717416e-05
48	0xb7bb0274	-2.229328e-05
49	0xb7a93f4d	-2.0175847e-05
50	0x381219e4	3.4833225e-05
51	0xb824a116	-3.925067e-05
52	0x37a8ed9c	2.0137806e-05
53	0x372fa992	1.0470294e-05
54	0xb7af0c13	-2.0867248e-05
55	0x37ceae49	2.4638271e-05
56	0xb6e6a43c	-6.8736535e-06
57	0xb8227449	-3.873211e-05
58	0xb70f443f	-8.539354e-06
59	0x3738c98b	1.101418e-05
60	0x37eac7db	2.7988039e-05
61	0x37abd6ed	2.0484871e-05
62	0xb72d9813	-1.0347011e-05
63	0x38001568	3.0537514e-05
64	0xb823d5c1	-3.9061302e-05
65	0xb8251ad6	-3.936406e-05
66	0x37a8b424	2.0111045e-05
67	0x3820a6f0	3.8302445e-05
68	0x37997767	1.8294622e-05
69	0xb80b6822	-3.3237164e-05
70	0x381f5c3c	3.7994454e-05
71	0x37ddd550	2.6444584e-05
72	0x36f1a615	7.201694e-06
73	0xb7eb7749	-2.806973e-05
74	0x38214a15	3.8454386e-05
75	0xb7565ebc	-1.2777451e-05
76	0xb745ba78	-1.1785531e-05
77	0xb80f99df	-3.423716e-05
78	0xb7994fb1	-1.827613e-05
79	0x37a321a0	1.9446772e-05
80	0x37adc7cb	2.0716243e-05
81	0x3807b9a9	3.2359418e-05
82	0x354c8acc	7.61979e-07
83	0xb7ead620	-2.7994683e-05
84	0x36594069	3.2373011e-06
85	0x3803a0d3	3.1382613e-05
86	0x3814eae1	3.5504698e-05
87	0xb81ec2e7	-3.7851652e-05
88	0x36cf6583	6.1808983e-06
89	0xb8271224	-3.9832797e-05
90	0x37140fa3	8.825128e-06
91	0x37b169f8	2.114939e-05
92	0xb6a98e09	-5.0531276e-06
93	0x36e6de11	6.880386e-06
94	0xb725e111	-9.887169e-06
95	0x37e8715f	2.7709348e-05
96	0xb5e5da03	-1.7125279e-06
97	0xb7fb457c	-2.9953888e-05
98	0x381688d6	3.5890225e-05
99	0x369a0914	4.5906145e-06
100	0xb80b5269	-3.3216933e-05
101	0xb7b5c6a1	-2.1669375e-05
102	0x365577d6	3.1809227e-06
103	0xb7c2e2de	-2.3232245e-05
104	0x381c3c7a	3.724962e-05
105	0x3801c4d9	3.0939325e-05
106	0xb59b9b20	-1.1593547e-06
107	0x378d4da9	1.6844673e-05
108	0xb8187399	-3.6347283e-05
109	0x369532fd	4.446482e-06
110	0xb6aa0e5d	-5.068067e-06
111	0x3734e915	1.0783105e-05
112	0x37a96ab1	2.0196052e-05
113	0x380e880b	3.3982138e-05
114	0xb671b3b6	-3.6016404e-06
115	0x381ad058	3.6910496e-05
116	0x3718f79a	9.117555e-06
117	0x37718dae	1.4397707e-05
118	0xb5f3fe08	-1.8178844e-06
119	0xb7144b88	-8.839073e-06
120	0x368754d6	4.0331897e-06
121	0x36d6f535	6.406243e-06
122	0x3720c9b1	9.583703e-06
123	0x3806c585	3.2132044e-05
124	0xb7c1abcb	-2.308739e-05
125	0xb8180b84	-3.625035e-05
126	0x37f181cd	2.8789882e-05
127	0xb6ae630e	-5.1971356e-06
128	0xb6998ab0	-4.5759007e-06
129	0xb8020ac3	-3.1004438e-05
130	0xb82284bd	-3.8747432e-05
131	0xb8239c95	-3.9008057e-05
132	0x37a8a72c	2.0105006e-05
133	0xb7708f08	-1.4338417e-05
134	0x36778a17	3.6886247e-06
135	0xb807eb49	-3.2405635e-05
136	0xb606064e	-1.9971226e-06
137	0xb8028157	-3.1114872e-05
138	0xb7f331aa	-2.8990984e-05
139	0x38213da6	3.8442806e-05
140	0x381cb7f5	3.736462e-05
141	0xb81ed4a0	-3.7868158e-05
142	0x36fc9e81	7.5286375e-06
143	0xb7c40aa0	-2.3369968e-05
144	0x36abc1a5	5.1187403e-06
145	0xb76354bc	-1.3549983e-05
146	0x37ec5e8a	2.8177416e-05
147	0xb7f03133	-2.863314e-05
148	0xb773ee14	-1.4539361e-05
149	0xb5a7d9b6	-1.2505832e-06
150	0xb6fd04be	-7.5405396e-06
151	0x37ac09ed	2.050862e-05
152	0xb60a01ac	-2.0564576e-06
153	0x378972b7	1.6385091e-05
154	0xb401ff5d	-1.2106962e-07
155	0x380b9424	3.327815e-05
156	0x37f7ad85	2.9525496e-05
157	0x376b8197	1.4037264e-05
158	0x370b5a33	8.306047e-06
159	0xb7fdf08d	-3.0271965e-05
160	0xb7859017	-1.5921933e-05
161	0xb780d1f4	-1.5356556e-05
162	0xb802b40e	-3.1162104e-05
163	0xb70300d9	-7.808406e-06
164	0xb7742f39	-1.4554528e-05
165	0xb6bf9e92	-5.7107036e-06
166	0xb711265c	-8.651605e-06
167	0xb6753282	-3.6537244e-06
168	0xb7e2cdc2	-2.7037113e-05
169	0xb80b9c6e	-3.328587e-05
170	0x37eff179	2.8603465e-05
171	0xb6b21866	-5.3076537e-06
172	0xb69ba62f	-4.6387063e-06
173	0xb78d9636	-1.6878457e-05
174	0x37d07fc4	2.4855028e-05
175	0xb6e45dd9	-6.805855e-06
176	0xb78a40cc	-1.6481055e-05
177	0xb6354c1b	-2.70154e-06
178	0xb80feb21	-3.4312838e-05
179	0xb823d086	-3.905643e-05
180	0x3669cebd	3.4840043e-06
181	0xb7d0ec60	-2.4905603e-05
182	0x37e8a51a	2.7733437e-05
183	0xb7cd297d	-2.4457224e-05
184	0xb7828ea7	-1.5563635e-05
185	0x376ba7b7	1.4046141e-05
186	0xb7f5d9b8	-2.930766e-05
187	0xb81929fa	-3.6517136e-05
188	0x37145ebe	8.843546e-06
189	0xb81bd581	-3.715372e-05
190	0x382185ca	3.8509992e-05
191	0x37b63c3f	2.1724145e-05
192	0xb7c00012	-2.2888216e-05
193	0x37a52b3e	1.9689669e-05
194	0xb8090a89	-3.2673157e-05
195	0xb7643e16	-1.36043145e-05
196	0x382094e3	3.8285634e-05
197	0x381d0185	3.7433132e-05
198	0xb7922330	-1.7420942e-05
199	0xb6d26ffd	-6.271525e-06
200	0xb7900748	-1.7169528e-05
201	0x38077ed9	3.2304644e-05
202	0xb7650456	-1.3650473e-05
203	0x380173b8	3.086377e-05
204	0xb72069f9	-9.561417e-06
205	0x375ad759	1.3043952e-05
206	0xb7d4003e	-2.5272482e-05
207	0x37c67206	2.3656536e-05
208	0x37d76a9d	2.5679643e-05
209	0x37d18efd	2.4981326e-05
210	0x3810f392	3.4559118e-05
211	0x339d6b5d	7.3304115e-08
212	0x35e185bc	1.6802728e-06
213	0xb65fc831	-3.3346116e-06
214	0xb7746897	-1.4567885e-05
215	0x373ec6e4	1.137119e-05
216	0x37aa1002	2.0273033e-05
217	0xb8401e03	-4.5804318e-05
218	0xb77c2075	-1.50279275e-05
219	0xb648b5d0	-2.9908151e-06
220	0xb722ded9	-9.707838e-06
221	0x37f3b2a7	2.9051049e-05
222	0x34ffe17b	4.766151e-07
223	0x3798843e	1.8181392e-05
224	0xb7d293a7	-2.5102707e-05
225	0xb7ca3b3b	-2.4107858e-05
226	0x360d9626	2.1098035e-06
227	0x3490a3c4	2.6941245e-07
228	0x37b2dd29	2.132224e-05
229	0x37934af6	1.7558672e-05
230	0xb80d3a04	-3.367105e-05
231	0xb7c6910c	-2.3670982e-05
232	0x363e4d64	2.8357254e-06
233	0xb8204882	-3.82145e-05
234	0xb7bc8379	-2.2472568e-05
235	0xb7e44607	-2.7212327e-05
236	0xb6507024	-3.105969e-06
237	0x37fd1757	3.0170819e-05
238	0xb7e82a89	-2.7676362e-05
239	0xb8161577	-3.5782778e-05
240	0xb73919c2	-1.10328565e-05
241	0xb7dd4a8a	-2.6379963e-05
242	0xb73db5f7	-1.1307645e-05
243	0x38076ca1	3.2287677e-05
244	0x35903417	1.0743996e-06
245	0x37b047be	2.1014243e-05
246	0x3823ef8a	3.9085317e-05
247	0x3797cbd4	1.8095518e-05
248	0x37aebf79	2.0831578e-05
249	0x36f7145f	7.363545e-06
250	0x37b1f6fd	2.1215057e-05
251	0x373adfa4	1.1138534e-05
252	0xb7b07453	-2.1035003e-05
253	0x37983186	1.8142873e-05
254	0xb6142011	-2.2072384e-06
255	0xb6bd3bae	-5.6395866e-06

gat_layer1.linear_r.weight f4 [64, 8]
0	0x36077ae6	2.0188104e-06
1	0x3880a118	6.133522e-05
2	0x36c3ce09	5.8354385e-06
3	0x3820dd48	3.8353057e-05
4	0x379a4231	1.8389053e-05
5	0xb62e289b	-2.5951656e-06
6	0x379bfb14	1.8594357e-05
7	0x3850adf2	4.9753064e-05
8	0x3712de08	8.753974e-06
9	0xb74ea60d	-1.23172185e-05
10	0x35ecdbd1	1.7647345e-06
11	0xb81e3f64	-3.7729173e-05
12	0x37e8a7bb	2.773466e-05
13	0xb8035a5c	-3.1316988e-05
14	0x3783386e	1.5642694e-05
15	0xb6a82f75	-5.012315e-06
16	0x3739c55b	1.107281e-05
17	0xb8351bc8	-4.3179636e-05
18	0xb8089096	-3.2559583e-05
19	0xb7369aa8	-1.0884054e-05
20	0xb7a14834	-1.9226318e-05
21	0xb8023156	-3.1040363e-05
22	0xb5d2ff14	-1.5720457e-06
23	0xb6dc89e0	-6.5725617e-06
24	0x38133f09	3.5106237e-05
25	0x38795d43	5.9453083e-05
26	0x37f2f8c6	2.8964492e-05
27	0xb801659a	-3.085062e-05
28	0xb723527c	-9.734762e-06
29	0x355e27b4	8.275922e-07
30	0xb7d6ad90	-2.559161e-05
31	0x378801b4	1.6213256e-05
32	0x37d8607a	2.5794132e-05
33	0xb6eefccf	-7.1223835e-06
34	0xb7dff0b8	-2.6695765e-05
35	0x37ea8069	2.795477e-05
36	0xb73eb81a	-1.1367747e-05
37	0x3784daf1	1.5837579e-05
38	0xb5c6aa71	-1.4801755e-06
39	0xb8219b2d	-3.852991e-05
40	0x382325bd	3.8897375e-05
41	0x37951843	1.7773482e-05
42	0xb73dbe02	-1.13095175e-05
43	0xb8083787	-3.247664e-05
44	0x381a84cc	3.6840138e-05
45	0xb807ec2b	-3.2406457e-05
46	0x3786343b	1.5998367e-05
47	0xb67b6a27	-3.7463703e-06
48	0x37f2c84d	2.894192e-05
49	0xb80c9bb3	-3.3523607e-05
50	0x3813d5db	3.52467e-05
51	0x38127502	3.4918085e-05
52	0xb7b697b1	-2.1766728e-05
53	0xb727a84e	-9.993162e-06
54	0x37888e67	1.6278775e-05
55	0x37a96eab	2.0197904e-05
56	0xb81f9f01	-3.8056638e-05
57	0xb8168f3f	-3.5896195e-05
58	0x37a4adb6	1.9631214e-05
59	0xb7d8f21e	-2.5861951e-05
60	0xb72284af	-9.686845e-06
61	0xb7b53ffd	-2.1606678e-05
62	0xb70c2d5c	-8.355211e-06
63	0xb785884f	-1.591831e-05
64	0x37ad1106	2.0631134e-05
65	0xb82cb504	-4.117658e-05
66	0xb79673c8	-1.7935308e-05
67	0xb80e3b59	-3.391071e-05
68	0xb7f5f1fc	-2.9318959e-05
69	0x37df369a	2.6609097e-05
70	0x37cec0f2	2.464696e-05
71	0xb793c129	-1.7613713e-05
72	0x38040893	3.1479238e-05
73	0xb78ebce3	-1.7015676e-05
74	0x375abe75	1.3038157e-05
75	0xb82703f0	-3.981957e-05
76	0xb7834421	-1.5648142e-05
77	0xb7638be2	-1.3562823e-05
78	0x37d02ac9	2.4815456e-05
79	0xb7c59032	-2.3551376e-05
80	0xb80157d0	-3.083778e-05
81	0x36df72f3	6.6592997e-06
82	0xb81e4302	-3.773254e-05
83	0x36dcf850	6.5854183e-06
84	0xb682664d	-3.8862113e-06
85	0xb7f2bdfa	-2.8937113e-05
86	0xb68228de	-3.8790595e-06
87	0xb806cded	-3.2139873e-05
88	0xb80f2989	-3.413254e-05
89	0x37fb20ce	2.9936808e-05
90	0xb811d5cd	-3.476981e-05
91	0xb7a38041	-1.9490837e-05
92	0xb808e018	-3.263363e-05
93	0x383da3e2	4.521374e-05
94	0xb7b87d6a	-2.199291e-05
95	0x373af101	1.1142577e-05
96	0xb7a4339a	-1.9574352e-05
97	0x38bf84a2	9.1322945e-05
98	0xb801a18c	-3.090645e-05
99	0xb735227d	-1.0796471e-05
100	0xb7cc72b4	-2.4372108e-05
101	0x3814004d	3.528623e-05
102	0x37d764d9	2.5676958e-05
103	0x38d14621	9.978959e-05
104	0x37989270	1.8188002e-05
105	0x38ad39d8	8.260057e-05
106	0xb8204127	-3.820765e-05
107	0x380db86d	3.378878e-05
108	0x378fa02b	1.7121512e-05
109	0x3712a9ee	8.741843e-06
110	0xb637f6a6	-2.7412693e-06
111	0x388ae630	6.6232285e-05
112	0xb65c157c	-3.279506e-06
113	0xb82be2db	-4.0980853e-05
114	0xb79e2bcf	-1.8855468e-05
115	0xb58c9180	-1.0473159e-06
116	0xb5fa1a46	-1.8634098e-06
117	0xb80b5b04	-3.3224947e-05
118	0xb7b11950	-2.1111831e-05
119	0xb83bff3a	-4.4821973e-05
120	0x38188150	3.6360056e-05
121	0xb803dc68	-3.1438103e-05
122	0xb7e37cd4	-2.7118636e-05
123	0xb7fc6fb6	-3.009276e-05
124	0x36b11f01	5.2786204e-06
125	0xb787edde	-1.620402e-05
126	0xb7ccf783	-2.4433952e-05
127	0xb5b012b0	-1.3118461e-06
128	0xb791077b	-1.728883e-05
129	0x38b2bb6b	8.522611e-05
130	0xb7f78916	-2.950853e-05
131	0xb7879053	-1.616046e-05
132	0xb714addf	-8.86197e-06
133	0x3792b473	1.7488584e-05
134	0x38176b52	3.6101155e-05
135	0x38deba43	0.00010620479
136	0xb7970ea1	-1.8007415e-05
137	0xb7693cd9	-1.3902049e-05
138	0x3749e597	1.2033989e-05
139	0x36f86108	7.402272e-06
140	0xb7bdc84e	-2.262383e-05
141	0x35e3532f	1.6937028e-06
142	0x37ec420a	2.8164144e-05
143	0xb808f05b	-3.2648775e-05
144	0xb78fda13	-1.7148477e-05
145	0x38448f6e	4.686362e-05
146	0xb7c2b823	-2.3212348e-05
147	0x379025af	1.7183685e-05
148	0x3775702f	1.4629258e-05
149	0x37c6b83d	2.3689232e-05
150	0x37ff4952	3.0432511e-05
151	0x38cdca8e	9.8128905e-05
152	0xb78ba761	-1.6648033e-05
153	0xb80628b0	-3.1985983e-05
154	0xb68074b1	-3.828282e-06
155	0x37086d89	8.131735e-06
156	0xb79e1979	-1.884693e-05
157	0x37f0f08e	2.8722246e-05
158	0xb80d1b7c	-3.3642616e-05
159	0xb86b5fbd	-5.611753e-05
160	0x380f0b41	3.4104338e-05
161	0x3631af74	2.6477182e-06
162	0x37b8f454	2.2048283e-05
163	0x37832f7e	1.5638532e-05
164	0x36a540e8	4.9249393e-06
165	0xb6d13777	-6.2351423e-06
166	0xb6d8addd	-6.457542e-06
167	0xb8428fcd	-4.638713e-05
168	0x3717213a	9.0080375e-06
169	0x3841387c	4.606739e-05
170	0x37ae2015	2.0757356e-05
171	0xb7c59028	-2.3551358e-05
172	0xb6b9aa35	-5.5332443e-06
173	0xb7d1aa94	-2.4994173e-05
174	0xb808593b	-3.250803e-05
175	0x3899c00a	7.3313786e-05
176	0xb7ff0543	-3.0400819e-05
177	0x3792495a	1.7438713e-05
178	0xb80546b3	-3.1775515e-05
179	0xb81c55a0	-3.7273043e-05
180	0x369f8de2	4.7550866e-06
181	0x3732b402	1.0651538e-05
182	0xb7976756	-1.8048722e-05
183	0x381ceeda	3.7415746e-05
184	0x356a6cb6	8.732999e-07
185	0x37a04b22	1.9108473e-05
186	0x37e3a628	2.7137881e-05
187	0x37960e42	1.7888033e-05
188	0xb77c1e43	-1.5027416e-05
189	0x362b8b0f	2.5561928e-06
190	0x377bbf3b	1.500529e-05
191	0x387a2ad1	5.964452e-05
192	0xb7e76ced	-2.7588068e-05
193	0x35339547	6.6899923e-07
194	0xb7cdd935	-2.453905e-05
195	0x379f5b00	1.8996652e-05
196	0xb81500d6	-3.5525147e-05
197	0x37ba7954	2.2229426e-05
198	0xb79ee47d	-1.8941466e-05
199	0xb81949da	-3.6546822e-05
200	0xb7abb5d8	-2.0469466e-05
201	0xb7c41689	-2.3375515e-05
202	0x37d076cb	2.485085e-05
203	0x359e4b7b	1.1793885e-06
204	0x3752b0f1	1.2558173e-05
205	0xb800087b	-3.0525476e-05
206	0x37ff086c	3.040229e-05
207	0xb5309e3a	-6.579536e-07
208	0xb800a5dd	-3.067205e-05
209	0xb6ab183c	-5.0990184e-06
210	0x35b90d9a	1.3787533e-06
211	0xb7b30de9	-2.134494e-05
212	0xb78b412a	-1.6600436e-05
213	0x37ecdb31	2.8235461e-05
214	0x371fb004	9.51812e-06
215	0xb853f877	-5.053772e-05
216	0xb75c03f1	-1.31139395e-05
217	0x38bdc271	9.04844e-05
218	0xb8127589	-3.4918576e-05
219	0xb738dcee	-1.1018694e-05
220	0xb60d2c9f	-2.103661e-06
221	0xb7fc3b30	-3.0068302e-05
222	0x37657da8	1.367872e-05
223	0x38d26b16	0.000100335266
224	0xb819b79f	-3.6649053e-05
225	0x36ed9886	7.0809065e-06
226	0x3810b133	3.4497305e-05
227	0x37decbc7	2.6559354e-05
228	0x37ea8a11	2.7959266e-05
229	0x363fb896	2.856866e-06
230	0xb6046b91	-1.9732145e-06
231	0xb839e450	-4.432007e-05
232	0xb8084b83	-3.2495253e-05
233	0xb7db4fd8	-2.6144015e-05
234	0xb7ee2737	-2.8390072e-05
235	0x37f5a00a	2.92808e-05
236	0xb7c6a4ee	-2.368024e-05
237	0x36b73cfd	5.460925e-06
238	0x380428ec	3.1509364e-05
239	0xb62214e2	-2.4152037e-06
240	0xb809fd91	-3.2899497e-05
241	0xb6b90f01	-5.5151763e-06
242	0x38138fbb	3.518139e-05
243	0x37278f7e	9.987385e-06
244	0xb73f4a77	-1.1401825e-05
245	0x382bc770	4.0955318e-05
246	0xb77e8515	-1.5170565e-05
247	0xb8195ffb	-3.656743e-05
248	0xb7c1acf5	-2.3087932e-05
249	0xb818d724	-3.643999e-05
250	0x374e7e16	1.23079135e-05
251	0xb80123bc	-3.0789277e-05
252	0x3718d8f3	9.110418e-06
253	0xb78664dd	-1.6021013e-05
254	0xb72a2700	-1.014187e-05
255	0xb7769217	-1.4696757e-05

gat_layer1.attn.weight f4 [1, 64]
0	0xb75cd434	-1.3162429e-05
1	0xb5c88679	-1.4940298e-06
2	0x36f7d513	7.3859787e-06
3	0xb71efb8c	-9.476102e-06
4	0x3552aded	7.848419e-07
5	0x37d2bcb8	2.512183e-05
6	0xb75efba8	-1.3290824e-05
7	0xb649be72	-3.0062188e-06
8	0xb79d8dd5	-1.8781904e-05
9	0x36ef1178	7.1247887e-06
10	0xb6a2f606	-4.856617e-06
11	0xb7859099	-1.5922169e-05
12	0xb5f132f6	-1.7970731e-06
13	0x37f14333	2.876073e-05
14	0xb6e95cd8	-6.9547496e-06
15	0x37715172	1.4383682e-05
16	0xb7bf48d7	-2.2802893e-05
17	0xb76e2731	-1.419503e-05
18	0xb6773c63	-3.6841018e-06
19	0x361dadb8	2.349594e-06
20	0xb6edfd7b	-7.0926594e-06
21	0xb758aa9c	-1.2914326e-05
22	0xb76e3f8f	-1.4200704e-05
23	0xb694aa49	-4.4305675e-06
24	0x36fc5b15	7.5207886e-06
25	0x37848e4b	1.5801887e-05
26	0x3771f8a1	1.4422608e-05
27	0xb7fd3993	-3.018676e-05
28	0xb7829b0e	-1.556941e-05
29	0x35facac0	1.868546e-06
30	0xb7224d39	-9.673932e-06
31	0x37805d32	1.5302187e-05
32	0x36fe7b4a	7.5841426e-06
33	0xb6b26c3b	-5.317413e-06
34	0xb6df104e	-6.647816e-06
35	0x38231e49	3.8890434e-05
36	0x38244a11	3.9169627e-05
37	0xb7a4c806	-1.9643467e-05
38	0xb6df21c2	-6.649848e-06
39	0x37af2b12	2.0881682e-05
40	0xb7629665	-1.3505666e-05
41	0xb68fee9a	-4.289509e-06
42	0xb764878c	-1.36214185e-05
43	0xb6b54d94	-5.4032516e-06
44	0x379df426	1.8829549e-05
45	0xb778f601	-1.4839229e-05
46	0x37fdd34a	3.025834e-05
47	0x3673ee42	3.6348506e-06
48	0x37c107c6	2.3011013e-05
49	0x353c996e	7.025873e-07
50	0xb5cae8e4	-1.5117953e-06
51	0xb70eafb9	-8.504773e-06
52	0x375fe0ad	1.3344147e-05
53	0x3807467a	3.2252145e-05
54	0x35fb51f4	1.8724809e-06
55	0x376d171e	1.4131683e-05
56	0xb53821c8	-6.85945e-07
57	0x3581f3ed	9.682241e-07
58	0x37033ef5	7.822867e-06
59	0x37e8d810	2.7757167e-05
60	0xb5e64b79	-1.7158301e-06
61	0xb5c90959	-1.4978388e-06
62	0x376ab334	1.3989211e-05
63	0x3797addc	1.8081562e-05

gat_layer.linear_l.weight f4 [64, 64]
0	0x372d5d2c	1.0333297e-05
1	0x375c37a0	1.3125973e-05
2	0x362f4e1e	2.6122502e-06
3	0xb635a2a0	-2.7065762e-06
4	0x36e71aa9	6.88744e-06
5	0x36ff1ea7	7.6031606e-06
6	0xb66793de	-3.4507752e-06
7	0x375c6939	1.3137521e-05
8	0xb7575a86	-1.2836075e-05
9	0x3700c029	7.674135e-06
10	0x35d197f2	1.5615935e-06
11	0xb74402fd	-1.1683206e-05
12	0x367af0d0	3.7393074e-06
13	0x352e0227	6.4823183e-07
14	0x375461cb	1.2658954e-05
15	0x372bba0a	1.023571e-05
16	0x370b1abe	8.291272e-06
17	0x373d2ccf	1.1275711e-05
18	0xb7585227	-1.2893731e-05
19	0x366aab1c	3.4968316e-06
20	0x371eff29	9.476943e-06
21	0xb7129d35	-8.738881e-06
22	0x36c4ff0e	5.8709475e-06
23	0xb6c9210d	-5.9941144e-06
24	0xb6d96995	-6.4793953e-06
25	0x37210c4c	9.599211e-06
26	0x36308c05	2.6307546e-06
27	0xb620c511	-2.3956566e-06
28	0xb6841014	-3.9357783e-06
29	0x35927e53	1.0914613e-06
30	0xb64df408	-3.0689425e-06
31	0xb72bb5f0	-1.0234755e-05
32	0x3625487a	2.4629103e-06
33	0x37070b5f	8.049275e-06
34	0x36b0516b	5.254687e-06
35	0x35321065	6.6334024e-07
36	0xb53f1874	-7.118863e-07
37	0xb705487c	-7.944294e-06
38	0xb6a824ab	-5.011059e-06
39	0xb6d8fd90	-6.46682e-06
40	0x37395afc	1.1048043e-05
41	0x370640ca	8.002107e-06
42	0xb5e8cce9	-1.7344984e-06
43	0xb74bf5ad	-1.2156944e-05
44	0xb706d304	-8.036153e-06
45	0x3673fd63	3.6357312e-06
46	0x3723ba7c	9.758976e-06
47	0xb72164b1	-9.619792e-06
48	0x372e216c	1.037899e-05
49	0x375fab85	1.3331771e-05
50	0xb697b31f	-4.521003e-06
51	0xb72275ac	-9.68335e-06
52	0xb6a5663f	-4.929286e-06
53	0x3733a175	1.0706824e-05
54	0xb5eb9477	-1.7552073e-06
55	0xb6b688aa	-5.4399325e-06
56	0x3706069d	7.988562e-06
57	0xb685376a	-3.97016e-06
58	0x36870c5c	4.0247523e-06
59	0xb721fc0b	-9.655031e-06
60	0xb480b1f4	-2.3971336e-07
61	0xb70e1b04	-8.47015e-06
62	0xb753bfc8	-1.2621233e-05
63	0xb5dc6578	-1.6420809e-06
64	0xb5e93500	-1.7375278e-06
65	0xb4c16b24	-3.6027006e-07
66	0x3734b338	1.0770564e-05
67	0xb6b1258b	-5.2793816e-06
68	0x365ec966	3.3197807e-06
69	0x3671f890	3.605648e-06
70	0x36d29170	6.275419e-06
71	0x36dd27c1	6.590941e-06
72	0xb689a806	-4.1024787e-06
73	0xb6f5ae89	-7.3218876e-06
74	0x37524913	1.2533989e-05
75	0xb7046ef1	-7.893644e-06
76	0x3737be90	1.0952019e-05
77	0x373d3a62	1.1278871e-05
78	0xb729da4e	-1.0124013e-05
79	0x36083700	2.0297593e-06
80	0xb6af311a	-5.2211226e-06
81	0x3715d657	8.930997e-06
82	0x37668bc6	1.3741612e-05
83	0x36eb8830	7.0194e-06
84	0xb76cca5e	-1.4113813e-05
85	0x376859e6	1.3849209e-05
86	0xb7559690	-1.2730845e-05
87	0xb72cc56b	-1.0297964e-05
88	0x3615b59a	2.2308436e-06
89	0x371d3646	9.370566e-06
90	0x372e1eb7	1.037836e-05
91	0xb6a4866b	-4.903229e-06
92	0x370398a1	7.843745e-06
93	0x36c6cce6	5.924713e-06
94	0xb5e3fbef	-1.698614e-06
95	0xb75026cc	-1.2406799e-05
96	0xb73c675b	-1.12297375e-05
97	0x350d58f2	5.2656026e-07
98	0x36c05c70	5.732807e-06
99	0xb5a62ea0	-1.2381533e-06
100	0xb70241c9	-7.763921e-06
101	0x374c2720	1.2168457e-05
102	0xb752d1f6	-1.2565861e-05
103	0x36373ea4	2.7305587e-06
104	0x3708f370	8.162911e-06
105	0xb74c60cc	-1.2181885e-05
106	0x3756bb27	1.2798969e-05
107	0x3704130f	7.8722505e-06
108	0x3696daf4	4.495838e-06
109	0x373401c5	1.0729248e-05
110	0x369480fa	4.4257586e-06
111	0x368ecb3a	4.2555885e-06
112	0x37169b92	8.976918e-06
113	0x352dbe68	6.47246e-07
114	0x374ec576	1.2324532e-05
115	0xb71c0f8c	-9.301944e-06
116	0x35448eb5	7.3223356e-07
117	0xb3703407	-5.5926673e-08
118	0xb743b34f	-1.1664654e-05
119	0x368ed652	4.25688e-06
120	0x360cba01	2.0969894e-06
121	0x36a9abc0	5.056587e-06
122	0xb5929448	-1.0921003e-06
123	0xb66f88ad	-3.569333e-06
124	0x36a7b85a	4.998449e-06
125	0xb7585415	-1.289418e-05
126	0x362ac668	2.5447462e-06
127	0x37047429	7.894859e-06
128	0x37283dad	1.002794e-05
129	0xb74fda84	-1.2389039e-05
130	0x3620d848	2.396775e-06
131	0x36d3d5a8	6.313163e-06
132	0xb6449eb3	-2.929865e-06
133	0x375fcf08	1.3340039e-05
134	0xb6b7d604	-5.4787397e-06
135	0x370f7137	8.549824e-06
136	0xb64f3f32	-3.0882188e-06
137	0x3414fb5d	1.387502e-07
138	0xb74cba6e	-1.2202754e-05
139	0x36258ff8	2.4670717e-06
140	0xb71c0f3b	-9.301871e-06
141	0x332f0d80	4.075764e-08
142	0xb75f98aa	-1.3327381e-05
143	0x36ec3eb9	7.04065e-06
144	0xb758157e	-1.2879607e-05
145	0x3731bf1f	1.0594521e-05
146	0xb718ed6f	-9.115188e-06
147	0xb67cb7df	-3.7657953e-06
148	0x36df4375	6.653771e-06
149	0xb5e1bb72	-1.681836e-06
150	0xb6a929db	-5.041465e-06
151	0x3333e580	4.1885414e-08
152	0xb70684a0	-8.017902e-06
153	0x370e11a2	8.467965e-06
154	0x370061a2	7.652126e-06
155	0x366ddf13	3.5445598e-06
156	0x37510ecb	1.2460815e-05
157	0x371a3a7f	9.192735e-06
158	0x373481f8	1.0759097e-05
159	0x36d8b0d8	6.457889e-06
160	0x37042078	7.875373e-06
161	0xb7311f01	-1.0557241e-05
162	0xb7555d3d	-1.2717498e-05
163	0xb7331590	-1.0674252e-05
164	0xb565491a	-8.5415525e-07
165	0xb75fda7f	-1.3342708e-05
166	0xb4f9a78c	-4.650177e-07
167	0x36cdd85d	6.134664e-06
168	0x368268b7	3.8864923e-06
169	0x36b01d79	5.24864e-06
170	0xb68d574b	-4.2122897e-06
171	0xb6b1c9bb	-5.2984956e-06
172	0x375311ec	1.2580753e-05
173	0x374469f4	1.17071795e-05
174	0xb731dd80	-1.0601594e-05
175	0x375ba976	1.3092873e-05
176	0x374b7753	1.2127525e-05
177	0x3732d083	1.0658175e-05
178	0x365a2806	3.2507828e-06
179	0x36baf88b	5.572166e-06
180	0xb7360df0	-1.085129e-05
181	0x3694e11a	4.436949e-06
182	0x374474a8	1.17096715e-05
183	0x3677a76a	3.6903316e-06
184	0xb671c0a3	-3.6023928e-06
185	0x368d5611	4.212147e-06
186	0x36a3056d	4.85841e-06
187	0x371087e0	8.614705e-06
188	0x35b13d17	1.3205307e-06
189	0x369bce51	4.6433784e-06
190	0x374e5c49	1.2300044e-05
191	0x36f1e6e6	7.20924e-06
192	0x369debac	4.7064004e-06
193	0xb6844a6e	-3.9425713e-06
194	0xb7522121	-1.2524689e-05
195	0x34af4e0b	3.2653074e-07
196	0xb72e07a2	-1.0372985e-05
197	0x368c8f12	4.1889807e-06
198	0xb668e7cb	-3.4705615e-06
199	0xb5fd6d81	-1.8881839e-06
200	0xb67d9337	-3.7785628e-06
201	0xb72b7b77	-1.0221141e-05
202	0x36a13b0b	4.8050474e-06
203	0x371582c0	8.911535e-06
204	0x3724b570	9.817406e-06
205	0x3535c064	6.770772e-07
206	0xb71c8cfe	-9.331152e-06
207	0x36fe38f7	7.5764215e-06
208	0x36cf6d45	6.1818014e-06
209	0x37051a5b	7.933554e-06
210	0xb7458cfe	-1.1774942e-05
211	0x348e63e3	2.6522238e-07
212	0xb691bd38	-4.3433647e-06
213	0x3766ad75	1.3749454e-05
214	0x373d226e	1.1273294e-05
215	0xb735d19f	-1.0837247e-05
216	0x37092d89	8.176438e-06
217	0x375a66cb	1.3017746e-05
218	0x372ec300	1.041661e-05
219	0x3677aefc	3.6907722e-06
220	0xb6d79897	-6.425263e-06
221	0x36b26d03	5.317504e-06
222	0x37232459	9.72402e-06
223	0xb61e3f93	-2.358084e-06
224	0xb6cd066f	-6.110225e-06
225	0x36884611	4.0612726e-06
226	0xb7069e09	-8.023818e-06
227	0x37795bbe	1.4862917e-05
228	0xb71dd3e0	-9.40726e-06
229	0x35f00c7f	1.788503e-06
230	0xb74a52d0	-1.20594195e-05
231	0xb5a91a5f	-1.2599156e-06
232	0xb7123067	-8.713548e-06
233	0xb6ebf8cc	-7.0325095e-06
234	0xb648cf2e	-2.9922917e-06
235	0x377bc959	1.5007646e-05
236	0x371a5c2b	9.200575e-06
237	0xb73d3cf6	-1.1279471e-05
238	0x35ebce21	1.7568856e-06
239	0xb648305b	-2.983047e-06
240	0x376cff5d	1.4126153e-05
241	0x36798e22	3.7186624e-06
242	0x35299821	6.317878e-07
243	0xb6d187e9	-6.2445074e-06
244	0xb71547de	-8.897825e-06
245	0x36f556e7	7.3116857e-06
246	0xb6f5879c	-7.317356e-06
247	0xb6fafcdc	-7.4800173e-06
248	0xb74e7b55	-1.2307272e-05
249	0xb705ee97	-7.982969e-06
250	0x373554d4	1.0808191e-05
251	0xb70094e3	-7.66406e-06
252	0xb72e9b2e	-1.0407339e-05
253	0xb7387e78	-1.09967e-05
254	0x371efdf5	9.476663e-06
255	0xb5e0ae05	-1.6739947e-06

gat_layer.linear_r.weight f4 [64, 64]
0	0xb64cd1b7	-3.052044e-06
1	0xb77c9df5	-1.5057148e-05
2	0xb6191c48	-2.2815238e-06
3	0xb672e7d4	-3.6195752e-06
4	0xb6c3d638	-5.836391e-06
5	0xb689cac0	-4.1065214e-06
6	0x36ce5c6b	6.1500373e-06
7	0xb7810c31	-1.5383675e-05
8	0xb6296402	-2.5241175e-06
9	0xb73ff020	-1.1440396e-05
10	0xb6478eaf	-2.9736364e-06
11	0xb7173b0b	-9.014048e-06
12	0x37eab109	2.7977412e-05
13	0x36dbae03	6.5469662e-06
14	0x35b8d17f	1.377004e-06
15	0xb77d8210	-1.5110258e-05
16	0x380a41e8	3.2963144e-05
17	0xb72a2292	-1.0140839e-05
18	0x37cf18d0	2.4687877e-05
19	0xb74ef697	-1.23359705e-05
20	0xb7b85cd4	-2.1977736e-05
21	0x33b67609	8.496506e-08
22	0x35318733	6.613438e-07
23	0x374d235e	1.2227187e-05
24	0xb79aa406	-1.843461e-05
25	0x36af4aff	5.224137e-06
26	0xb722a991	-9.695433e-06
27	0x369a0309	4.589911e-06
28	0xb72b8877	-1.0224167e-05
29	0xb73145e5	-1.0566296e-05
30	0xb73f3cd1	-1.1398647e-05
31	0xb73065f6	-1.0514157e-05
32	0xb708ce4a	-8.154262e-06
33	0x36609926	3.3467745e-06
34	0x37feff26	3.0397972e-05
35	0x37f5fc5c	2.932379e-05
36	0x36837124	3.9172755e-06
37	0x379adb61	1.8460387e-05
38	0xb7a19d84	-1.9266045e-05
39	0xb6a2ab7c	-4.8479396e-06
40	0x342a5062	1.5861727e-07
41	0xb735cfaf	-1.0836796e-05
42	0x373c7493	1.1232815e-05
43	0x3745ddd1	1.1793761e-05
44	0xb7081f14	-8.113468e-06
45	0x36dae170	6.5231507e-06
46	0xb69b54ca	-4.6292307e-06
47	0x373a6991	1.1111043e-05
48	0x35aee2ca	1.3030015e-06
49	0x36e7740c	6.897846e-06
50	0xb64168d3	-2.8820257e-06
51	0x36251cef	2.4603758e-06
52	0x36d04873	6.2073173e-06
53	0x361aaa2a	2.3046837e-06
54	0xb746cab0	-1.18489115e-05
55	0xb7700c78	-1.4308018e-05
56	0xb60cc63a	-2.0977009e-06
57	0x37878024	1.6152924e-05
58	0x379ec9ec	1.8929095e-05
59	0xb68655d3	-4.0035025e-06
60	0xb6dd0fc4	-6.5881486e-06
61	0xb7747198	-1.4569981e-05
62	0x3768c324	1.3873712e-05
63	0xb72523bb	-9.8430855e-06
64	0x373173db	1.0576997e-05
65	0xb63cd448	-2.8137747e-06
66	0xb6b83f48	-5.490994e-06
67	0x3724ad86	9.815563e-06
68	0x3787a5fb	1.6170545e-05
69	0xb69b5448	-4.6291716e-06
70	0xb79b113a	-1.8485462e-05
71	0xb77b99f5	-1.4996612e-05
72	0xb736f49f	-1.0905001e-05
73	0xb75ed1e7	-1.3281103e-05
74	0x368e1328	4.23416e-06
75	0x37f9df03	2.9786961e-05
76	0x379ac803	1.8451368e-05
77	0x375dae22	1.321317e-05
78	0x35714e5b	8.989352e-07
79	0x36c44655	5.849443e-06
80	0xb5143b47	-5.5220556e-07
81	0xb7294cdd	-1.0091081e-05
82	0x37db1ddb	2.6120737e-05
83	0x37503f89	1.2412559e-05
84	0xb65df822	-3.3075999e-06
85	0x374f7bb1	1.2366961e-05
86	0x35b40da0	1.341501e-06
87	0xb6e81730	-6.916838e-06
88	0x369d4429	4.6868995e-06
89	0xb788c341	-1.6303386e-05
90	0xb7339cee	-1.07057695e-05
91	0x36bfaa0b	5.712039e-06
92	0xb79c5093	-1.863417e-05
93	0x369c60dc	4.660438e-06
94	0x379fa923	1.9033037e-05
95	0xb7bf4972	-2.2803175e-05
96	0x36a0d53d	4.793196e-06
97	0x37b618a5	2.1707567e-05
98	0x371ee4c5	9.470798e-06
99	0xb62e52f8	-2.5976315e-06
100	0x36d27e33	6.273179e-06
101	0xb6e8a346	-6.9331463e-06
102	0xb596d529	-1.1237909e-06
103	0xb7a41b01	-1.9562898e-05
104	0x37cacf69	2.417686e-05
105	0x3713e1b5	8.814434e-06
106	0x37c1012e	2.3007942e-05
107	0x380fec0e	3.43137e-05
108	0x36e237fc	6.7418423e-06
109	0x36e035df	6.6819916e-06
110	0x3784d4ca	1.5834714e-05
111	0xb74cc7d3	-1.2205873e-05
112	0xb78bc7b7	-1.666309e-05
113	0x35c01467	1.4311053e-06
114	0xb68672f2	-4.0068926e-06
115	0x3503b096	4.905827e-07
116	0xb7cdf641	-2.4552575e-05
117	0x3724112a	9.779158e-06
118	0x37e11b28	2.6834736e-05
119	0x370ba1cf	8.32272e-06
120	0xb51ca32c	-5.8351975e-07
121	0xb76d72bd	-1.4153015e-05
122	0xb76ffa83	-1.4303837e-05
123	0x37aeb6fc	2.0827625e-05
124	0x370286da	7.780001e-06
125	0x35dbe708	1.638401e-06
126	0xb708a148	-8.143783e-06
127	0x379d475b	1.8749086e-05
128	0x3711914a	8.676501e-06
129	0x3783066b	1.5619406e-05
130	0x3612afbe	2.185799e-06
131	0x3693e273	4.4073035e-06
132	0xb6d57bb7	-6.362297e-06
133	0x35c298f9	1.4498647e-06
134	0xb6b1a36c	-5.294036e-06
135	0xb743958b	-1.1657724e-05
136	0x36fa0197	7.4507657e-06
137	0x3776fe2b	1.4721921e-05
138	0xb6c7fdb9	-5.9601994e-06
139	0x37f65b68	2.936805e-05
140	0xb6e69444	-6.8717945e-06
141	0x36812306	3.848577e-06
142	0x352ec5f1	6.5108094e-07
143	0xb5192f30	-5.706561e-07
144	0xb776f982	-1.4720836e-05
145	0xb62b2654	-2.5503296e-06
146	0xb6605a15	-3.3431036e-06
147	0x380f0c9d	3.4105604e-05
148	0x378df938	1.6924561e-05
149	0xb777636d	-1.4745497e-05
150	0xb25f2ac5	-1.2990033e-08
151	0xb7805d5e	-1.5302267e-05
152	0x3741ecd9	1.1558842e-05
153	0x3624cebc	2.455824e-06
154	0x37510ed1	1.24608205e-05
155	0x35a8d747	1.2579629e-06
156	0x33814f88	6.021497e-08
157	0x358215c4	9.692089e-07
158	0x37b27399	2.1273083e-05
159	0xb7021f17	-7.7558425e-06
160	0xb60f7041	-2.1374e-06
161	0x37902026	1.7181108e-05
162	0x362a8ac7	2.5412753e-06
163	0xb702242f	-7.7570285e-06
164	0x37468d00	1.1834549e-05
165	0xb79937a3	-1.826493e-05
166	0xb63b782e	-2.7935125e-06
167	0x371fbd9f	9.521288e-06
168	0x37438d6f	1.1655836e-05
169	0x373e24b0	1.13334245e-05
170	0x37439ac8	1.1658944e-05
171	0xb67ba636	-3.7498662e-06
172	0x37acd62a	2.0603726e-05
173	0xb5cad850	-1.5113128e-06
174	0x376ce229	1.4119353e-05
175	0x365e5694	3.3130973e-06
176	0xb6a75f98	-4.9881164e-06
177	0x36637985	3.389637e-06
178	0xb769ce20	-1.3935874e-05
179	0x368aa7d8	4.13226e-06
180	0xb65b702a	-3.269883e-06
181	0xb722c85c	-9.702602e-06
182	0x3746263a	1.181062e-05
183	0xb6bbaa19	-5.5928363e-06
184	0xb706ff88	-8.046518e-06
185	0xb71592d3	-8.915277e-06
186	0x369eaaf8	4.7286703e-06
187	0xb5270428	-6.2218396e-07
188	0x37a76f54	1.9959793e-05
189	0x368ada18	4.13811e-06
190	0x35c8bea5	1.4956646e-06
191	0x36acae09	5.14626e-06
192	0xb7c5cbd6	-2.3579149e-05
193	0xb75bc213	-1.3098604e-05
194	0x3668dda8	3.4699715e-06
195	0x36a90b23	5.037889e-06
196	0xb620d25b	-2.39643e-06
197	0xb71d11d6	-9.362082e-06
198	0xb712684b	-8.726561e-06
199	0x376404fd	1.359102e-05
200	0x36b133a6	5.2810237e-06
201	0x36924466	4.3591017e-06
202	0x36cbcd76	6.0737902e-06
203	0xb7f21a0f	-2.8860783e-05
204	0x36e65caf	6.865324e-06
205	0xb720e6f6	-9.590518e-06
206	0x3730064c	1.0491884e-05
207	0xb4f41963	-4.5467013e-07
208	0x35e50abb	1.7064953e-06
209	0xb72ecdab	-1.0419094e-05
210	0x36e1aae5	6.7254173e-06
211	0xb8122148	-3.4840108e-05
212	0xb7aa669c	-2.031336e-05
213	0x34a9669b	3.1553358e-07
214	0x36e7ce17	6.9083285e-06
215	0xb706c88f	-8.033719e-06
216	0xb7b4575e	-2.1498356e-05
217	0x36d3f912	6.3172856e-06
218	0x3738d22a	1.1016187e-05
219	0xb6cfb88e	-6.1905657e-06
220	0xb7368190	-1.08782115e-05
221	0xb70d51c2	-8.423291e-06
222	0xb703651e	-7.831752e-06
223	0xb48f550c	-2.6697705e-07
224	0xb7176ee4	-9.02612e-06
225	0x3673b7df	3.6316849e-06
226	0x3571e3cf	9.0111e-07
227	0xb70241b7	-7.763904e-06
228	0xb784768a	-1.5790825e-05
229	0xb6ad90e4	-5.1726693e-06
230	0xb7bb686c	-2.2340762e-05
231	0xb6640fc1	-3.3983818e-06
232	0xb7d57302	-2.5445133e-05
233	0xb741a774	-1.1542685e-05
234	0xb69b6aa0	-4.6317728e-06
235	0x367bb8e3	3.7509533e-06
236	0xb79f4ab8	-1.898907e-05
237	0xb70d5cec	-8.42589e-06
238	0xb6a69f30	-4.9657174e-06
239	0x36c31ba3	5.81467e-06
240	0x3797c2c2	1.8091294e-05
241	0x37288661	1.0044868e-05
242	0x3781b89d	1.5463966e-05
243	0xb7c9e573	-2.4067913e-05
244	0x37a917e4	2.0157495e-05
245	0xb695a03f	-4.459201e-06
246	0xb7d744b4	-2.566199e-05
247	0x36daaa80	6.516755e-06
248	0x36a26bf2	4.8405427e-06
249	0x371b9e75	9.275614e-06
250	0xb7104350	-8.598741e-06
251	0xb79f6d49	-1.9005167e-05
252	0x3687f675	4.052005e-06
253	0x375aca77	1.3040953e-05
254	0x36aa31ec	5.0722065e-06
255	0xb6f7966b	-7.3786846e-06

gat_layer.attn.weight f4 [1, 64]
0	0xb6323f47	-2.65609e-06
1	0x3779ee00	1.489697e-05
2	0x36144e53	2.209931e-06
3	0x3791e6eb	1.7392877e-05
4	0x356e3fce	8.8754757e-07
5	0x3765a028	1.3686753e-05
6	0x3701a515	7.727435e-06
7	0x375a0fb0	1.2997465e-05
8	0xb54debcc	-7.671158e-07
9	0xb7763677	-1.4675424e-05
10	0x3787c2b8	1.6183927e-05
11	0xb6ad8436	-5.171193e-06
12	0xb73528ae	-1.0797912e-05
13	0x369ae67a	4.6163887e-06
14	0x3703c9ea	7.85522e-06
15	0x379c79e2	1.8653405e-05
16	0xb722b08f	-9.697061e-06
17	0x35c2e1cc	1.4519842e-06
18	0xb378a545	-5.789231e-08
19	0x36a0fbad	4.7976705e-06
20	0xb65ae82f	-3.261968e-06
21	0xb6eb485c	-7.0119695e-06
22	0x36df878d	6.661698e-06
23	0xb72091a0	-9.570649e-06
24	0x3779230b	1.4849716e-05
25	0x353a3e24	6.9380826e-07
26	0xb734d97d	-1.0779474e-05
27	0x37332289	1.0677272e-05
28	0x36d564f5	6.3596476e-06
29	0xb7506e49	-1.2423444e-05
30	0x3768ceb3	1.38764035e-05
31	0xb736b572	-1.0890291e-05
32	0xb5a15531	-1.2020229e-06
33	0x36d3398a	6.2949885e-06
34	0x3655094b	3.1744883e-06
35	0x361bd10b	2.321848e-06
36	0xb64ce8a0	-3.0533774e-06
37	0xb705722d	-7.954001e-06
38	0x3713d73e	8.811998e-06
39	0x3477f8b5	2.3094147e-07
40	0x36a29a76	4.845958e-06
41	0xb74f7180	-1.2364588e-05
42	0xb736ef28	-1.0903728e-05
43	0x36d12e64	6.234086e-06
44	0xb69b2f8d	-4.6248956e-06
45	0x37689013	1.38618225e-05
46	0x368db0c9	4.222708e-06
47	0xb7502981	-1.24074295e-05
48	0xb6ee24d7	-7.0972415e-06
49	0xb687d41f	-4.0480077e-06
50	0x37559b70	1.273198e-05
51	0x3591c33c	1.0860163e-06
52	0x3749e072	1.2032791e-05
53	0x370d706d	8.430431e-06
54	0xb7067da4	-8.016275e-06
55	0xb6a81a7b	-5.009873e-06
56	0x369e1f06	4.7123785e-06
57	0x3647b5a6	2.9759044e-06
58	0xb72b4984	-1.0209511e-05
59	0x3694779a	4.424667e-06
60	0xb78525b3	-1.587239e-05
61	0x3702dfac	7.8006815e-06
62	0x372e87af	1.04027995e-05
63	0xb6591f25	-3.2353648e-06

linear_layers.0.weight f4 [64, 68]
0	0x36507a55	3.1065622e-06
1	0x37deec7d	2.6574586e-05
2	0xb6031fa9	-1.953895e-06
3	0xb70eb47c	-8.505882e-06
4	0x37b67a11	2.1752932e-05
5	0xb780ed3a	-1.5369256e-05
6	0x37f6f435	2.9439203e-05
7	0x374ab2d7	1.2081778e-05
8	0x3749dd4c	1.2032058e-05
9	0x37a822e0	2.00434e-05
10	0xb68a2c8f	-4.117908e-06
11	0xb7adc88f	-2.07166e-05
12	0xb6503517	-3.1025318e-06
13	0xb6ad00fe	-5.1559173e-06
14	0x37159c65	8.9175055e-06
15	0xb7205f3a	-9.558915e-06
16	0x36f478d9	7.285835e-06
17	0xb781eca1	-1.5488187e-05
18	0xb7019323	-7.723257e-06
19	0xb797f7c0	-1.811597e-05
20	0xb7acf8df	-2.0619887e-05
21	0xb6e2a229	-6.754203e-06
22	0x3779c803	1.4888125e-05
23	0x379d2ae2	1.8735827e-05
24	0x38274b7c	3.9886203e-05
25	0xb7239a2d	-9.751454e-06
26	0x35a4c631	1.2276633e-06
27	0xb7b59a4c	-2.1648731e-05
28	0xb6a72703	-4.9815294e-06
29	0xb68634d8	-3.999663e-06
30	0xb7777bfb	-1.4751214e-05
31	0x3663305d	3.3853787e-06
32	0xb651a351	-3.123849e-06
33	0x37401105	1.14480545e-05
34	0xb6deb632	-6.637326e-06
35	0x3480b75d	2.3975272e-07
36	0xb795c04d	-1.7851731e-05
37	0x37a6c528	1.988055e-05
38	0xb7100567	-8.584327e-06
39	0x37a391ab	1.9498946e-05
40	0xb6a28325	-4.8432435e-06
41	0xb7a01448	-1.908293e-05
42	0xb7947a4c	-1.7699924e-05
43	0x372d460b	1.0327912e-05
44	0x36baae8f	5.5635533e-06
45	0xb74cc49c	-1.2205124e-05
46	0xb74ef67e	-1.2335948e-05
47	0x37aae46c	2.0371946e-05
48	0x370f4d32	8.541438e-06
49	0x36f1287f	7.187074e-06
50	0x369cf6b6	4.677883e-06
51	0x37caec95	2.4190444e-05
52	0xb66ae4cc	-3.5001895e-06
53	0x379a6908	1.840714e-05
54	0xb6d43b95	-6.3250286e-06
55	0xb5bbe96a	-1.4000518e-06
56	0x376cd585	1.411641e-05
57	0x366d739d	3.5383048e-06
58	0x37002bdc	7.639606e-06
59	0xb677449d	-3.6845806e-06
60	0xb774e734	-1.45973645e-05
61	0x374882ee	1.1951413e-05
62	0x3656eac5	3.2025139e-06
63	0xb7a6aae1	-1.9868314e-05
64	0x3670dac9	3.5890137e-06
65	0xb906bf53	-0.0001285051
66	0xba9592ed	-0.0011411585
67	0xbb418f51	-0.0029534886
68	0xb6d77187	-6.4207156e-06
69	0x37bbebf1	2.2402006e-05
70	0x37729ee4	1.4461319e-05
71	0xb7b33b55	-2.1366091e-05
72	0x379a9d52	1.8431489e-05
73	0xb6eb82ae	-7.018759e-06
74	0x36c49322	5.8583837e-06
75	0x3732dcb9	1.0661018e-05
76	0x35521d2c	7.8273547e-07
77	0x3787050f	1.609561e-05
78	0x36e01ede	6.6793136e-06
79	0xb76d261f	-1.4135177e-05
80	0xb6ff9b1a	-7.6176484e-06
81	0xb6b36185	-5.3459685e-06
82	0xb64f0847	-3.0850222e-06
83	0xb69d78c0	-4.6930218e-06
84	0x35bdce85	1.4141702e-06
85	0xb7252d94	-9.845378e-06
86	0x37647385	1.36167555e-05
87	0xb7108ed8	-8.616327e-06
88	0x3658c5ce	3.2301646e-06
89	0x3730fbe3	1.0549064e-05
90	0x3793be1c	1.7612292e-05
91	0x373683be	1.0878719e-05
92	0x37ecdb44	2.8235496e-05
93	0xb6007846	-1.9143495e-06
94	0xb6fbdc07	-7.5059975e-06
95	0xb777c652	-1.4768522e-05
96	0x3624c8d4	2.4554802e-06
97	0x372bf5b2	1.02496e-05
98	0x35ae0167	1.2964418e-06
99	0xb787fa61	-1.6209846e-05
100	0xb797870d	-1.806349e-05
101	0x36c32881	5.816168e-06
102	0x3626b7c6	2.4842898e-06
103	0xb6edf530	-7.091694e-06
104	0xb6b6144f	-5.426387e-06
105	0xb5b7bec4	-1.3690083e-06
106	0xb693d812	-4.4060953e-06
107	0x3742e2f4	1.1616143e-05
108	0xb71f3487	-9.4893685e-06
109	0xb6f47d19	-7.28633e-06
110	0xb78ead87	-1.7008524e-05
111	0xb69b3551	-4.625567e-06
112	0xb6b55b30	-5.404836e-06
113	0x3646ee60	2.9643052e-06
114	0x35e6ead7	1.7204683e-06
115	0x378e1abd	1.694017e-05
116	0x3742ce69	1.161136e-05
117	0x36ff0ff5	7.60145e-06
118	0x36debede	6.6383354e-06
119	0x37b2209e	2.1234442e-05
120	0x369d1fa6	4.682649e-06
121	0x365b4abb	3.2677042e-06
122	0x370cb314	8.386345e-06
123	0x35b9544e	1.380811e-06
124	0x3749a87a	1.201976e-05
125	0xb7700acd	-1.43076295e-05
126	0x3633a8a0	2.6771231e-06
127	0x363a9512	2.780293e-06
128	0x36c87d8b	5.9750796e-06
129	0xb6bd513f	-5.642097e-06
130	0x37695b42	1.390913e-05
131	0xb7907cea	-1.7224305e-05
132	0x37252b79	9.844888e-06
133	0xb8a9c3c1	-8.09501e-05
134	0xba3c4927	-0.00071825314
135	0xbaf3a9d9	-0.0018590047
136	0x37104858	8.599913e-06
137	0xb4db2433	-4.0818267e-07
138	0xb6b10f7b	-5.276813e-06
139	0xb733ed23	-1.0724444e-05
140	0xb4d95a0d	-4.048492e-07
141	0xb7111e50	-8.649731e-06
142	0xb6f8a646	-7.4103327e-06
143	0x369f500e	4.747889e-06
144	0xb7191bce	-9.125984e-06
145	0xb6ff9ef7	-7.618098e-06
146	0x3651e58d	3.1277043e-06
147	0xb686a05a	-4.0121786e-06
148	0xb6d66571	-6.3895063e-06
149	0x37325d9d	1.0631423e-05
150	0x36e39a21	6.78307e-06
151	0xb694e889	-4.4378144e-06
152	0x369d9e19	4.6973696e-06
153	0xb6ceca29	-6.162813e-06
154	0xb70111ec	-7.693172e-06
155	0xb6d2abad	-6.2784734e-06
156	0x374b4601	1.2116042e-05
157	0x375bdb2b	1.3104446e-05
158	0xb7514e24	-1.2475564e-05
159	0x374cb107	1.2200565e-05
160	0x36f12d8e	7.187663e-06
161	0x35fa6308	1.8655273e-06
162	0xb6225cb7	-2.4193848e-06
163	0x37350af4	1.0790991e-05
164	0xb56f6ad4	-8.9189894e-07
165	0xb6f68ad8	-7.347535e-06
166	0xb5bedf3d	-1.4221074e-06
167	0x3761fe7d	1.3470298e-05
168	0xb5e4c40f	-1.7044384e-06
169	0xb7546448	-1.2659533e-05
170	0xb5b11d48	-1.319605e-06
171	0x3694021f	4.4109906e-06
172	0x36336568	2.6732105e-06
173	0xb733d8ce	-1.071971e-05
174	0xb516dc8b	-5.6200287e-07
175	0x3605d506	1.994254e-06
176	0x36526078	3.134859e-06
177	0x3610830f	2.1533958e-06
178	0xb6642d20	-3.4000914e-06
179	0x36a82afa	5.0117933e-06
180	0xb758d865	-1.2924987e-05
181	0xb75bd860	-1.3103796e-05
182	0x368f8221	4.276881e-06
183	0xb6ef13d0	-7.1250615e-06
184	0x36aa024b	5.0666617e-06
185	0x332e4fc7	4.058509e-08
186	0x36a64391	4.9550513e-06
187	0xb7336535	-1.06927955e-05
188	0xb63f3411	-2.8491525e-06
189	0xb62c54ee	-2.5679433e-06
190	0x37084c36	8.123976e-06
191	0xb6af9004	-5.232172e-06
192	0x36547429	3.1658076e-06
193	0xb69a325d	-4.5954207e-06
194	0xb70a34fa	-8.237776e-06
195	0xb6bd15d5	-5.6351805e-06
196	0x351b2305	5.779296e-07
197	0x3748fdd9	1.19800325e-05
198	0xb71f6464	-9.5005125e-06
199	0x36eb3eb6	7.0108463e-06
200	0x3629b791	2.5289812e-06
201	0x3cd23a76	0.025662642
202	0x3b8df168	0.0043317564
203	0xb78969a6	-1.6380869e-05
204	0xb782729f	-1.5550582e-05
205	0x3780ab3c	1.5338526e-05
206	0x37d1443c	2.4946516e-05
207	0xb7e5652f	-2.7346045e-05
208	0x37136d54	8.787338e-06
209	0xb69ffbb9	-4.7678736e-06
210	0x37a40dfc	1.9556835e-05
211	0x37556140	1.2718432e-05
212	0x37ca4247	2.411114e-05
213	0x377c85d3	1.5051529e-05
214	0xb66d7a39	-3.5386895e-06
215	0xb7814a4d	-1.5412597e-05
216	0x36b58f5a	5.4109087e-06
217	0x3766bb26	1.3752642e-05
218	0x37ffd349	3.0496756e-05
219	0x375135d1	1.2469901e-05
220	0x37ab1904	2.0396437e-05
221	0x3711a0de	8.680128e-06
222	0xb6e138b9	-6.712126e-06
223	0xb757968d	-1.28500515e-05
224	0xb7ae0ddd	-2.0748872e-05
225	0x3778a80c	1.4821078e-05
226	0x374a7bd2	1.2068967e-05
227	0x376393cd	1.3564667e-05
228	0x38348f70	4.304893e-05
229	0xb6e5b13e	-6.8453655e-06
230	0xb6a8045b	-5.007297e-06
231	0xb7320192	-1.0609992e-05
232	0x36f2df46	7.2381545e-06
233	0x37093a76	8.179448e-06
234	0xb7deddc6	-2.6567734e-05
235	0xb526b536	-6.2103516e-07
236	0xb79ed5ed	-1.8934685e-05
237	0x378b8d4b	1.6635886e-05
238	0xb76d78a3	-1.4154389e-05
239	0x36cbe4ab	6.076492e-06
240	0xb7cf352f	-2.4701088e-05
241	0x35e30f77	1.6917319e-06
242	0xb61f74af	-2.3760765e-06
243	0x37c3e869	2.3354036e-05
244	0xb76077df	-1.337935e-05
245	0xb7846e37	-1.5786949e-05
246	0xb7e8977e	-2.77271e-05
247	0x37cbd53a	2.4298777e-05
248	0x37078ad4	8.0789505e-06
249	0x36356737	2.703118e-06
250	0xb6a803bf	-5.0072263e-06
251	0x37c5d699	2.358416e-05
252	0x37a100ae	1.9193012e-05
253	0xb69e464d	-4.716951e-06
254	0xb6f5de1d	-7.3274264e-06
255	0x37f3819d	2.9028213e-05

linear_layers.0.bias f4 [64]
0	0x3c20c252	0.009811955
1	0x3bca5df5	0.0061757513
2	0x33c77245	9.287445e-08
3	0xb34b15d4	-4.7284473e-08
4	0xb5c97b2c	-1.5011515e-06
5	0xb657ab1a	-3.213709e-06
6	0x3b1b43a7	0.0023691447
7	0xb3a94640	-7.882454e-08
8	0x3b5e234b	0.0033895548
9	0x3c2eb3c1	0.010662974
10	0xb6397640	-2.7635979e-06
11	0x3a7f738c	0.0009744696
12	0xb68fd816	-4.286888e-06
13	0x3c32d065	0.010913943
14	0x3b249b61	0.0025117027
15	0xb761a652	-1.34497695e-05
16	0xb623d79c	-2.4414394e-06
17	0xb5fcf7ad	-1.8847546e-06
18	0x3c34a892	0.011026518
19	0x3b6f34f9	0.003650008
20	0xb69c6cc9	-4.6618266e-06
21	0xb7195652	-9.139609e-06
22	0xb3ebc9e2	-1.09797625e-07
23	0xb5b5a27b	-1.3532839e-06
24	0x3494e407	2.773306e-07
25	0x3c083be5	0.008315061
26	0xb63c9984	-2.810354e-06
27	0x35d07ca3	1.5533482e-06
28	0xb703486f	-7.825073e-06
29	0x34cdc34a	3.8326317e-07
30	0xb595927b	-1.1143997e-06
31	0x3a3d11ef	0.000721245
32	0x3cae9ba5	0.021314451
33	0x3c18910c	0.009311926
34	0xb6226e26	-2.4203996e-06
35	0xaf955533	-2.716348e-10
36	0xb6835dd0	-3.9150254e-06
37	0x338c36d8	6.529234e-08
38	0xb6897c07	-4.097357e-06
39	0x3a388180	0.000703834
40	0xb6e1416b	-6.713138e-06
41	0xb4bc8d9d	-3.5120766e-07
42	0x3acf1bb5	0.0015801104
43	0xb74e464b	-1.2294923e-05
44	0x30441b02	7.1342765e-10
45	0xb6fc9556	-7.5275702e-06
46	0xb10df782	-2.0658892e-09
47	0xb66dc270	-3.542893e-06
48	0xb5e97fd8	-1.739706e-06
49	0x3c2dde45	0.010612075
50	0xb50c1cec	-5.219615e-07
51	0x390992a0	0.0001311996
52	0xb63b89b2	-2.794532e-06
53	0xb6d9ed5f	-6.4947376e-06
54	0xb5928257	-1.0915782e-06
55	0x3b6fdbd5	0.0036599536
56	0x3cd95546	0.02652992
57	0x3c2e1ad1	0.010626511
58	0xb58b6546	-1.0385781e-06
59	0xb6eb81ee	-7.0186716e-06
60	0xb744b3af	-1.1724346e-05
61	0xb8750425	-5.841641e-05
62	0xb52e1944	-6.485682e-07
63	0xb4bb8751	-3.492992e-07

linear_layers.2.weight f4 [64, 64]
0	0x3a2cb2a9	0.0006587902
1	0x39dddb0c	0.00042315607
2	0xba7efb53	-0.0009726781
3	0xbaddc9e5	-0.0016921131
4	0xbaf22156	-0.001847307
5	0xbb350356	-0.0027620397
6	0x392f4463	0.00016714777
7	0xb8443444	-4.6778718e-05
8	0x396ff869	0.00022885356
9	0x3a3ff733	0.00073229073
10	0xbaa44ad7	-0.0012534511
11	0x38a1e72b	7.720137e-05
12	0xbbe7cbad	-0.0070738406
13	0x3a44e529	0.0007510954
14	0x393749f8	0.00017479795
15	0x353c1805	7.007041e-07
16	0xbb72aee1	-0.0037030505
17	0xba8cb988	-0.0010736445
18	0x3a423a6c	0.0007409218
19	0x397a1c3d	0.00023852377
20	0xbab36e5f	-0.0013689509
21	0xbc02a686	-0.007974273
22	0xb9e30acd	-0.0004330486
23	0xb9d1f005	-0.00040042415
24	0xbaa0b45b	-0.0012260781
25	0x3a144b2b	0.0005656953
26	0xbb8c6035	-0.0042839297
27	0xba9586fd	-0.0011408027
28	0xbbdde736	-0.0067719473
29	0xbb5569bc	-0.0032564243
30	0xba939c98	-0.0011261879
31	0x3814b74c	3.545666e-05
32	0x3abcab8e	0.0014394389
33	0x3a2343ce	0.000622806
34	0xbb78c7c9	-0.0037960878
35	0x358375ff	9.794602e-07
36	0xb6a130f5	-4.8038733e-06
37	0xb8e0a2dd	-0.00010711488
38	0xba3abc30	-0.0007123379
39	0x383333b3	4.2725074e-05
40	0xbbdc2cd9	-0.0067192134
41	0xba841c45	-0.0010079226
42	0x38ea880f	0.000111833324
43	0x3684bd1c	3.955922e-06
44	0xb731ea4a	-1.0604572e-05
45	0xbbf97ac2	-0.007613511
46	0xb911dfc4	-0.00013911637
47	0xbba73a3e	-0.0051033786
48	0xbb0a519a	-0.0021105767
49	0x3a3c84b9	0.0007191408
50	0xba155227	-0.00056961406
51	0x371f147f	9.481911e-06
52	0xbb5c7f17	-0.0033645087
53	0x37217675	9.623928e-06
54	0xbb3ab4d5	-0.0028489132
55	0x3986e95f	0.00025732347
56	0x3aebe503	0.0017997328
57	0x3a3b5cbe	0.00071473035
58	0xbab510ed	-0.0013814248
59	0xbb01baba	-0.0019795136
60	0x3448c71b	1.8698886e-07
61	0xb815e7af	-3.574014e-05
62	0xba1cbfeb	-0.0005979526
63	0xb9013f99	-0.0001232609
64	0x3b3567d5	0.0027680297
65	0x3ae39bae	0.0017365122
66	0xbc0470be	-0.00808352
67	0x3ac2a12e	0.0014849061
68	0x3ab09736	0.0013472799
69	0x3b039e51	0.0020083378
70	0x3a2b4594	0.00065335
71	0xb9cbbec1	-0.000388613
72	0x3a7799f2	0.0009445242
73	0x3b44a344	0.003000454
74	0xbbb00903	-0.005372168
75	0x398efb86	0.0002727175
76	0x3bb0d999	0.0053970334
77	0x3b4877e5	0.003058904
78	0x3a37ffb5	0.00070189993
79	0x36bb7e8b	5.587766e-06
80	0x3b3b4cfd	0.0028579824
81	0xbb95f482	-0.0045762667
82	0x3b4b7287	0.0031043605
83	0x3a853cc6	0.0010165207
84	0xbbbd9c73	-0.0057864725
85	0x3bc5b05e	0.0060329875
86	0xbaee7a78	-0.0018194458
87	0xbae06306	-0.0017119355
88	0xbc2d5686	-0.010579711
89	0x3b19e1e9	0.00234806
90	0x3b572b30	0.0032832138
91	0xbc2051db	-0.009785141
92	0x3ba43438	0.005011108
93	0xbce5afe6	-0.028037976
94	0x3a6110fd	0.00085856003
95	0x394739b5	0.00018999616
96	0x3bc4b25e	0.0060027083
97	0x3b2be586	0.0026229336
98	0x3b3b15d7	0.0028546953
99	0xb6ed4a8f	-7.07183e-06
100	0x3781623b	1.542374e-05
101	0xba709b03	-0.0009178372
102	0xbbc57de4	-0.00602697
103	0x3957a0b6	0.00020563867
104	0x3ba1803d	0.0049286173
105	0xbb8bb2e3	-0.0042632683
106	0x39e83e0f	0.00044296726
107	0x37165817	8.961207e-06
108	0xb7c7cbd1	-2.3817558e-05
109	0x3bb464a8	0.005505163
110	0xba22533a	-0.00061922113
111	0xbd2f43b3	-0.042789172
112	0x3ac71759	0.0015189453
113	0x3b4380e4	0.0029831463
114	0xbb1e000a	-0.002410891
115	0x383f3ed3	4.559646e-05
116	0x3b22ba4b	0.0024830278
117	0x36efd01f	7.1469835e-06
118	0xbcc37dc7	-0.023863686
119	0x3a87f9ca	0.0010374126
120	0x3bf49a1d	0.007464661
121	0x3b429a52	0.0029694033
122	0x3a83beb9	0.0010051347
123	0xbc87ef0d	-0.01659348
124	0xb6c4d23e	-5.8657306e-06
125	0x387fdf37	6.1004623e-05
126	0x39e48c0c	0.00043591892
127	0xba0ff617	-0.00054916873
128	0x3b8ffd8f	0.00439424
129	0x3b352bc1	0.0027644488
130	0xbc52c8b1	-0.012865231
131	0x3b1b83a3	0.0023729585
132	0x3b0c5920	0.0021415427
133	0x3b510966	0.003189647
134	0x3a89efbe	0.0010523719
135	0xba2293bf	-0.00062018255
136	0x3ac86c4b	0.0015291063
137	0x3b9bac9a	0.0047508003
138	0xbc0bf750	-0.008542851
139	0x39e322f9	0.0004332287
140	0x3c0c49f2	0.008562552
141	0x3b9ff252	0.0048811818
142	0x3a938621	0.0011255183
143	0x36fa7cc8	7.465107e-06
144	0x3b94c47f	0.0045400257
145	0xbbee2831	-0.007267975
146	0x3ba199fd	0.004931687
147	0x3ad5acdb	0.0016302125
148	0xbc16898d	-0.009188068
149	0x3c1d3a31	0.009596393
150	0xbb3ccb1d	-0.0028807588
151	0xbb32c6d0	-0.0027279146
152	0xbc89dd4b	-0.016829154
153	0x3b735386	0.0037128641
154	0x3baa3889	0.005194728
155	0xbc7f045b	-0.015565003
156	0x3c025da7	0.007956899
157	0xbd36ae87	-0.044600036
158	0x3ab24dc7	0.0013603502
159	0x39ada431	0.00033119463
160	0x3c1c2a9a	0.009531641
161	0x3b87f75f	0.004149362
162	0x3b94680c	0.004529005
163	0xb725d187	-9.883551e-06
164	0xb5904031	-1.0747518e-06
165	0xbabc94bf	-0.0014387592
166	0xbc1d6a03	-0.009607795
167	0x39a4a437	0.00031402867
168	0x3c001d27	0.00781945
169	0xbbdee73f	-0.006802469
170	0x3a3b795c	0.0007151568
171	0xb75e4e26	-1.32504265e-05
172	0xb84534bb	-4.701757e-05
173	0x3c0fd63a	0.008779103
174	0xba80ff96	-0.0009841796
175	0xbd8b5b0e	-0.06804477
176	0x3b1da37a	0.0024053738
177	0x3b9b31b3	0.004736149
178	0xbb7c192d	-0.0038467154
179	0x3844b9ce	4.6903086e-05
180	0x3b81672d	0.003949067
181	0xb7aeb3f3	-2.0826212e-05
182	0xbd1b5b3d	-0.03792881
183	0x3ad7c5fd	0.0016462203
184	0x3c423baa	0.011855045
185	0x3b9b6bcb	0.0047430745
186	0x3ad54cd5	0.0016273508
187	0xbcd82671	-0.026385518
188	0x36de10a9	6.618055e-06
189	0x38b8a3d0	8.804316e-05
190	0x3a3972ac	0.00070742774
191	0xba67512d	-0.0008824047
192	0x36a3bb7e	4.8796055e-06
193	0xb5d59aff	-1.5914846e-06
194	0x372fd621	1.0480669e-05
195	0xb70e2b22	-8.473902e-06
196	0x3722dcdd	9.707376e-06
197	0x365cbdf5	3.2893124e-06
198	0xb5a77505	-1.2476527e-06
199	0x36353ee4	2.700771e-06
200	0xb726bbb6	-9.938076e-06
201	0xb72b5729	-1.0212688e-05
202	0x3749650b	1.20040595e-05
203	0xb6d8e88d	-6.464374e-06
204	0xb754f29a	-1.269267e-05
205	0x36cd8028	6.1243954e-06
206	0xb6f66fb1	-7.344374e-06
207	0x37069246	8.021079e-06
208	0x36780ea1	3.6963395e-06
209	0xb476e772	-2.2994735e-07
210	0xb66a6b47	-3.493116e-06
211	0xb5914880	-1.0824442e-06
212	0x3783fed9	1.573509e-05
213	0xb6ab0f76	-5.097997e-06
214	0xb52e5f3e	-6.4958647e-07
215	0x36d87759	6.4511955e-06
216	0xb5b71f7e	-1.3643728e-06
217	0x369d8632	4.694587e-06
218	0x36d9c203	6.48969e-06
219	0xb6bff3d4	-5.720629e-06
220	0x37460e5e	1.1805065e-05
221	0x3692d841	4.3763143e-06
222	0xb6b11975	-5.2779747e-06
223	0xb557d572	-8.0404345e-07
224	0x37098989	8.197859e-06
225	0x37110102	8.642908e-06
226	0xb67ff62e	-3.8141256e-06
227	0xb5370ae8	-6.8188683e-07
228	0xb61162ba	-2.166415e-06
229	0xb7262896	-9.903821e-06
230	0xb5fce11d	-1.884098e-06
231	0xb74e5149	-1.22974825e-05
232	0xb6e67a2a	-6.868756e-06
233	0x3785ed28	1.596527e-05
234	0xb7697714	-1.3915607e-05
235	0xb5b84e65	-1.3731884e-06
236	0xb54995b0	-7.509616e-07
237	0xb59564d8	-1.1130714e-06
238	0x374e9484	1.2313136e-05
239	0xb6fa004b	-7.4506147e-06
240	0x37118b6e	8.675137e-06
241	0xb6e84ca4	-6.923061e-06
242	0x3785baf0	1.5941885e-05
243	0xb66f7d9d	-3.5686892e-06
244	0x36e2f1fe	6.7634965e-06
245	0x370d416e	8.419489e-06
246	0xb6e22798	-6.739934e-06
247	0xb6f706da	-7.3619713e-06
248	0xb781c686	-1.5470443e-05
249	0xb7407b37	-1.147278e-05
250	0x3740119e	1.1448194e-05
251	0x369707f5	4.501077e-06
252	0xb723947c	-9.750129e-06
253	0x37431797	1.1628398e-05
254	0x37107382	8.609963e-06
255	0xb739832c	-1.10574e-05
