trained_models/model_2021-11-28_21-49-38.pt (torch, 75137 bytes, 11 tensors)

gat_layer1.linear_l.weight f4 [64, 7]
0	0xbabbf8ee	-0.0014341155
1	0x3b81fe01	0.003967047
2	0xb9d2812a	-0.00040150556
3	0xbbd6f835	-0.0065603503
4	0xbbb426c7	-0.0054977867
5	0xbb20efbe	-0.002455696
6	0xbb2930f9	-0.0025816543
7	0xbbc34d33	-0.0059601306
8	0x3ad8f4b6	0.0016552422
9	0x3b5d48b3	0.0033765256
10	0x3a2c0da9	0.0006563315
11	0xba0378a6	-0.00050152314
12	0xbaecb844	-0.0018060287
13	0xbbceb74e	-0.0063084727
14	0x3b8f32df	0.004370078
15	0x3bcda5fb	0.00627589
16	0x3bb42864	0.005497979
17	0xbba78625	-0.005112427
18	0xb9b3f1f0	-0.00034321798
19	0x3ad2ea5b	0.0016091572
20	0x3ac5b7f0	0.0015084725
21	0x3b277e12	0.0025557321
22	0xbb05ffd3	-0.0020446673
23	0x3b90eb01	0.004422546
24	0xbb9376aa	-0.00450023
25	0x3bacbabd	0.0052712844
26	0xbb4b6bfb	-0.0031039703
27	0xbbd287f7	-0.0064248997
28	0xbbdf79ec	-0.006819954
29	0x3bae2701	0.005314708
30	0xbb8893c0	-0.004168004
31	0xbbc731f3	-0.0060789525
32	0xba9c5b5d	-0.0011929084
33	0xbbb02542	-0.005375535
34	0x3b6feddb	0.0036610279
35	0xbbd03749	-0.0063542468
36	0x3b2dd89d	0.0026526817
37	0x3b88d256	0.0041754646
38	0x3a820f70	0.0009922814
39	0x3bbf2675	0.005833442
40	0x3acc474f	0.0015585216
41	0x3a7df91f	0.0009688306
42	0xbb004b45	-0.0019576114
43	0xbb065a82	-0.0020500724
44	0x3b7d6aa6	0.0038668304
45	0x3bd0aea8	0.006368477
46	0xbadfe388	-0.0017081359
47	0x3b822d32	0.003972673
48	0xbb056ecb	-0.0020360227
49	0xbbc1c715	-0.005913625
50	0xbb73b090	-0.0037184097
51	0x3b443658	0.0029939618
52	0xbbd15e80	-0.006389439
53	0x3b346e65	0.002753162
54	0xbbb4ba9a	-0.0055154087
55	0x3bc8d4ce	0.006128884
56	0xbbda6593	-0.0066649406
57	0xbb41b40c	-0.002955678
58	0x3b9e702b	0.004835149
59	0xbabe1a71	-0.001450373
60	0x3947ec09	0.00019066049
61	0x3affcc1f	0.0019515789
62	0xbb530c28	-0.003220329
63	0x3bc6d417	0.0060677635
64	0x3b652816	0.003496652
65	0xbbedfeba	-0.007263032
66	0x3b9da196	0.0048105223
67	0x3b8e02d1	0.004333832
68	0xbb7347ff	-0.003712177
69	0xba369f89	-0.00069665216
70	0x3b3c9168	0.0028773192
71	0x3bb69e6b	0.005573084
72	0xbac3d48d	-0.0014940664
73	0x3b301700	0.0026869178
74	0xbb19cf11	-0.0023469368
75	0xbaa6b369	-0.0012718263
76	0xbbcce771	-0.006253176
77	0x391e8d61	0.00015120722
78	0x3b954ab8	0.0045560263
79	0xbb5f4da1	-0.003407337
80	0x3b1f4d91	0.0024307708
81	0x3b0cb7e8	0.0021471921
82	0xbacd6887	-0.001567141
83	0x3b308cb5	0.0026939337
84	0x3a81d534	0.0009905458
85	0x3b77b3d3	0.0037796393
86	0xba3b2363	-0.0007138757
87	0xbb2f404f	-0.0026741212
88	0xbba3b9ca	-0.004996513
89	0xbba342cc	-0.004982328
90	0x3b55b7fc	0.0032610884
91	0xba5a20d1	-0.000832093
92	0xbbdce88b	-0.0067415885
93	0x3b1ab09d	0.0023603805
94	0xb9164bb9	-0.00014333324
95	0x3aba6e81	0.0014223607
96	0x3b862c4e	0.004094637
97	0x3b8da3d3	0.004322508
98	0xbae881ff	-0.0017738937
99	0xbbe45ba7	-0.0069689336
100	0xba8b83d2	-0.0010644144
101	0xbbae6908	-0.0053225793
102	0x3b589888	0.00330499
103	0x3a0e52c3	0.00054292026
104	0xbbf1fa18	-0.00738455
105	0x3b9187ca	0.004441236
106	0xba27fa12	-0.0006407808
107	0x3baa90d2	0.005205252
108	0x3bc4dbd5	0.0060076513
109	0xbb937759	-0.0045003113
110	0x3b585d69	0.0033014661
111	0xba03d8de	-0.0005029569
112	0xb9a280e3	-0.00030995076
113	0x3b777ef7	0.0037764886
114	0x3a34f850	0.00069034565
115	0x3bacf71d	0.0052784816
116	0xbb561a77	-0.0032669583
117	0x3bd2c631	0.0064323177
118	0x3bdc049f	0.006714418
119	0xbbe22954	-0.0069018994
120	0x3a5e77df	0.000848649
121	0xbac0eec6	-0.0014719598
122	0xb9bd5673	-0.000361133
123	0x3bb6dd3d	0.005580573
124	0xbb1f345d	-0.0024292686
125	0xbb4b1cbf	-0.0030992476
126	0xbb3d508a	-0.0028887116
127	0x3b8be149	0.0042687994
128	0x3b5f4ec7	0.0034074055
129	0xb996e591	-0.0002878127
130	0xba602386	-0.0008550215
131	0xbb1408e0	-0.0022588298
132	0x3bb39729	0.005480666
133	0xbb54d1a8	-0.0032473598
134	0xbb96c3bb	-0.0046009696
135	0x3b8e9a79	0.0043519107
136	0xb8bf0a46	-9.109503e-05
137	0x3be4a8a9	0.0069781137
138	0xb9aa61bf	-0.00032497753
139	0x3b0bcbb9	0.0021331145
140	0xbb1befe5	-0.0023794111
141	0xba817742	-0.000987746
142	0xbbc17fe8	-0.00590514
143	0x3af42c00	0.0018628836
144	0x3be4c49f	0.006981447
145	0xba494cb0	-0.0007678969
146	0xbba4ebd5	-0.005032996
147	0x3aaa137d	0.0012975779
148	0x3911ce52	0.00013905138
149	0x3b0fb930	0.0021930449
150	0x3be97157	0.007124107
151	0x3ad872fe	0.0016513763
152	0xb9a5487a	-0.00031525252
153	0x3b80d6ea	0.0039318698
154	0x3bd3f0e8	0.0064679272
155	0xbbb06c90	-0.0053840354
156	0x398dcf49	0.00027048055
157	0x3a912af2	0.0011075421
158	0x3af2649a	0.0018493116
159	0x3b5412b7	0.0032359788
160	0xbba12729	-0.0049179983
161	0xbbc6f560	-0.0060717314
162	0x3b3785e9	0.00280034
163	0xbb9275b3	-0.0044695972
164	0xbab68626	-0.0013925477
165	0xbb5d8585	-0.0033801508
166	0xbb86bc93	-0.0041118353
167	0x3bc42c42	0.0059867213
168	0x3b7d47c1	0.0038647505
169	0xba03f4bd	-0.0005033722
170	0xba462a74	-0.00075594266
171	0xbba700c3	-0.0050965264
172	0xbb99ef14	-0.00469769
173	0xb9cade78	-0.00038694195
174	0xbb1ff858	-0.00244095
175	0xba1c6066	-0.0005965292
176	0x393b0243	0.00017834552
177	0x3a9d7316	0.0012012448
178	0x3a878efe	0.0010342298
179	0xbbdfb4ec	-0.0068269875
180	0x3b16e600	0.0023025274
181	0x3b020fd2	0.0019845855
182	0x39977104	0.00028885168
183	0x3b951b93	0.0045504062
184	0x3ba6853d	0.005081801
185	0xbb4a6e6a	-0.0030888566
186	0x3b66cdf4	0.0035217972
187	0x3b97edc2	0.0046364972
188	0x3b89e4e2	0.004208193
189	0xbb472e48	-0.0030392576
190	0xbbc7249c	-0.006077362
191	0xbbcb9453	-0.00621275
192	0xbbce5b3b	-0.0062974966
193	0x3be9c530	0.0071341023
194	0x3a163fd2	0.0005731556
195	0xbbadcf6c	-0.0053042676
196	0xba6eb2e5	-0.0009105637
197	0xbb25cf4d	-0.0025300563
198	0x3b69a3c8	0.00356506
199	0xbbae021c	-0.00531031
200	0x3a02cca5	0.0004989601
201	0xbac8191c	-0.0015266272
202	0xbba4d9d5	-0.0050308504
203	0xbb84f52b	-0.0040575466
204	0x3bb27e08	0.005447153
205	0x3bf335a7	0.0074221673
206	0xbb7a311c	-0.0038176244
207	0xbb96227c	-0.0045817476
208	0xbaf4e0be	-0.0018682701
209	0x3bca57d1	0.0061750193
210	0x3ba11935	0.004916335
211	0xbb82dcb8	-0.003993597
212	0xba341300	-0.00068692863
213	0xba6f7d5c	-0.00091358065
214	0xbb47115e	-0.0030375342
215	0x3b30d034	0.0026979567
216	0x3b9c3dec	0.004768124
217	0xbb30a08e	-0.0026951167
218	0xb8a525d4	-7.874859e-05
219	0xbbec07c0	-0.0072030723
220	0xba6f34f0	-0.0009125015
221	0x3bbe0c61	0.0057998155
222	0xbad2268f	-0.001603322
223	0xbbdd5be9	-0.0067553413
224	0x3bde1e05	0.006778481
225	0xbbc029d9	-0.0058643636
226	0x3b29bde7	0.0025900544
227	0xb9eb1955	-0.00044841567
228	0xbb48f681	-0.0030664506
229	0xbb337584	-0.0027383277
230	0xbbec6e77	-0.007215317
231	0x3b6fc169	0.0036583787
232	0x390ebb0c	0.00013611856
233	0xbbc14672	-0.0058982903
234	0xbb3eb069	-0.0029096848
235	0xba0bb259	-0.0005329005
236	0x3b4bf0d9	0.0031118898
237	0x3bd37718	0.006453406
238	0xbb50ac47	-0.0031840967
239	0xba840acc	-0.0010074019
240	0xbbd384d6	-0.0064550443
241	0x3a24c609	0.0006285613
242	0x3ac8a1cf	0.0015307012
243	0xbb2fe4fe	-0.002683937
244	0x3baae3e4	0.005215155
245	0xbbc6f790	-0.006071992
246	0x3b3d0a04	0.002884508
247	0xbb92f3b0	-0.004484616
248	0xbb87836c	-0.0041355398
249	0xbb8269ab	-0.0039798818
250	0x396f8210	0.00022841268
251	0x3bf3cce3	0.007440196
252	0xbac258c8	-0.0014827484
253	0x3ada989e	0.0016677564
254	0xbbbca1b2	-0.0057565803
255	0xbb883907	-0.004157189

gat_layer1.linear_r.weight f4 [64, 7]
0	0xb9904c1b	-0.00027522523
1	0xbba25a30	-0.004954599
2	0x3b456b1d	0.003012366
3	0x3b845740	0.0040387213
4	0xba3df4b1	-0.00072462397
5	0x3ad2fa79	0.0016096375
6	0x3bced6fd	0.0063122497
7	0x3bb2eac3	0.0054601147
8	0x3b562bec	0.0032679988
9	0xbacd4500	-0.0015660822
10	0x3ba3d070	0.004999213
11	0xbbe924f0	-0.007114999
12	0x3ad49402	0.0016218426
13	0xba9246ad	-0.0011159979
14	0x3bd8c390	0.0066151097
15	0x3ac6f7e1	0.0015180075
16	0xbbd74ac4	-0.006570192
17	0x3bf4754f	0.0074602733
18	0xb91770b2	-0.00014442464
19	0xbacb0cf1	-0.0015491528
20	0x3bb88321	0.005630866
21	0xbba7ef47	-0.0051249596
22	0x3a194bef	0.0005847802
23	0x3b757942	0.0037456308
24	0x3b7e9f09	0.0038852117
25	0x3b36f3da	0.0027916343
26	0x3b784bbf	0.0037886945
27	0xbbf81a31	-0.0075714816
28	0xbbd00a0e	-0.006348855
29	0xbbc629e5	-0.0060474747
30	0xbb25021d	-0.0025178262
31	0xba31259e	-0.00067576196
32	0xbbda18f5	-0.006655807
33	0x3ba137a6	0.004919964
34	0xbb54e204	-0.0032483349
35	0x3b8ad95d	0.0042373375
36	0xbb8e056b	-0.004334142
37	0x3b32dc3d	0.0027291917
38	0xba1df9f5	-0.0006026321
39	0x3bc74a83	0.0060818805
40	0xbbd3b0ab	-0.0064602694
41	0x3b953289	0.0045531434
42	0x3ba25aeb	0.004954686
43	0xbbad56ce	-0.005289889
44	0x3b8013ab	0.0039085946
45	0xbba1fbe4	-0.004943358
46	0x3be65bd6	0.0070299907
47	0x39847011	0.00025260498
48	0x3bf45069	0.0074558747
49	0x3b9199fd	0.0044434057
50	0x3ab45811	0.0013759156
51	0xb953b215	-0.00020188869
52	0x3bb93fb1	0.0056533446
53	0x3b07a6d1	0.0020698796
54	0xbae40151	-0.0017395412
55	0x3ba095c5	0.0049006664
56	0xbbc8bce1	-0.0061260317
57	0x3aef5f99	0.0018262743
58	0x3bc70234	0.0060732607
59	0x3a9a03f0	0.0011750441
60	0xbbe29021	-0.006914154
61	0x3bd86b6a	0.0066046016
62	0xbb5ec20e	-0.0033990177
63	0xbbd03e97	-0.0063551175
64	0x3b1ce983	0.0023942895
65	0x3b94631b	0.004528416
66	0x3bcfd97a	0.006343064
67	0xbbbb5bea	-0.005717744
68	0x3b454635	0.003010166
69	0xb99258f8	-0.00027913577
70	0x3bccdcef	0.0062519233
71	0xb9a1ce2f	-0.00030861932
72	0x3badd37d	0.0053047524
73	0x3a844528	0.0010091411
74	0x388078b1	6.125996e-05
75	0xbba64522	-0.0050741592
76	0xbbe06152	-0.006847539
77	0xb9937aa0	-0.00028129388
78	0x3b4a41e3	0.0030862025
79	0xbb988048	-0.004653964
80	0xbbb8b639	-0.005636957
81	0x3bd147d5	0.006386737
82	0x3bf74e8f	0.0075472067
83	0x3bddc033	0.0067672967
84	0xbae3e0bb	-0.00173857
85	0xbb51bb21	-0.0032002407
86	0xbbf865ff	-0.0075805183
87	0xbb211773	-0.0024580627
88	0xbaf8e5e2	-0.0018989409
89	0x3a4ea894	0.00078833965
90	0xbba7a196	-0.005115698
91	0xbb9c7849	-0.0047750813
92	0x3bebbc35	0.007194067
93	0x3b90c030	0.004417442
94	0xbb56a4ee	-0.0032752114
95	0xbbbd7272	-0.005781465
96	0xb9d1a8b1	-0.0003998927
97	0x3bc28bc7	0.005937073
98	0x3bf7fea3	0.007568197
99	0xbbb9e6ad	-0.0056732506
100	0xbb69b127	-0.003565857
101	0x3b7756cd	0.0037740946
102	0xbbce9ff2	-0.006305688
103	0xbbb9ca2d	-0.005669853
104	0x3adb5eb2	0.0016736595
105	0x3bd3df33	0.0064658164
106	0xbb806bc8	-0.0039190985
107	0xb9e9a25b	-0.00044562187
108	0xbbb523a5	-0.005527931
109	0x3b1a1617	0.0023511702
110	0x3b8d54b2	0.004313075
111	0x3b257c21	0.0025250989
112	0xbb1694b4	-0.0022976818
113	0x3bb26ba4	0.0054449607
114	0xbbcbb754	-0.006216923
115	0x3b60e10c	0.0034313826
116	0x3a925fd9	0.0011167481
117	0x3be02c40	0.0068412125
118	0xbbc86043	-0.006114991
119	0x3b4d559e	0.003133155
120	0x3b0b1629	0.0021222925
121	0x3bdb2b74	0.0066885296
122	0xbbbdd919	-0.0057937023
123	0x3bf5efbf	0.0075053866
124	0xbb4d3b83	-0.003131599
125	0xbbcf6cbd	-0.0063301013
126	0x3b164ada	0.0022932799
127	0x3ba850ec	0.0051365998
128	0xbbd1821c	-0.006393684
129	0x395793cd	0.00020559058
130	0xbb764433	-0.003757727
131	0xbb606e99	-0.003424561
132	0xbac80fc3	-0.0015263486
133	0xbbaf8df8	-0.0053575
134	0xbb9a62f9	-0.0047115055
135	0x3be2cd44	0.006921442
136	0x3be88d00	0.0070968866
137	0x3af9901e	0.0019040143
138	0xba83a995	-0.0010045046
139	0x3b94611b	0.0045281774
140	0xbbc5416b	-0.0060197613
141	0x3b475167	0.003041351
142	0xbb0be127	-0.0021343918
143	0x3b2ec283	0.002666623
144	0xbbc4fc05	-0.0060114884
145	0xbbd74a2a	-0.0065701203
146	0xbba9b36d	-0.00517886
147	0x3b90c939	0.004418519
148	0x3bed845a	0.0072484436
149	0xbb47cb03	-0.0030485995
150	0x3bbe4103	0.00580609
151	0x3bab6e67	0.005231667
152	0xb998425c	-0.0002904114
153	0xba84ff38	-0.0010146862
154	0xbbd5fb5e	-0.0065302094
155	0x3bb9d6fe	0.005671381
156	0xbbf3595f	-0.0074264253
157	0x3b78eb7a	0.0037982152
158	0x3be1be65	0.006889152
159	0x3b93c545	0.0045096003
160	0xbba922c4	-0.005161615
161	0x3ba64459	0.0050740656
162	0x3b22ed07	0.0024860518
163	0x3a03faa0	0.00050345995
164	0xbb9d7120	-0.0048047453
165	0xbbe1d140	-0.0068913996
166	0x3be37f30	0.006942652
167	0x3a6bc7ee	0.00089943304
168	0x3a4b3e12	0.00077530846
169	0x38d3f002	0.00010105969
170	0xba68f0a2	-0.0008885955
171	0x3bd38fcc	0.006456351
172	0x3b3530a4	0.00276474
173	0xbbed9876	-0.007250841
174	0x3a2ef29d	0.00066737254
175	0x3b8634f2	0.004095667
176	0x3be4696f	0.0069705765
177	0xbbdf1d1c	-0.00680889
178	0xba21dd3c	-0.0006174629
179	0x3b7085f6	0.003670094
180	0xbbd465fd	-0.0064818845
181	0x3b8d373d	0.0043095634
182	0x3a1e2793	0.00060331187
183	0xbb2b0e93	-0.0026101216
184	0xb9dd2d77	-0.0004218628
185	0xbba095ad	-0.0049006552
186	0xbb960acb	-0.0045789233
187	0xbbf51b52	-0.0074800635
188	0xbbb23d69	-0.0054394496
189	0xbbabd61d	-0.00524403
190	0x3b7e9796	0.0038847676
191	0x3bafc3f8	0.0053639375
192	0xb9b7eacd	-0.0003507942
193	0x3bd17004	0.006391527
194	0xbbca7195	-0.006178091
195	0x3bb9344d	0.0056519867
196	0x3a1260df	0.0005583893
197	0xbb6d8516	-0.0036242655
198	0xbba23abb	-0.004950849
199	0xbb6d2abf	-0.0036188809
200	0xbbdedc52	-0.0068011666
201	0xbb5d8d9f	-0.0033806337
202	0xbadafbf5	-0.0016707169
203	0x3bb69d94	0.005572984
204	0xbbc22f4b	-0.005926048
205	0xbbe65d33	-0.007030153
206	0xbbb9ebf3	-0.0056738793
207	0x3bb2b284	0.0054534096
208	0xbacdba59	-0.0015695795
209	0x3b7cdf97	0.0038585418
210	0xbbcb48d2	-0.006203749
211	0x3b497005	0.0030736935
212	0xba04eacb	-0.0005070387
213	0xbba2d597	-0.0049693095
214	0x3b879065	0.004137086
215	0x3bb03c13	0.005378255
216	0x3bb3b3f3	0.005484098
217	0x3bf782fe	0.0075534573
218	0xbbafe631	-0.005368017
219	0x3bd2841d	0.0064244405
220	0x3ba6e14c	0.0050927754
221	0xba123d3d	-0.0005578583
222	0xbb7fba63	-0.0039021007
223	0x3b23bd8b	0.0024984803
224	0x3b9b8594	0.0047461484
225	0x3bd15031	0.0063877334
226	0x3b07cdbe	0.0020721997
227	0xbbd0c88c	-0.0063715633
228	0x3bf78d3b	0.007554678
229	0x3bfcacbd	0.0077110217
230	0xbb9f7c74	-0.004867131
231	0xb99bff25	-0.00029754
232	0xbbcb04da	-0.0061956467
233	0xba67d6d3	-0.0008843962
234	0xbb84fb38	-0.004058268
235	0x3b998879	0.0046854583
236	0xbb347bb0	-0.0027539544
237	0xb994cd8b	-0.000283819
238	0xbb96d857	-0.0046034264
239	0x3bc04cd3	0.005868533
240	0x3b7890e2	0.0037928154
241	0xbba38151	-0.004989781
242	0xbbf47304	-0.00746
243	0x3b4283ac	0.0029680533
244	0x39b9a85f	0.00035411396
245	0x3b0974ab	0.002097408
246	0xbb6ccab9	-0.0036131574
247	0xbbb59810	-0.005541809
248	0x3bc5a9a1	0.006032184
249	0xbb6516d2	-0.003495623
250	0x3bc76ea1	0.006086186
251	0x3a78622b	0.00094750774
252	0xbbeca404	-0.0072217006
253	0xba09a110	-0.00052501354
254	0x39e98cbc	0.00044546078
255	0x3b4cfc75	0.0031278406

gat_layer1.attn.weight f4 [1, 64]
0	0x3a82a745	0.0009968063
1	0x3a1945fa	0.0005846914
2	0x396d2517	0.00022615898
3	0xbae04d20	-0.0017112829
4	0xba1ee967	-0.00060620013
5	0xba9a5cdf	-0.0011776945
6	0x3b0a17d6	0.0021071336
7	0xb9bc08bc	-0.00035864662
8	0x3a311a16	0.0006755901
9	0xba4673c5	-0.00075703516
10	0x3b1e1117	0.0024119073
11	0x3a9741c2	0.0011539983
12	0x3ad5163e	0.0016257239
13	0x3b207401	0.0024483206
14	0xba9e5530	-0.0012079831
15	0x3aa78641	0.00127811
16	0xb9e333bd	-0.00043335362
17	0xbab24abe	-0.0013602597
18	0x39a27c29	0.00030991554
19	0x3805ac59	3.1870182e-05
20	0xbab3f4c1	-0.0013729559
21	0x38bec0bf	9.095808e-05
22	0xbb122fdc	-0.0022306358
23	0x3aaf7f9c	0.0013389471
24	0x3ad3895a	0.0016138956
25	0xbac1548a	-0.0014749926
26	0x3a23f6f1	0.00062547537
27	0x3aab6116	0.0013075199
28	0x3a8ffce0	0.0010985397
29	0x3aef6084	0.0018263017
30	0xbaa1ff91	-0.001235949
31	0xba63b321	-0.0008686055
32	0xba695812	-0.0008901368
33	0x3b0e9c02	0.0021760468
34	0xbaa065b3	-0.001223734
35	0xba9cd29e	-0.0011964624
36	0xbaeb1948	-0.0017936612
37	0xbafb9a32	-0.0019195734
38	0xb8e140ff	-0.000107409425
39	0x39077b03	0.00012920429
40	0x3ab47048	0.0013766373
41	0xb9ee7f89	-0.0004548992
42	0x3b21faa6	0.0024716049
43	0x3a0483aa	0.000505502
44	0x3a6fe9c8	0.00091519626
45	0xba203a06	-0.0006112162
46	0xba0b4e5e	-0.0005314107
47	0xba574952	-0.00082125247
48	0xb96f4e7d	-0.00022822055
49	0x3b1d95a8	0.00240455
50	0x3a982145	0.0011606595
51	0xbaa5b67c	-0.0012642886
52	0xbb0a0446	-0.0021059676
53	0x38ab1d95	8.1594255e-05
54	0x3b05f4b4	0.0020440044
55	0xbb2dd37f	-0.0026523767
56	0xba8327b9	-0.0010006345
57	0xba9d541d	-0.0012003217
58	0x38b3fdbd	8.5826476e-05
59	0x3a95a86a	0.0011417989
60	0x3a9bd72b	0.0011889687
61	0x3abb3344	0.0014282246
62	0x39f5a4a8	0.0004685272
63	0x3ac7557e	0.0015207974

gat_layer.linear_l.weight f4 [64, 64]
0	0xbb069501	-0.002053559
1	0x3af49b75	0.0018662052
2	0xba70b957	-0.0009182891
3	0xbaaca5aa	-0.001317193
4	0xbb0d8d78	-0.0021599215
5	0x3a0f0cb4	0.000545691
6	0x3ab289fb	0.0013621444
7	0xbb1a467d	-0.002354055
8	0xbac30346	-0.0014878295
9	0xba9284f4	-0.0011178539
10	0xbaf35056	-0.0018563371
11	0x390a0335	0.000131619
12	0xbb00aa26	-0.0019632666
13	0x38954409	7.117546e-05
14	0xb9288ea2	-0.00016074863
15	0xb82a541a	-4.0609484e-05
16	0x3af29e28	0.0018510269
17	0xbaed527c	-0.0018106247
18	0xbb0212ed	-0.0019847706
19	0xb7a03ffa	-1.9103278e-05
20	0x3a967990	0.001148032
21	0xbb0a1180	-0.002106756
22	0x39e6fdce	0.00044058118
23	0xbae9694e	-0.0017807873
24	0xba2f3b2a	-0.00066845363
25	0x3970471b	0.00022914672
26	0x3a897fc0	0.0010490343
27	0x3ae51987	0.0017478921
28	0xbb123c4c	-0.0022313772
29	0x3ad9516c	0.0016580052
30	0xbb0bd28b	-0.002133521
31	0x3a2ee774	0.00066720624
32	0xbaafc563	-0.0013410266
33	0x3ac1a8c1	0.0014775024
34	0xba0cd2bb	-0.00053719775
35	0x3aadfa01	0.001327336
36	0xbb050d4b	-0.0020302113
37	0xbadc3f73	-0.0016803577
38	0xbae51e9a	-0.0017480433
39	0xbad366b2	-0.0016128628
40	0x3a4a0062	0.00077057455
41	0xba507a5c	-0.0007952803
42	0xbb072000	-0.0020618439
43	0xba39ab34	-0.0007082701
44	0x37d7d5f0	2.572962e-05
45	0x3a8b1ff5	0.0010614382
46	0xbafd6bcf	-0.0019334498
47	0x3a1e475e	0.0006037856
48	0x39f5d64b	0.00046889702
49	0xba306ce1	-0.00067300914
50	0xbb021f42	-0.0019855057
51	0x392ef9bc	0.00016686966
52	0xb8db39a3	-0.000104534694
53	0x3aef0b8c	0.0018237694
54	0x3b194dfb	0.0023392427
55	0xbaea4a9d	-0.001787502
56	0x3a557ea4	0.0008144176
57	0xbaa2ec73	-0.0012430086
58	0x3b22b948	0.0024829675
59	0x39a7b907	0.00031990578
60	0xbb1a8c05	-0.0023581993
61	0xbb22a855	-0.0024819572
62	0x3ac09cae	0.0014695132
63	0x3a42802a	0.00074196106
64	0x3ae8468f	0.0017721223
65	0xba5a1098	-0.00083185127
66	0x3a8e89cd	0.0010874808
67	0xbae92d8c	-0.0017790063
68	0x3ab64194	0.0013905042
69	0xbaac9e90	-0.0013169814
70	0x3aa8f158	0.0012889309
71	0xba2e3d9b	-0.0006646753
72	0xbaca3540	-0.0015427247
73	0xbb1ee5f4	-0.002424595
74	0x3aa86c00	0.0012849569
75	0x3b1e9597	0.002419805
76	0xba4ed3b4	-0.00078898226
77	0xb9731cb0	-0.00023184973
78	0x385d17bf	5.271262e-05
79	0x3ac81e06	0.0015267737
80	0xba8203fd	-0.0009919401
81	0xbaea6fd6	-0.0017886113
82	0x3ab4af29	0.0013785112
83	0x3a74b894	0.00093353656
84	0x398b6e74	0.0002659444
85	0x3a960ed5	0.0011448512
86	0x3b039bce	0.002008188
87	0xba9fe510	-0.0012199003
88	0x3a7deb0b	0.0009686208
89	0xba840dee	-0.0010074952
90	0xb9e4d61d	-0.00043647076
91	0xb9431bde	-0.0001860703
92	0xb96c81ae	-0.00022555023
93	0xba9e0228	-0.0012055086
94	0xba89b1ca	-0.0010505256
95	0xb8fe2ab2	-0.000121196164
96	0x3adea9c8	0.0016987855
97	0x3a98ed35	0.0011667373
98	0x3aa5941e	0.0012632643
99	0xba916728	-0.0011093365
100	0xba914e47	-0.001108595
101	0xbb075c46	-0.0020654364
102	0xb97f60ec	-0.00024354801
103	0xbad20b24	-0.0016025049
104	0xb8ede57c	-0.000113437854
105	0xba8deb02	-0.0010827484
106	0xba2df1b9	-0.0006635446
107	0x38e1ec86	0.00010772892
108	0x39a909cd	0.00032241494
109	0xba7561ef	-0.00093606015
110	0x38ae6766	8.316226e-05
111	0x3ad7455b	0.0016423868
112	0xbae400c9	-0.0017395254
113	0x38ad4c0e	8.263449e-05
114	0x391a892b	0.00014737684
115	0x3a4a888e	0.0007726037
116	0xbad63207	-0.0016341814
117	0x3a9f074f	0.0012132915
118	0xba181e30	-0.0005802838
119	0x3b1722b3	0.0023061454
120	0x3a4fac5f	0.00079221086
121	0x3afe43bd	0.001939885
122	0x3a8a42c9	0.0010548468
123	0x3b15f439	0.0022881164
124	0x3b038def	0.0020073613
125	0x3b0a006d	0.0021057383
126	0xbae75e75	-0.0017652052
127	0x3aad918b	0.0013242228
128	0x3abc56a9	0.0014369088
129	0x3ae83037	0.0017714564
130	0x3a176cf0	0.0005776426
131	0xba609c81	-0.0008568243
132	0x3b048663	0.0020221702
133	0xba8b0a53	-0.0010607935
134	0xba2f4283	-0.0006685631
135	0x3a824b2d	0.0009940617
136	0x3ab30930	0.0013659354
137	0x398fbf54	0.00027417636
138	0x3af1017c	0.0018387283
139	0x3b16e258	0.0023023095
140	0x3adb4cf4	0.0016731308
141	0xba746c3d	-0.000932399
142	0xba3d6056	-0.0007224133
143	0xbaf01e95	-0.0018319661
144	0x3a1c70c8	0.00059677335
145	0xbb1d97b1	-0.0024046714
146	0x3a20b593	0.00061305723
147	0xba5f053a	-0.0008507554
148	0xb704fdba	-7.926888e-06
149	0xbac24b08	-0.0014823386
150	0xbb1a243f	-0.002352014
151	0x39c817c3	0.00038164677
152	0x3a7b82e9	0.0009594397
153	0xbab40d5d	-0.0013736893
154	0x3aa451cb	0.0012536583
155	0x397f1f47	0.00024330347
156	0xba2b415b	-0.0006532871
157	0xba555c89	-0.0008139094
158	0x39aa4a7c	0.00032480422
159	0xba67b9ea	-0.0008839654
160	0x3b15834b	0.0022813852
161	0x3a71755e	0.00092109095
162	0xbacac8e7	-0.001547125
163	0xb9827900	-0.00024885684
164	0x3a1cce58	0.00059816753
165	0xbaa87f24	-0.0012855274
166	0xbab9e598	-0.0014182804
167	0x3adf104d	0.0017018408
168	0x3a85a4c0	0.0010196194
169	0x3a4bf1f1	0.00077798875
170	0x3a3708e1	0.0006982219
171	0x3a0b8f83	0.0005323814
172	0xbaf998e9	-0.0019042763
173	0xbafb0add	-0.0019153018
174	0x3a52401b	0.0008020417
175	0xb9e91000	-0.00044453144
176	0xba92b30f	-0.001119228
177	0xba39c605	-0.0007086697
178	0x3ac032d3	0.0014663584
179	0x3b1c114d	0.0023814023
180	0xba4cee81	-0.0007817522
181	0x3a8f51ca	0.0010934409
182	0xba893fb6	-0.0010471258
183	0xb937a9a0	-0.0001751543
184	0xbb0f20cc	-0.0021839617
185	0xb9e85c46	-0.00044319237
186	0x3ae0e7e5	0.0017158954
187	0xbae231f8	-0.0017257323
188	0x3b1b255f	0.0023673398
189	0x3b08e132	0.002088618
190	0x3aafe926	0.0013420924
191	0x3a538a97	0.0008069663
192	0xba35773a	-0.0006922368
193	0xbad87deb	-0.0016517019
194	0x3ab09e17	0.0013474849
195	0xba2963b8	-0.00064616976
196	0x393521e1	0.00017274126
197	0x3b1faf40	0.0024365932
198	0xbae1948c	-0.0017210408
199	0x3b06f0ea	0.0020590373
200	0x3a5dab6b	0.0008456024
201	0xba38d6ae	-0.0007051033
202	0xbb1331c7	-0.002246009
203	0x3b23199b	0.0024887088
204	0xba0772e4	-0.00051669613
205	0xbb236dd8	-0.0024937298
206	0xbb0d1775	-0.0021528874
207	0x3a89ccbd	0.0010513287
208	0xba9e0f2b	-0.0012058964
209	0xbaa6f800	-0.0012738705
210	0x3adaee45	0.001670309
211	0x3aecfe3e	0.0018081141
212	0x3a68a73f	0.0008875019
213	0x3a8458bc	0.0010097246
214	0x3ae1043a	0.0017167397
215	0xbaa7d427	-0.0012804315
216	0xbaa6f0ad	-0.0012736522
217	0xba895777	-0.0010478337
218	0x39beee36	0.00036417105
219	0xba82b9cf	-0.0009973588
220	0x3a829d52	0.0009965098
221	0xbaf2442e	-0.0018483454
222	0xb9e03887	-0.00042766726
223	0xbb11cb65	-0.0022246477
224	0x3aa435e7	0.0012528271
225	0x3a05e30c	0.000510738
226	0x3a10d0a6	0.0005524255
227	0x3b23f24a	0.0025016242
228	0x3a98fe0a	0.0011672389
229	0xbab80370	-0.001403911
230	0xba21e0c1	-0.00061751535
231	0xba8e2c0d	-0.0010846868
232	0x3b0664f4	0.002050695
233	0xba9e9008	-0.0012097368
234	0xbb1e128a	-0.0024119937
235	0x3a040f8d	0.00050377176
236	0xbb1cd191	-0.0023928622
237	0xbab72c04	-0.001397491
238	0x3a970381	0.001152143
239	0x3a953dd1	0.001138622
240	0x3ae629e5	0.0017560093
241	0xbafe9e42	-0.0019425827
242	0xb980d00b	-0.00024569067
243	0x39b75c55	0.00034973273
244	0xba8e82f2	-0.0010872765
245	0xba505845	-0.00079477235
246	0x3ab4d35d	0.0013795901
247	0xbaae28ea	-0.001328734
248	0xbb1900f9	-0.0023346527
249	0xba17d300	-0.00057916343
250	0xba405e11	-0.0007338236
251	0x3a198a44	0.000585709
252	0x3b21fd86	0.0024717762
253	0x3a998551	0.0011712705
254	0xbafabf1a	-0.0019130439
255	0xba9cfa82	-0.0011976513

gat_layer.linear_r.weight f4 [64, 64]
0	0x3b1e92b8	0.0024196338
1	0x38f26154	0.00011557588
2	0xbad94556	-0.001657645
3	0x3acd8b7e	0.0015681831
4	0x3a314e87	0.00067637156
5	0xbaa55711	-0.0012614449
6	0x3af3b406	0.001859308
7	0xbb1eb2a7	-0.0024215372
8	0x3b20d896	0.0024543158
9	0x3a3f8471	0.0007305807
10	0xbae1d7ce	-0.0017230453
11	0x3a039f08	0.0005020951
12	0x3ac06da7	0.0014681116
13	0x3a8102b4	0.0009842725
14	0xbb20435e	-0.0024454216
15	0xb9abb7ec	-0.00032752694
16	0xbad90589	-0.0016557436
17	0xbb14ab18	-0.0022684988
18	0x395c23d1	0.00020994178
19	0x3b12330e	0.0022308263
20	0xb7cde29c	-2.4543428e-05
21	0x3925fcf6	0.00015829862
22	0xba503c90	-0.0007943595
23	0xbab41508	-0.0013739178
24	0x37027b81	7.777359e-06
25	0xb90bff19	-0.00013351104
26	0xbb1ef4a4	-0.0024254704
27	0xbb144a3c	-0.0022627255
28	0xba56969a	-0.00081858935
29	0xba11892d	-0.0005551752
30	0x3abe8102	0.0014534297
31	0xbaa42c2a	-0.0012525369
32	0x3ad4c9e5	0.0016234486
33	0xba7324e0	-0.0009275209
34	0xbab32abb	-0.0013669351
35	0xba08c804	-0.0005217793
36	0x3b1524f5	0.0022757624
37	0x3ae48358	0.0017434163
38	0x3aadfc89	0.0013274114
39	0x3a68688d	0.0008865677
40	0x3b0c2a3d	0.002138748
41	0xbb00924b	-0.0019618447
42	0xbaf060aa	-0.0018339355
43	0x3a984adf	0.0011618993
44	0x3b1b1a94	0.0023666965
45	0xbb11ccb3	-0.0022247254
46	0x3ab3f463	0.0013729449
47	0xbaff1472	-0.0019461049
48	0xba1f5981	-0.0006078706
49	0xba71e9a4	-0.00092282356
50	0xb9e82202	-0.00044275826
51	0xb9b4adc5	-0.00034461744
52	0x39a7775e	0.00031941658
53	0x3ae426ed	0.001740662
54	0x39a74b88	0.00031908997
55	0x3ac9b9d5	0.0015390465
56	0x3ad5756a	0.0016285602
57	0x3a3f2ae5	0.00072924636
58	0x3b052eae	0.0020322013
59	0xb9afee28	-0.0003355604
60	0x3b1db66e	0.0024065035
61	0xbb13b7ca	-0.0022539967
62	0xbb0b2199	-0.0021229743
63	0xbae2b4a0	-0.0017296262
64	0xbae67d8f	-0.0017585027
65	0xbb0158bf	-0.0019736735
66	0xbb19bfb1	-0.0023460204
67	0x3a46ab51	0.0007578629
68	0xbad2fe8b	-0.0016097588
69	0xbb0511d0	-0.0020304807
70	0xbb1e9221	-0.0024195986
71	0x3abd35a6	0.0014435544
72	0xb9d440e2	-0.00040484132
73	0xba0ae7fd	-0.0005298851
74	0x389ab669	7.377269e-05
75	0xbaa410ca	-0.001251721
76	0x39efdd8f	0.00045750706
77	0x39a24301	0.0003094897
78	0x3b1bb7eb	0.0023760747
79	0xb9ce025d	-0.00039293143
80	0xb999c0a4	-0.00029325963
81	0x3b1c4803	0.0023846633
82	0x3a520641	0.0008011796
83	0xb944a491	-0.00018753322
84	0x3adf903a	0.0017056533
85	0x3ae1c1f1	0.0017223937
86	0xb903a291	-0.00012553694
87	0xba3884f6	-0.00070388557
88	0xbb2480e0	-0.002510123
89	0x39711ee2	0.00022995056
90	0xbadd796e	-0.0016897151
91	0x3a831748	0.0010001445
92	0x3aa4d4bc	0.0012575607
93	0xbb21b431	-0.0024674053
94	0xba80b00b	-0.000981809
95	0x3aff3b93	0.001947271
96	0x3b0c456e	0.0021403688
97	0x3aa7aafa	0.0012792044
98	0xba3962bc	-0.00070719025
99	0xb9ddd71e	-0.0004231268
100	0x3a56792f	0.000818151
101	0xba48994e	-0.0007652239
102	0x3a8d40c4	0.0010776748
103	0x3b0d1457	0.0021527016
104	0xbb13c739	-0.0022549166
105	0xbb1724e7	-0.0023062767
106	0x3b0e180e	0.0021681818
107	0xbaf34c1e	-0.0018562113
108	0xb9eebeb6	-0.00045536988
109	0xba2ab6d8	-0.0006512231
110	0x3972aeb3	0.00023143999
111	0x3b0f765a	0.0021890611
112	0x3a546082	0.0008101539
113	0x3aeb094a	0.0017931846
114	0x3ae89139	0.0017743475
115	0x3b208e52	0.0024498892
116	0xba990b26	-0.0011676296
117	0xbaf0bcd3	-0.0018366821
118	0xbaa01f1b	-0.0012216301
119	0xb9875c0f	-0.00025817796
120	0x3b21a003	0.0024662025
121	0xbb2232ba	-0.0024749474
122	0x39932779	0.00028067434
123	0x3a5b320e	0.0008361646
124	0x39750b8f	0.00023369327
125	0xbb1635da	-0.0022920282
126	0x3947175b	0.0001898682
127	0xb82c5e18	-4.1095627e-05
128	0x3b16ab66	0.0022990345
129	0x3ae1c460	0.0017224662
130	0xbaa79be9	-0.0012787554
131	0xba991729	-0.0011679876
132	0xba306961	-0.000672957
133	0xbaa191cf	-0.001232678
134	0xbb1f8f82	-0.0024347012
135	0x3acfcdc5	0.0015854171
136	0x38cda186	9.805248e-05
137	0x3a170315	0.0005760652
138	0x3ab77c07	0.0013998755
139	0x3a883bfd	0.0010393854
140	0xbaa90e8b	-0.0012898011
141	0x3af68187	0.0018806913
142	0xba32245f	-0.0006795581
143	0x39aa371d	0.0003246599
144	0x3a970a5b	0.0011523472
145	0xba736529	-0.00092847884
146	0x3a67b50d	0.00088389294
147	0xbb197753	-0.002341707
148	0x3aaba8c0	0.0013096556
149	0xba354da3	-0.0006916171
150	0xbac231c4	-0.0014815857
151	0x3a1cc55e	0.0005980338
152	0x3b1c9065	0.0023889777
153	0x38f7ecdb	0.000118219956
154	0xba082c6b	-0.0005194607
155	0xb9c7c6f4	-0.0003810447
156	0xba8a280e	-0.0010540502
157	0xbae6bdca	-0.0017604169
158	0x3a305802	0.00067269814
159	0xbaa79926	-0.0012786731
160	0x3a91d63a	0.0011126467
161	0x3aed5503	0.0018107
162	0xb84ea78a	-4.927026e-05
163	0xbacc3c1e	-0.0015581881
164	0x3926019e	0.00015831596
165	0xba9aa214	-0.0011797571
166	0x3b0f1516	0.0021832637
167	0x3aac6146	0.0013151548
168	0xbb21df3f	-0.0024699715
169	0x3a0099bc	0.00049057207
170	0x3b12b122	0.0022383411
171	0xbabb285a	-0.0014278993
172	0x3b0f5366	0.0021869778
173	0xbb0f7993	-0.0021892532
174	0xbb0c741f	-0.0021431518
175	0xb9f8efe7	-0.00047480987
176	0xb9a13f72	-0.00030755583
177	0x3908e088	0.00013053615
178	0xbb043938	-0.0020175707
179	0x3a2f68a6	0.0006691314
180	0xbadec414	-0.0016995692
181	0x39b84ca7	0.00035152325
182	0xba9d6a4b	-0.0012009827
183	0x3b10afd4	0.0022077458
184	0xba490400	-0.00076681376
185	0x3991a3fe	0.0002777874
186	0xbb023902	-0.0019870405
187	0xba919fee	-0.0011110285
188	0x3aca2dcc	0.0015425025
189	0xbaae6f21	-0.0013308265
190	0xbaef918a	-0.0018277627
191	0xba46cebc	-0.00075839064
192	0xbb0e376a	-0.002170051
193	0x3b16ad95	0.0022991647
194	0xba1b7a6e	-0.0005931024
195	0xba93073a	-0.0011217364
196	0x3b0eb343	0.0021774329
197	0xba01516a	-0.0004933091
198	0x3ac5d8db	0.0015094535
199	0xbad520df	-0.0016260407
200	0xba98c60c	-0.0011655702
201	0xbb088143	-0.0020829
202	0xb97cf792	-0.0002412482
203	0xba899b8c	-0.0010498627
204	0xbb033956	-0.0020023189
205	0x399faa77	0.0003045385
206	0xba133353	-0.0005615253
207	0x3abb931c	0.001431081
208	0xbaca9055	-0.0015454391
209	0x3ab2d831	0.0013644752
210	0xbad3c266	-0.0016155958
211	0xbac14b1d	-0.0014747117
212	0xba4ff9f6	-0.00079336704
213	0xbadbfc5f	-0.0016783586
214	0x3972369e	0.00023099265
215	0xb9be1064	-0.00036251836
216	0x3b1cd6ac	0.0023931665
217	0x3abe0899	0.0014498412
218	0x3af757ef	0.0018870811
219	0x3b04cfb4	0.0020265402
220	0xba9bcd8f	-0.0011886823
221	0x392627a1	0.00015845757
222	0xbab83480	-0.0014053732
223	0x3aee5824	0.0018184227
224	0xbaf34a60	-0.0018561594
225	0x3ae02e69	0.0017103675
226	0x3a8b65d5	0.0010635207
227	0xbabcc5a9	-0.0014402169
228	0x3997ce92	0.0002895487
229	0x3af7260d	0.0018855945
230	0xbaac4d9c	-0.0013145688
231	0x3b14fdb4	0.0022734227
232	0x399cef73	0.00029933042
233	0x3a53b890	0.0008076513
234	0xb9edad5f	-0.00045333334
235	0xbb13b214	-0.0022536563
236	0xb90bc23b	-0.0001332843
237	0xbab2d2c0	-0.0013643131
238	0xbb194990	-0.0023389794
239	0xbab55048	-0.001383313
240	0xb9827269	-0.00024880774
241	0x3b0a1a28	0.002107272
242	0xba998243	-0.0011711795
243	0x3a8af744	0.0010602255
244	0x3a20cd9f	0.00061341556
245	0x3ae682ab	0.001758655
246	0x3b01f4cb	0.0019829746
247	0x3aac91e2	0.0013166035
248	0xbadcf8e4	-0.0016858843
249	0x3a056331	0.0005088328
250	0x3a6de66e	0.0009075169
251	0xba9fefb1	-0.0012202171
252	0x38d121b4	9.972174e-05
253	0x38f56110	0.0001170059
254	0x39270ce5	0.00015931165
255	0x3a703d7b	0.0009164435

gat_layer.attn.weight f4 [1, 64]
0	0xbb261ed6	-0.002534797
1	0xb9deaca3	-0.00042471764
2	0xbac362c7	-0.0014906757
3	0x3a7331fd	0.0009277163
4	0xb8bb703c	-8.93776e-05
5	0x3a2dc2fe	0.00066284824
6	0x3af14062	0.0018406028
7	0xbad207d4	-0.0016024061
8	0xbab53d94	-0.0013827556
9	0x3b1c1702	0.0023817425
10	0x3ae8e7f9	0.0017769329
11	0x3a008e36	0.00049040036
12	0x3a29bfc1	0.0006475412
13	0x3a86d060	0.0010285489
14	0xb98084d6	-0.00024513033
15	0x3a8c660b	0.0010711564
16	0xb63003d6	-2.6228277e-06
17	0xbb002fe0	-0.0019559786
18	0x3af1194d	0.0018394381
19	0xb98d2616	-0.00026921992
20	0xba3133fd	-0.0006759761
21	0x3a86ecd3	0.0010293968
22	0x3acd38f3	0.0015657231
23	0xba9e1181	-0.001205966
24	0x3a7bfcd0	0.0009612562
25	0x3a93af4d	0.0011267454
26	0xbafee51b	-0.0019446941
27	0x3ae9ebc2	0.001784675
28	0x3a788329	0.00094799936
29	0x38af99fc	8.373332e-05
30	0xbad0806c	-0.0015907413
31	0x3ab1528e	0.0013528632
32	0x37e2ccdd	2.7036696e-05
33	0x3ab68fbd	0.0013928335
34	0xba01f342	-0.0004957208
35	0xb8417668	-4.612506e-05
36	0xbaacdf0d	-0.0013189033
37	0xba85f4d4	-0.0010220059
38	0x3a9667ba	0.0011475005
39	0xbac46e9e	-0.001498658
40	0x3b15f292	0.002288018
41	0x388dba73	6.758133e-05
42	0x3aca80a5	0.0015449716
43	0x3b2a34b5	0.0025971357
44	0x3b167ea8	0.0022963677
45	0x3a2d8a00	0.000661999
46	0xb9b47d4e	-0.00034425635
47	0xbb0c02c8	-0.0021363962
48	0xbabb8926	-0.0014307841
49	0x3a2c1e55	0.0006565799
50	0xbb04cd24	-0.0020263875
51	0x3a885d4a	0.0010403779
52	0x3ad25ff1	0.0016050321
53	0x3ac483e2	0.0014992917
54	0x3a81f4ae	0.0009914839
55	0x3a959ea7	0.001141508
56	0x388118ed	6.155842e-05
57	0xb98d85a7	-0.00026993194
58	0xbb18777e	-0.0023264582
59	0x3a021779	0.0004962604
60	0xbae3ade6	-0.0017370551
61	0x3af24ef6	0.0018486667
62	0x3a9ba3d2	0.0011874384
63	0x39b74c2b	0.0003496123

linear_layers.0.weight f4 [64, 67]
0	0xbb0a377b	-0.0021090198
1	0xba8c7e64	-0.001071882
2	0x3ab158d1	0.0013530498
3	0x3b08678b	0.002081367
4	0xb89162ab	-6.932517e-05
5	0x3b1076b1	0.0022043402
6	0xbb1359f2	-0.0022484032
7	0xbb0cd5a5	-0.0021489647
8	0x3adb5f2f	0.0016736741
9	0x3b06290a	0.0020471239
10	0xbb19ef98	-0.0023488756
11	0xba3a7913	-0.00071133784
12	0x3a4557f6	0.0007528061
13	0xba1d274a	-0.0005994929
14	0x3aee5dde	0.0018185934
15	0xbaed0e5d	-0.0018085946
16	0xbb1b6b06	-0.0023714914
17	0x3b050d2a	0.0020302036
18	0x3a91c401	0.0011121036
19	0xb92c7e9a	-0.00016450361
20	0xb9ac9ddd	-0.00032924014
21	0x3a03b1cc	0.0005023747
22	0xbab37eea	-0.001369444
23	0xb9f4e5c1	-0.00046710487
24	0xbad6e78f	-0.0016395914
25	0xba925159	-0.001116316
26	0xbaf1f595	-0.001846003
27	0x3b1e5bf5	0.0024163697
28	0xb9edff81	-0.00045394528
29	0xbadcf4d4	-0.0016857632
30	0xba741a04	-0.0009311738
31	0x3ab17477	0.0013538738
32	0xb9e64465	-0.00043919976
33	0xb93533fe	-0.00017280874
34	0xbae0a688	-0.0017139474
35	0x37819a94	1.544998e-05
36	0x3b0ea41b	0.0021765295
37	0x3a0bf0f0	0.00053383317
38	0xb9fd6e90	-0.00048338296
39	0xbb1901d7	-0.0023347044
40	0x3ab220b7	0.0013590072
41	0x3aa5d391	0.0012651553
42	0x3af9b8e2	0.0019052292
43	0x3a4d4159	0.0007829867
44	0xba8de0d1	-0.0010824447
45	0x3acfa671	0.001584245
46	0x3abb7f38	0.0014304882
47	0x3b14d0af	0.0022707393
48	0x3ae41dbc	0.0017403881
49	0x3aa09e2d	0.0012254171
50	0xb8c6e85c	-9.484656e-05
51	0xbac082b3	-0.0014687389
52	0xbb04a718	-0.0020241197
53	0x3ad93c07	0.0016573676
54	0x38c42513	9.352914e-05
55	0x3a579854	0.0008224298
56	0x3b0354c0	0.0020039529
57	0xbaab816c	-0.0013084835
58	0xba5db766	-0.00084578095
59	0xb87a15db	-5.9625e-05
60	0xb90ee953	-0.00013629095
61	0xbb1b2384	-0.0023672292
62	0xba5f28a7	-0.00085128326
63	0xbaac19ca	-0.0013130244
64	0xbadfe4ca	-0.0017081734
65	0xbcb0bb28	-0.021573618
66	0x3d3b57f7	0.045738187
67	0x3b16bd86	0.0023001148
68	0x3a0915ee	0.0005229403
69	0xbb18c679	-0.0023311658
70	0xb7ea7adc	-2.7952185e-05
71	0xbac6b52f	-0.0015160198
72	0x3aa7e9c5	0.0012810758
73	0x3afa596d	0.0019100137
74	0xba9d29f8	-0.0011990657
75	0x3afcca84	0.0019286429
76	0x3b20468e	0.0024456116
77	0xb91667fd	-0.00014343853
78	0xb92cfbf5	-0.0001649706
79	0x3a68738d	0.0008867316
80	0xbaaf54a1	-0.0013376662
81	0x3aa3e98d	0.0012505517
82	0xba519046	-0.00079942157
83	0x39fbac1b	0.0004800268
84	0x3a061be4	0.00051158504
85	0xbab26545	-0.0013610503
86	0xba5e0b55	-0.00084703165
87	0xba95bba6	-0.0011423721
88	0x3a833ae5	0.0010012059
89	0xba9b26b6	-0.0011837098
90	0xbae4cdd3	-0.001745636
91	0xbac87ff4	-0.0015296922
92	0x3ac85984	0.0015285467
93	0xb8f8b56c	-0.00011859354
94	0x3af8ef84	0.001899228
95	0x3a6e1720	0.00090824254
96	0x3a7638e5	0.0009392633
97	0xbac369a0	-0.0014908798
98	0x3afa23c8	0.001908415
99	0xb7d96865	-2.5917028e-05
100	0xba3be48b	-0.00071675394
101	0xba21c39b	-0.000617081
102	0xbb1be5a1	-0.0023787993
103	0x3a68fd6c	0.00088878605
104	0xb8e50023	-0.000109195964
105	0xba59671e	-0.0008293259
106	0xba864d7b	-0.001024648
107	0x3adab231	0.0016685185
108	0xba50be30	-0.00079629105
109	0x3a07f4d6	0.00051863247
110	0x3ad0f60c	0.0015942468
111	0xbae37fa9	-0.0017356771
112	0xba8dc6a7	-0.0010816649
113	0x39a39145	0.00031198017
114	0x3ad94b70	0.0016578268
115	0x3a421e7b	0.00074050546
116	0xbac7e77a	-0.001525148
117	0x3a48eef1	0.00076649996
118	0x39019aa3	0.00012360005
119	0x3a310927	0.0006753378
120	0x39c945df	0.00038389766
121	0xba8f2211	-0.0010920187
122	0x3b1119cc	0.002214062
123	0x3a968b39	0.0011485583
124	0xba94c9b2	-0.0011351614
125	0xbaa37553	-0.0012470878
126	0x3b12b88d	0.0022387833
127	0xbacbf43e	-0.0015560461
128	0xb95ec760	-0.00021245843
129	0xba4260ad	-0.00074149185
130	0x3a15e080	0.0005717352
131	0x3a8eca2e	0.0010893994
132	0xbc5b4b52	-0.013384657
133	0x3d173bdb	0.036922317
134	0xbae7681e	-0.0017654931
135	0xba0ab40b	-0.0005291111
136	0x3b1d444b	0.0023997005
137	0xba0a1587	-0.000526749
138	0x3ae59a9c	0.0017517391
139	0x3a99b3fb	0.0011726612
140	0xbb09a2cd	-0.0021001578
141	0x38fd12e9	0.000120675024
142	0x3a6fb2f8	0.0009143795
143	0x3a45d403	0.0007546546
144	0x3a9ed200	0.0012117028
145	0x3af68763	0.0018808659
146	0x3b17727c	0.002310901
147	0x3a54ee3c	0.0008122658
148	0x396915ec	0.00022228778
149	0x3a5e7d2b	0.00084872794
150	0x3b066cb0	0.002051156
151	0xbab5d0cb	-0.0013871429
152	0xbac88812	-0.0015299341
153	0x3a80a8b5	0.0009815904
154	0xbadfcd3b	-0.0017074713
155	0x3b098794	0.0020985352
156	0xb9eaeb76	-0.0004480739
157	0xbb0570a7	-0.0020361335
158	0x3abad928	0.0014255391
159	0x3aef0ecf	0.0018238666
160	0xbb192579	-0.0023368283
161	0xbac94704	-0.0015356247
162	0xbb110a5d	-0.002213142
163	0x394fce64	0.00019817945
164	0xb904136e	-0.00012595739
165	0x3aab9f1e	0.0013093685
166	0xbb0f48ee	-0.0021863538
167	0x3a168c58	0.0005742959
168	0xba1b580f	-0.00059259025
169	0x3a954781	0.0011389108
170	0x3b116020	0.002218254
171	0xbad63137	-0.0016341571
172	0xb9cfb232	-0.00039614883
173	0x3afc36df	0.0019242427
174	0xbaabf1da	-0.0013118342
175	0x38f65bb7	0.00011747277
176	0xb9f5c1be	-0.0004687439
177	0x3a8286fc	0.0009958441
178	0xbacabba8	-0.0015467303
179	0xba3e183a	-0.0007251535
180	0xbaf5e541	-0.001876034
181	0x39c3b79e	0.00037330104
182	0xb8f8f389	-0.000118709235
183	0xbb05cd1d	-0.0020416446
184	0x3ac44725	0.0014974816
185	0x3a9209ec	0.0011141873
186	0x3a9d2d3c	0.001199163
187	0xbb04b89f	-0.0020251644
188	0x38f82cbe	0.000118338954
189	0x3ae45e02	0.0017423036
190	0x38d077b3	9.9405086e-05
191	0x3a89eed0	0.0010523442
192	0x3ae786b5	0.0017664047
193	0xbab99e7c	-0.0014161612
194	0x3a68ed5a	0.0008885466
195	0x3b08160b	0.0020765092
196	0xb7b25d86	-2.1262804e-05
197	0xbaf31a17	-0.0018547204
198	0xba8b49f1	-0.0010626895
199	0x3a660458	0.0008774451
200	0xbb14afc3	-0.002268777
201	0xba200012	-0.0006103526
202	0xba4ec939	-0.0007888261
203	0x3b01a43c	0.001978173
204	0x3ac0e21e	0.0014715826
205	0xba8688d2	-0.0010264164
206	0xbaa15fa6	-0.0012311831
207	0x3a962446	0.0011454902
208	0xb8110751	-3.4577508e-05
209	0xbabe9702	-0.0014540853
210	0x3ac62bb8	0.001511923
211	0x3a4fe1eb	0.0007930088
212	0xba06e270	-0.0005145436
213	0x39b7a668	0.00035028462
214	0x3a33488c	0.00068391184
215	0x3b1c72f7	0.0023872235
216	0xbaccffa0	-0.0015640147
217	0x3af6a1a1	0.001881648
218	0x3a1b57f4	0.0005925887
219	0xba818e42	-0.0009884315
220	0x3a5390a9	0.0008070567
221	0xbaafc717	-0.0013410774
222	0x3a15a16b	0.0005707952
223	0x3b1078a1	0.0022044557
224	0x3af27f86	0.001850114
225	0x3ad983cf	0.0016595068
226	0xba48fb03	-0.0007666798
227	0x3ade5a7b	0.0016964221
228	0xbacf8a72	-0.0015834107
229	0x3ad479b6	0.0016210589
230	0xbb19ec8c	-0.002348694
231	0x3aa247ab	0.0012380978
232	0xbac1be91	-0.0014781525
233	0x3a59a789	0.0008302858
234	0xba16dfb1	-0.00057553785
235	0xba8f6a97	-0.00109418
236	0xbad5ac75	-0.0016302007
237	0xbaeedb79	-0.0018223367
238	0xbafa2849	-0.0019085492
239	0x3ae4c0dd	0.0017452497
240	0xba949010	-0.0011334438
241	0xb9da37df	-0.00041621827
242	0xbb0d19ea	-0.0021530339
243	0xba2d4ed8	-0.0006611175
244	0x3a834944	0.0010016342
245	0x39aad9d1	0.00032587213
246	0xbb0c9d16	-0.0021455935
247	0xbac3beb5	-0.0014934154
248	0xb9d15cac	-0.00039932632
249	0x3990a2df	0.0002758717
250	0xb7c1e204	-2.311264e-05
251	0xbb18a852	-0.0023293686
252	0xbab5ff97	-0.0013885376
253	0xbadf6000	-0.001704216
254	0x3a9fdb22	0.0012196044
255	0xbaeee37d	-0.0018225756

linear_layers.0.bias f4 [64]
0	0x3a25bdc4	0.0006322528
1	0x3b4a4703	0.003086508
2	0x3b1e3eab	0.002414624
3	0xb8d850c4	-0.000103147264
4	0x3969e681	0.00022306481
5	0x3af6f16a	0.0018840258
6	0x3b2fb972	0.0026813415
7	0xbabe8b37	-0.0014537339
8	0x3b0384ac	0.0020068092
9	0x3b23d211	0.0024997036
10	0x3a65cf30	0.000876653
11	0xbaec44ea	-0.0018025909
12	0x3a9bcee2	0.0011887217
13	0xb8c89017	-9.563582e-05
14	0xb9551d32	-0.00020324139
15	0xba13509b	-0.0005619616
16	0x39dad530	0.00041739037
17	0xbacaf2d2	-0.0015483743
18	0x3aa5c047	0.0012645804
19	0x3b07f906	0.0020747795
20	0xbac5ce88	-0.0015091458
21	0xbabc4826	-0.0014364764
22	0xbacbff26	-0.0015563711
23	0xbacced77	-0.0015634735
24	0x39d2a5b4	0.0004017778
25	0x3b190474	0.0023348602
26	0x3abdb7c5	0.0014474323
27	0x3a94065e	0.0011293401
28	0x3ab7c78c	0.0014021262
29	0xba3ff5a3	-0.00073226745
30	0x3aba9d0d	0.0014237479
31	0xbb1b5d37	-0.0023706683
32	0x3b10a71d	0.0022072264
33	0x3b4dfdf9	0.0031431897
34	0xba8925a2	-0.0010463486
35	0xba06d0c0	-0.00051428005
36	0xbae406ab	-0.0017397007
37	0xb8229362	-3.876107e-05
38	0x3a8f4090	0.0010929275
39	0x3b0feb44	0.0021960298
40	0x3b06e8d2	0.002058555
41	0xbaf8571c	-0.0018946859
42	0x3b2cee14	0.0026387023
43	0xba375fca	-0.00069951697
44	0x3b011ec2	0.001970217
45	0x3a6a1ae8	0.0008930401
46	0x3a946235	0.0011320772
47	0x3a848ccb	0.001011276
48	0x3b22a7d0	0.0024819262
49	0x39bf80a0	0.00036526192
50	0xba84384b	-0.0010087577
51	0x3ac86ead	0.0015291773
52	0xbb049428	-0.002022991
53	0xbae1b04b	-0.0017218677
54	0x3abc5a0e	0.00143701
55	0xbab8a80e	-0.001408817
56	0xbb1d531f	-0.0024005843
57	0x3a522f33	0.00080178975
58	0x3aa62041	0.0012674407
59	0xb8c59385	-9.42117e-05
60	0xba502d42	-0.0007941314
61	0x3a0e7ca1	0.0005435441
62	0x3b04b7ee	0.0020251232
63	0x3b0c6c6e	0.0021426934

linear_layers.2.weight f4 [64, 64]
0	0x3c36451f	0.011124878
1	0x3c2498fa	0.010046238
2	0x384a2b4c	4.8200876e-05
3	0xbb01cac8	-0.0019804705
4	0xbaae183d	-0.001328237
5	0x3ad092dc	0.0015912908
6	0x3bd23ea8	0.0064161606
7	0x3a027c76	0.00049776526
8	0x3be16baf	0.006879292
9	0x38e32e5d	0.00010832839
10	0x3a8b6d3d	0.0010637414
11	0x3badcbe5	0.005303847
12	0x3b1992e8	0.002343351
13	0x3aeec20e	0.0018215792
14	0xbad5b9d4	-0.0016305991
15	0x3b2746f4	0.002552447
16	0x3b66c84d	0.0035214603
17	0x396e04a8	0.00022699183
18	0xba6eeb2e	-0.0009114024
19	0x3c4939a2	0.012281807
20	0x3c161edd	0.009162632
21	0xba1fb5e6	-0.00060924736
22	0x3abc3e3d	0.001436181
23	0x3b1c2a9b	0.0023829106
24	0x3c4c4cfb	0.012469525
25	0x3c23e5cb	0.010003517
26	0xbacf4972	-0.0015814735
27	0xbb0ff0ce	-0.00219636
28	0x3b510e60	0.0031899437
29	0xbb003d70	-0.001956787
30	0x3c6d97e1	0.014501543
31	0x3911ce10	0.00013905042
32	0xbb132de4	-0.0022457773
33	0x3c60ea59	0.013727748
34	0x3b4f7a74	0.003165868
35	0x3aaaa9b7	0.001302055
36	0xba36f22e	-0.00069788366
37	0x3c342a28	0.010996379
38	0x3bcc67dc	0.006237967
39	0x3c41f9be	0.011839328
40	0xbb4358d5	-0.0029807587
41	0x3a7fad1d	0.0009753274
42	0x3b3dd6e6	0.00289672
43	0xbb1f621a	-0.0024319948
44	0xb80bc40c	-3.3322765e-05
45	0xba2de563	-0.00066336076
46	0x3b49b63f	0.0030778793
47	0x3b007746	0.0019602343
48	0x3b9787e8	0.0046243556
49	0x3ada67af	0.001666298
50	0x39946aaf	0.00028308245
51	0xbaa8a04e	-0.0012865157
52	0x398e481b	0.00027138073
53	0x3abba57e	0.0014316288
54	0x39c48afc	0.00037487585
55	0x3b7dc95c	0.0038724756
56	0x3aec2c21	0.0018018523
57	0x3a51f6c3	0.00080094876
58	0x3a8cab61	0.0010732227
59	0xbb221461	-0.0024731385
60	0x3bcfaafc	0.0063375216
61	0x3b81fe4b	0.0039670817
62	0x3b7e4e74	0.0038804086
63	0xbb2b51ab	-0.0026141207
64	0x3956f50f	0.00020499922
65	0xbab73da5	-0.0013980163
66	0x3ae078b9	0.0017125822
67	0x3ad13f34	0.001596427
68	0x3b098392	0.0020982963
69	0x3ac90dc6	0.0015339188
70	0xba9b97b4	-0.0011870773
71	0x398d1b50	0.00026913965
72	0xbb11d759	-0.0022253601
73	0x3ae6355a	0.0017563507
74	0x3a48cab0	0.00076595973
75	0xba18a5a9	-0.0005823025
76	0x39f9a887	0.00047618544
77	0x3abd501c	0.001444343
78	0x3a788675	0.0009480485
79	0xbab4d0db	-0.0013795154
80	0x3ae99e17	0.0017823604
81	0xbb1b83b4	-0.0023729624
82	0xbab8b816	-0.0014092948
83	0xba3d059f	-0.00072106154
84	0xba6bc5c6	-0.0008994009
85	0xba0b1daa	-0.00053068495
86	0x3a81b94d	0.0009897143
87	0xbacd4bff	-0.0015662907
88	0x3ab46669	0.0013763431
89	0xb8feebe0	-0.00012155599
90	0xbb0d837c	-0.0021593263
91	0xbaa502d6	-0.0012589346
92	0xb9d1be1d	-0.00040005232
93	0xbae50eef	-0.0017475764
94	0xb9731a7b	-0.0002318415
95	0x3a79e364	0.000953248
96	0xb99d5bfe	-0.00030013913
97	0x3aea981a	0.0017898113
98	0xba30cbe8	-0.00067442516
99	0x3ae1d79e	0.0017230397
100	0x3ac3f439	0.0014950103
101	0xbad650bc	-0.0016350965
102	0xbaaf42b6	-0.0013371322
103	0xbb103270	-0.002200272
104	0xba8bc93f	-0.0010664834
105	0xb97d15e3	-0.00024136114
106	0xbb237963	-0.0024944178
107	0xbb1e9b7a	-0.0024201558
108	0x39adbb92	0.00033136882
109	0x3aeef519	0.0018231004
110	0xbaf2c9e9	-0.0018523309
111	0x3aecd184	0.0018067812
112	0x3af3bf0c	0.0018596365
113	0x3a2f208a	0.0006680569
114	0x3b19e75b	0.0023483846
115	0xb86ad00f	-5.5983717e-05
116	0xbb01c928	-0.0019803736
117	0xba8b15dd	-0.0010611374
118	0xba586f8f	-0.00082563696
119	0x3a214fb7	0.0006153541
120	0x39b0a22d	0.00033690166
121	0xbad5aa8e	-0.001630144
122	0xba247a65	-0.0006274342
123	0xba844000	-0.0010089874
124	0xba2a6e4c	-0.0006501421
125	0x3adbabbf	0.0016759558
126	0xbb1b6604	-0.002371193
127	0x39ba9640	0.0003558863
128	0xbb1b6af0	-0.0023714863
129	0x3b1730ee	0.0023069936
130	0xb9e4ea0c	-0.00043661927
131	0x3aad8986	0.0013239838
132	0x3a8e1898	0.001084107
133	0xba95959a	-0.0011412383
134	0x3a663be4	0.0008782728
135	0x382c2493	4.1042058e-05
136	0x3b0d7b25	0.0021588292
137	0xbb02aa20	-0.0019937828
138	0xbae66be0	-0.0017579757
139	0x3b0723de	0.0020620744
140	0x3abdd45c	0.0014482844
141	0xba3c8c81	-0.00071925676
142	0x3a157179	0.00057008077
143	0x3aae5dcc	0.00133031
144	0xbaed30db	-0.0018096225
145	0xbad00d9d	-0.0015873198
146	0xb9c62592	-0.00037793495
147	0xba837361	-0.0010028892
148	0x3a9cd545	0.0011965415
149	0xb9867168	-0.00025642966
150	0xbaca50db	-0.0015435474
151	0xb9891f88	-0.0002615417
152	0x3b1e2a8b	0.0024134244
153	0xba86ba2f	-0.0010278876
154	0x3b1ce85b	0.0023942206
155	0x3977216a	0.00023568203
156	0xb9cca35c	-0.00039031624
157	0x39ce36f9	0.0003933234
158	0xb9941fce	-0.00028252456
159	0xbb1c69b6	-0.002386672
160	0x3b002234	0.0019551637
161	0xbb0f61f3	-0.002187845
162	0xbb044c15	-0.002018695
163	0x3ab610fe	0.0013890562
164	0x39e574bc	0.00043765258
165	0xb9ef33f4	-0.0004562434
166	0xbaece5b0	-0.0018073823
167	0xbb09bd1b	-0.0021017257
168	0xba16cb0e	-0.00057523034
169	0xbb19f932	-0.002349448
170	0x39ff7971	0.0004872787
171	0x3afde489	0.0019370477
172	0x3920a1cd	0.00015319065
173	0x3b1a1775	0.0023512517
174	0xba0f3cc5	-0.00054640725
175	0xba780ac4	-0.00094620534
176	0xba77199a	-0.0009426117
177	0x3a85159c	0.0010153535
178	0x3a0ae166	0.0005297869
179	0x3ac66629	0.0015136647
180	0xbaee4c04	-0.0018180613
181	0x398f62cf	0.00027348704
182	0x3a15e3eb	0.00057178613
183	0xb9295b8a	-0.00016151197
184	0xbad1afc6	-0.0015997819
185	0xbacbcbf7	-0.0015548457
186	0x3b100969	0.0021978265
187	0x3acaf7b0	0.0015485194
188	0x398e6907	0.00027162602
189	0x3a182644	0.0005804042
190	0xbb20fd67	-0.0024565102
191	0x39bb90f8	0.0003577543
192	0xba718b59	-0.0009214185
193	0x39d38ec1	0.00040351416
194	0xb8446a64	-4.6829125e-05
195	0x39eaf32d	0.00044813138
196	0x3aeb972d	0.0017974131
197	0xbb06d823	-0.0020575605
198	0x3a74c50d	0.0009337224
199	0x3aae3f34	0.0013293982
200	0xbb1efa6a	-0.0024258145
201	0x37b93476	2.2078148e-05
202	0x3b0e4e92	0.0021714312
203	0xbb261072	-0.0025339392
204	0xbaa599b9	-0.0012634314
205	0xbaa9e685	-0.0012962377
206	0x3affbc53	0.0019511081
207	0x3ad28c3c	0.0016063522
208	0xbb067726	-0.0020517795
209	0x3a3a57c7	0.0007108417
210	0x3a9820c6	0.0011606447
211	0xbb2a53dd	-0.0025989928
212	0x3ad0f1cf	0.0015941205
213	0xba3f5472	-0.0007298655
214	0xbb001d4f	-0.001954872
215	0x3a64ef2f	0.0008733151
216	0x3a475935	0.00076045404
217	0xba93d7d8	-0.0011279536
218	0xb99bab16	-0.00029691373
219	0x3a903234	0.001100129
220	0xb9e88441	-0.00044349025
221	0x3a7c8410	0.0009632716
222	0x388ce89c	6.719047e-05
223	0xbb1f1e88	-0.0024279673
224	0x3a6961b4	0.00089028035
225	0x3a922f21	0.0011152962
226	0x3aa4a888	0.0012562433
227	0x3b00b25a	0.0019637556
228	0x3a5843ec	0.0008249867
229	0x396e9dce	0.00022756236
230	0x39bb50c3	0.00035727592
231	0x3a4e5438	0.0007870826
232	0x3a082f57	0.00051950425
233	0x381ceb08	3.741219e-05
234	0xbb032404	-0.002001048
235	0x3a065bda	0.0005125381
236	0xbaa9773c	-0.0012929211
237	0x3ad6645b	0.0016356813
238	0x3af05832	0.0018336831
239	0xbaa1dc24	-0.0012348932
240	0x3b00cf2e	0.0019654739
241	0xbb0ec146	-0.002178268
242	0xbab9ee64	-0.0014185426
243	0x3764be39	1.3634149e-05
244	0x39e8a0a9	0.0004437019
245	0x3ab4a89c	0.001378316
246	0x3a986df6	0.0011629451
247	0xba239917	-0.00062407687
248	0xb960c6bd	-0.0002143634
249	0xba37f9cb	-0.0007018118
250	0xba54fe23	-0.00081250275
251	0xbafe7b7f	-0.0019415467
252	0xbab686cf	-0.0013925674
253	0xba9ade9e	-0.0011815613
254	0x3b207394	0.0024482952
255	0xba8cf5d9	-0.0010754421
