trained_models/tr_model.pt (torch, 6142 bytes, 11 tensors)

gat_layer1.linear_l.weight f4 [8, 8]
000000 a9 c4 00 3f 4c 24 53 3f 41 f7 b3 be 85 24 8a 40
       0.5030008 0.8247726 -0.35149577 4.316958
000010 2c 0c 28 40 9d 56 9a be 76 b0 e7 3e e4 01 ac 3e
       2.625743 -0.30144206 0.45251817 0.33595192
000020 39 91 90 3e f4 65 61 3f 72 fc 85 3e 78 c0 7b 40
       0.28235796 0.88046193 0.26169163 3.9336224
000030 87 b1 11 40 e9 3f 33 bd fb 46 3d 3e 04 35 ea 3e
       2.2764604 -0.04376212 0.18484108 0.45743573
000040 19 ae d4 3e b5 2d 83 bf d4 3a a6 3e d2 ae 8e c0
       0.41539076 -1.0248324 0.32466757 -4.4588404
000050 7b dc ac bf ed 79 6e 3f 45 51 ab 3d 52 25 09 3e
       -1.3504785 0.93154794 0.0836511 0.13393143
000060 0a dd 90 3f 9b d3 69 3f 88 2f f8 be 5b 8f 81 c0
       1.1317456 0.9133851 -0.48473763 -4.0487494
000070 5e c4 f4 bf 2f aa 98 3f d1 d1 68 3f 7f 2e 42 3f
       -1.9122427 1.1926936 0.90945154 0.758522
000080 08 da 05 40 e7 78 94 3f 0b 01 22 bf 44 33 35 3f
       2.0914326 1.1599396 -0.6328284 0.7078135
000090 79 af 87 40 79 0f 14 c0 59 35 9d 3f 79 3f 9e 3f
       4.24017 -2.3134444 1.2281905 1.236312
0000a0 13 6f 44 3f 57 9f 82 3d 2d d2 18 be 75 a4 87 c0
       0.76731986 0.06378048 -0.14923926 -4.2388253
0000b0 ee c4 c2 bf ce ac 87 3f d4 73 b2 3e 3a b0 b4 3e
       -1.5216348 1.0599611 0.34853995 0.352907
0000c0 70 c7 cf 3e 3c c6 5d 3e b3 45 26 be c7 a4 76 c0
       0.40581846 0.21657652 -0.16237526 -3.8538072
0000d0 1c 64 e6 bf 9b f2 83 3f 18 25 e0 3e 97 b2 ba 3e
       -1.7999301 1.0308412 0.437783 0.36464378
0000e0 b3 9a 5c 3f 1e 84 bb 3d 33 fc dd bd c7 3a b1 c0
       0.8617355 0.09156059 -0.10839119 -5.538425
0000f0 da b7 bb bf 8e 7b 59 3f f2 5e 74 3f 77 e6 0d 3f
       -1.4665482 0.84954154 0.95457375 0.55429786

gat_layer1.linear_r.weight f4 [8, 8]
000000 bd 77 40 40 8e 91 ea 3e 9b 0a a4 be 76 dc 45 c0
       3.0073082 0.45814174 -0.3203934 -3.0915809
000010 5d e1 0e c0 d9 66 1e bf 56 5a f1 3f e6 8d b9 3d
       -2.232505 -0.61875683 1.8855693 0.09060268
000020 38 2e b1 40 b4 ab a7 be 3f da 5c bd 48 80 93 c0
       5.536892 -0.32748187 -0.053919073 -4.6094093
000030 7d 4b 07 40 b7 8a 58 3f 78 28 49 bf 5b cd a8 3e
       2.1139824 0.8458666 -0.78577375 0.32969174
000040 b7 3d be 40 e2 38 de bd 9f 42 b2 be f1 4d 66 40
       5.9450336 -0.10850693 -0.34816453 3.5985072
000050 3a ec 83 40 24 63 d5 3f 47 c2 59 bf c8 af 9b 3e
       4.1225863 1.667088 -0.8506207 0.30407548
000060 f5 b2 38 c0 0e 26 3c be a3 4d 48 be e4 af 1b c0
       -2.8859227 -0.18373892 -0.19560866 -2.4326105
000070 ff a8 23 bf 4c 85 b8 be a0 49 44 bf b8 b0 a1 be
       -0.6392974 -0.36039197 -0.7667484 -0.31580138
000080 8d 5e fa be 31 41 b5 be 89 5c 5d be be 21 4e 40
       -0.48900262 -0.354013 -0.2161733 3.2208095
000090 08 6a cf 3e 49 45 19 bf 83 12 87 bf 27 21 42 bf
       0.40510583 -0.59871346 -1.0552524 -0.75831836
0000a0 f8 89 2f c0 48 1a b2 be 28 c7 2a 3d 41 01 f5 bf
       -2.742796 -0.34785676 0.041693836 -1.9141008
0000b0 60 5d ce 3d 58 79 88 bf 38 1d 84 bf d0 af b9 bf
       0.100764036 -1.0662031 -1.0321417 -1.4506779
0000c0 f4 98 3e be f9 5b 4c 3c e6 6d 8f bd fe 03 43 40
       -0.18613034 0.0124731 -0.07003383 3.0471187
0000d0 17 32 16 40 d4 a3 32 be 73 a0 4f bd 63 da dd bb
       2.3468072 -0.17445308 -0.050690126 -0.0067704185
0000e0 2f fb f0 be 15 db 8f be 02 1a 44 bd 34 33 77 c0
       -0.47066638 -0.28096834 -0.047876365 -3.8625002
0000f0 6d cc 62 3e 8a 88 7f bf 82 9f bb bd 72 9e 84 bd
       0.22148295 -0.9981772 -0.09161283 -0.064755335

gat_layer1.attn.weight f4 [1, 8]
000000 eb 38 4b c0 4e 48 46 c0 8f de 3c 40 9b 80 21 40
       -3.175349 -3.0981631 2.951084 2.5234745
000010 fc 0f 5e c0 84 c7 6d 40 75 b1 a1 40 93 61 54 40
       -3.4697256 3.7153025 5.052912 3.3184555

gat_layer.linear_l.weight f4 [8, 8]
000000 cb 9d 98 bd a9 e4 88 be 34 78 9f be f8 7c af 3c
       -0.074519716 -0.26736954 -0.31146395 0.021421894
000010 56 11 a7 be b5 d2 4a be 84 4b 37 be 6d c8 86 be
       -0.32630414 -0.19806941 -0.178999 -0.26324788
000020 8c 28 df bd 1e a9 05 bd 74 eb 80 be b6 ba 7a 3e
       -0.108964056 -0.032631986 -0.25179636 0.24485287
000030 c9 b2 18 be 61 0f b9 3d a7 fe 1d be 49 e1 8b be
       -0.14911951 0.090361364 -0.15429173 -0.27320316
000040 6c 53 62 3e cf c5 96 be 54 d4 83 be d8 16 79 3e
       0.22102135 -0.2944779 -0.2574793 0.2432512
000050 98 e1 6d be aa 8f 50 3e e4 ea 2b be 75 aa 93 3d
       -0.23230588 0.20367303 -0.16788822 0.072102465
000060 6c 04 13 3e a8 44 d2 bd f2 91 12 be c2 67 e9 3c
       0.14357156 -0.102670014 -0.14313486 0.028491858
000070 6c 49 a5 be d6 75 43 be 4e a2 5f 3e cd 3a 46 be
       -0.3228258 -0.1908792 0.21839258 -0.19358368
000080 3f d8 b4 3e dd 9c a6 3e fc f0 c7 3d 96 d5 aa be
       0.35321233 0.32541552 0.09762761 -0.33366078
000090 17 9a 57 be 8c 8e 0f 3e e1 c2 b3 3e dd 01 aa 3e
       -0.21054874 0.14019221 0.35109618 0.33204547
0000a0 44 a0 e4 bd e4 73 96 be 24 d6 ec bd 69 45 08 3e
       -0.11163381 -0.29385293 -0.115642816 0.13307728
0000b0 a5 f6 79 bd 31 25 c1 bd f2 51 1e be 7f 25 2b be
       -0.061026234 -0.09430922 -0.15460947 -0.16713522
0000c0 9d 08 3c 3e 62 28 63 3e aa 65 91 3e d6 ef 8c bd
       0.1836266 0.22183374 0.28397876 -0.068816826
0000d0 72 dc 38 bd 2c 89 b3 3e 9a 44 54 3e 21 8d 14 3d
       -0.045132108 0.3506559 0.20729294 0.036267404
0000e0 2a 99 95 3e e0 92 a3 be f1 e0 10 be eb 04 83 be
       0.29218417 -0.31947994 -0.14148308 -0.2558969
0000f0 7c 9e 4b be 74 51 b0 bd be b9 4b be 58 de 93 bc
       -0.19884676 -0.08609286 -0.19895074 -0.018050358

gat_layer.linear_r.weight f4 [8, 8]
000000 ec c0 9c be 72 ac 0d 3e b7 de 9b be 03 03 55 be
       -0.30615938 0.13835314 -0.30443355 -0.2080193
000010 4a a8 18 3e 08 94 34 3d f0 e7 75 3e cf c4 95 bd
       0.14907947 0.044086486 0.24014258 -0.07312929
000020 da 29 26 3e e2 38 8d be 7b e3 c3 3d 05 d9 8c 3e
       0.16226903 -0.2758246 0.09564873 0.27509323
000030 30 e4 43 be 3e eb e8 3d e6 7e 9d bd 73 f5 f9 3c
       -0.19130015 0.11372994 -0.076902196 0.030512547
000040 d8 3f 94 be 8b 56 c8 3d 1d 7f b4 3e 62 18 8b be
       -0.2895496 0.09782132 0.3525323 -0.2716704
000050 9a 04 b0 3d 31 3f a0 be 14 30 9d 3d 89 d3 72 3e
       0.08594628 -0.3129821 0.07675186 0.23713507
000060 75 f8 18 3c eb 1c 85 be a1 e0 97 be ee 0c 85 3e
       0.0093365805 -0.25998625 -0.29663566 0.25986427
000070 b0 86 45 3e 48 91 36 3c 38 bb 95 bd 7c f6 04 bd
       0.1928966 0.011143036 -0.073111 -0.03246163
000080 85 ab 06 bd d4 8b 8c be 6a 60 56 3e af 76 52 3e
       -0.032878418 -0.2745043 0.20935217 0.20553087
000090 a9 dd 56 bd 57 46 08 be fa a1 62 be ab 84 91 3e
       -0.052457485 -0.13308083 -0.22132102 0.2842153
0000a0 4b 00 9f 3e 93 6f a3 be be 9c aa be 78 c9 37 bd
       0.3105491 -0.31921062 -0.3332271 -0.04486987
0000b0 24 19 10 bd 9f 02 30 3e b7 3d 87 bd bb f0 8a 3d
       -0.035180226 0.171885 -0.06603568 0.06784197
0000c0 e1 e6 46 3e 5f 52 83 3e aa c5 3e be e4 7e 01 3e
       0.19424011 0.25648782 -0.1863009 0.12646061
0000d0 0f 62 aa be 75 26 af be 84 2e ac 3d 26 03 88 3e
       -0.33277938 -0.34209028 0.0840731 0.26564902
0000e0 11 a4 7f be 9e c1 06 bb fc 0d 07 3e 58 7d b2 3e
       -0.2496493 -0.0020562182 0.13188928 0.34861255
0000f0 61 e0 45 3e 1b 51 a2 be be b2 18 3e c4 a3 8a 3e
       0.19323875 -0.31702504 0.14911935 0.27078068

gat_layer.attn.weight f4 [1, 8]
000000 1d 51 a2 be 22 14 30 be 79 01 95 3e 8c 2b ad be
       -0.3170251 -0.1719518 0.29102686 -0.33822286
000010 0b e0 93 bd e7 a5 c2 3c 7c 74 c8 3d 0c 75 84 3e
       -0.07220467 0.023760749 0.09787843 0.2587055

gat_output.linear_l.weight f4 [1, 8]
000000 da ca 68 3e 52 c9 51 3f e9 1e c4 be eb 1f 83 41
       0.22733632 0.81947815 -0.38304833 16.390585
000010 c7 0c 80 41 29 68 6e 41 0e ef 19 40 51 e1 1a 41
       16.006239 14.90043 2.4052157 9.680009

gat_output.linear_r.weight f4 [1, 8]
000000 98 72 17 c0 1f 2c 57 bf 37 69 f7 bf 76 79 af 41
       -2.3663692 -0.840517 -1.9328984 21.934307
000010 85 13 b2 41 f0 c8 af 41 76 3f a2 41 f0 f5 ad 41
       22.259531 21.973114 20.280987 21.745087

linear1.weight f4 [8, 16]
000000 3e 3d 17 3e 90 2e e0 3c 08 93 0a bd dc 22 91 bd
       0.14769456 0.027365953 -0.033831626 -0.07086727
000010 f8 62 17 be 6e 29 26 3e 00 ad ed 3a f8 a3 f8 bd
       -0.14783847 0.16226742 0.0018133223 -0.121406496
000020 5c a8 c6 3d 98 5f fc bd ca 3f 40 3e 4a b7 43 be
       0.09700081 -0.123229206 0.18774334 -0.19112888
000030 38 7f 44 3e d0 c8 27 3e e0 2c 25 bd 60 86 ad bd
       0.19189155 0.16385198 -0.040326 -0.084728956
000040 04 28 7b 3e fc 12 39 be 38 7a cb bd 00 47 fd 3b
       0.24526983 -0.18073648 -0.09935421 0.007729411
000050 a8 9e 90 3d ac 79 6b be 50 e6 c7 3c ec b8 29 3e
       0.07061511 -0.22995633 0.024401814 0.16574448
000060 8c 1b af 3d e0 4b f6 bc c8 8f 7f 3e 84 bc 17 3e
       0.08550176 -0.030065477 0.24957192 0.14818007
000070 c2 dd 22 be b8 e4 79 3e e8 87 8e bd 68 81 e1 bd
       -0.15904906 0.24403656 -0.06959516 -0.110110104
000080 22 e4 16 3e e2 04 3c be 00 9e 40 3d 50 e7 fa bc
       0.14735463 -0.18361238 0.04702568 -0.030627877
000090 0c d3 45 3e a8 72 21 3d d2 54 68 be 20 14 79 be
       0.19318789 0.039415985 -0.22688606 -0.24324083
0000a0 cc a2 39 be a0 0d da 3d 5c b0 ee 3d 88 c6 74 3e
       -0.18128508 0.1064713 0.11654732 0.23903859
0000b0 90 99 b7 bc da 40 69 3e da 9b 56 3e 40 59 92 bb
       -0.022412091 0.22778645 0.2095789 -0.004466206
0000c0 a0 be 74 be 1e 1b 35 be 88 6d a0 3d 00 9f 3d bc
       -0.23900843 -0.17686126 0.078333914 -0.011573553
0000d0 e8 03 eb 3d b6 0f 72 3e 68 15 0b 3e 60 6e c1 bd
       0.114753544 0.23638806 0.13582385 -0.094448805
0000e0 60 92 89 3d 14 d3 35 be d0 06 de bd 9e 29 65 be
       0.06717372 -0.17756301 -0.10841143 -0.22379157
0000f0 7c 54 49 3e 40 8a 41 3c d6 4b 4c be 00 99 69 bb
       0.19661134 0.0118127465 -0.19950804 -0.0035644174
000100 74 d5 3b be 08 e1 c8 bd 9a c6 5f be e0 08 1d 3d
       -0.18343145 -0.09808546 -0.21853104 0.038338542
000110 64 39 15 be 88 dc 63 bd 70 bc ae 3d e4 68 45 be
       -0.14572674 -0.055630237 0.08532035 -0.19278294
000120 10 05 3e bd c0 5e 7c be 88 14 61 bd 18 b5 b9 3d
       -0.046391547 -0.2464552 -0.05495122 0.09067744
000130 a8 be bd 3d 8a 1b 48 3e 40 42 5e 3e 08 56 92 3d
       0.092648804 0.19541755 0.2170496 0.071453154
000140 1e b5 1f 3e 76 de 74 be b4 41 b3 3d 78 70 12 3d
       0.15596434 -0.23912987 0.08752766 0.03575179
000150 10 64 d4 3d 62 5f 07 3e 2e 8d 45 3e dc 1a 68 3e
       0.10370648 0.1321998 0.19292137 0.22666496
000160 34 0c a4 bd 56 12 51 be 22 b8 06 3e 40 b4 2c 3c
       -0.0801014 -0.20417151 0.13156179 0.010541022
000170 90 d3 8b bc 10 b4 d6 bc f2 d8 44 3e f2 84 2c 3e
       -0.017068654 -0.026208907 0.19223383 0.1684759
000180 a0 7f 77 3c 40 1f a0 bd 72 a2 43 3e 56 9c 6a be
       0.015106112 -0.078184605 0.19104937 -0.229112
000190 e8 f6 78 3d 0e d7 62 3e c8 fc 85 bd e8 06 94 bd
       0.060782343 0.2215235 -0.06542355 -0.0722788
0001a0 fc d2 b8 bd 10 6a f5 bc 74 4c c4 bd a0 f1 0d bc
       -0.09024617 -0.029957801 -0.09584895 -0.008663565
0001b0 da 7a 04 3e 6c d3 dd bd 36 2c 23 be 3c 23 30 3e
       0.12937489 -0.10831341 -0.15934834 0.17200941
0001c0 78 24 cf 3d 5c 4a 64 3e b6 b6 66 3e 0a 8e 68 be
       0.10114378 0.22293991 0.22530636 -0.22710434
0001d0 20 41 f4 3d c8 2a 34 3e a8 1b 5d bd 78 ce 4d bd
       0.11926484 0.17594445 -0.053981453 -0.050245732
0001e0 1c ef ff bd 66 47 3c be 2e 69 13 be 24 13 46 be
       -0.12496778 -0.18386611 -0.14395592 -0.19343239
0001f0 14 de e0 3d a0 19 98 3d d8 d7 71 3e 40 d5 b7 3b
       0.10979858 0.074267626 0.23617494 0.005610138

linear1.bias f4 [8]
000000 92 6a 62 3e 4e 9a 64 be 9e a3 56 be ae b5 2e 3e
       0.22110966 -0.22324488 -0.20960853 0.17061493
000010 f8 de 5d 3d 58 af 1b bd 20 76 f0 bc 74 9d c6 bd
       0.054167718 -0.038009018 -0.029353201 -0.096980006

linear2.weight f4 [1, 8]
000000 c5 21 58 be 10 87 6d 3e a4 c1 36 3e 4d ac 0f be
       -0.21106632 0.23196054 0.17847306 -0.14030571
000010 f6 fe 77 be 83 bb 27 be 91 b0 a3 be f6 cb b2 be
       -0.24218354 -0.16380124 -0.31970647 -0.34921235
