model.pt (torch, 88318 bytes, 11 tensors)

mu_1 f4 [6, 64]
-1.3262031 0.81534266 -2.2983751 -0.90872127 -0.8377631 -0.021724867 -1.2608063 -0.21877216
-0.91432005 0.99522424 -1.036902 -0.3367443 -0.0072258716 -0.28557676 -1.2017034 -0.4098464
-0.18276209 -0.0471416 0.27100208 -0.055064708 0.2781116 -1.5704056 -0.046895064 -0.15015623
-0.7186225 -0.41067094 -0.22077374 -0.002571372 -0.37614346 -1.1584399 -1.3601848 -0.17829522
-0.018533772 -0.8168921 -0.68980235 -1.6433954 -1.5187418 -2.9448159 -0.3502522 -0.8410154
-2.3989987 1.0902138 -0.776167 -2.4289916 -0.00065497536 -0.93050086 -0.48712748 -2.8025374
-1.6009655 -1.5595098 0.7755202 0.8046813 -1.1891044 0.28331771 0.23647521 -0.350937
0.98080665 0.5655174 -0.07683586 -0.32319826 -1.0787466 -1.7274847 -0.23832066 -0.7607979
0.022207532 0.0066584446 -0.113955595 -0.32244325 -0.31067014 -0.05108635 -0.9589764 -0.2794296
0.01164072 -0.05469895 -0.87941873 -1.1059189 -0.38351917 -0.2339276 -0.13443069 -0.98284703
-0.45251337 -1.5669084 -0.22740784 -0.14071433 -0.04423928 -0.9984787 -0.61533064 -0.43146724
-0.68717074 -0.07690529 0.0809972 0.0121999215 -0.1191993 -0.13000722 -0.0822361 -0.34538996
-1.3842223 -1.5113678 -0.24623926 -0.6934454 -0.81521004 0.04160863 -0.044803467 -1.1876779
-0.21190764 -2.1952696 -0.31285727 0.37125415 -0.3676379 -0.67939043 -0.80624676 0.19056268
-0.16828491 -0.5003994 -0.087642856 -0.95256174 0.025189308 -0.028124508 -0.13672179 -0.5784002
-0.2527791 -0.28041363 -0.026146432 -0.1220299 -0.35826492 -0.4786842 -0.13159497 -1.0364733
-0.6034949 -0.741714 -0.47797957 -0.31763384 0.5780709 -0.17591374 0.10323714 0.18938744
0.11707664 0.034949344 0.17211057 -0.5794939 -0.4162466 -0.1986916 -1.0710728 0.40825358
0.1820133 0.31987372 0.28381675 0.37026325 0.27334595 0.05572484 -0.43831435 -0.7048941
0.4979826 -1.0418454 0.37583828 0.34963518 0.39055303 -1.2085027 0.19559988 0.729021
-0.82660276 0.6922338 -1.2479446 -0.20930316 -0.6145486 -0.5599848 -0.6789126 0.23998705
-0.33780953 0.03942362 0.7350984 -0.7885473 0.28531635 -0.2560562 -0.1216155 -0.44133335
0.4963909 -0.2351105 0.36666596 -0.27654672 0.7379009 -0.5419301 0.423475 0.070388936
0.28909653 -0.15497792 0.32416952 0.5720228 -0.54322004 -0.04306026 0.33596054 0.6377094
-1.1706275 0.6367009 0.59858906 4.231374 0.73300105 -2.2350593 -0.19087064 3.374389
-2.2298224 2.5966318 -1.6655296 1.1897329 3.8829079 2.4968133 -1.4799261 0.79720384
0.12443078 0.76403886 -2.1463795 -2.6964629 3.033928 0.79942596 0.86250263 4.2454658
1.056411 -3.1282516 -0.7768679 -1.2316192 5.266173 0.39154825 0.2420889 1.0551
-1.3534323 1.0866902 -0.6549573 -2.6695166 1.6776451 -1.6571391 -4.240417 -1.666884
-0.13813393 0.7011167 -1.9149393 1.2982649 -0.0037663823 -0.35533255 -2.1378179 -0.1371989
-0.26935554 -0.52823305 -1.0214777 -0.013142708 -4.2406926 -0.73406214 3.0904064 1.4480977
2.040942 1.3341105 -1.8560652 2.4244118 5.4061327 -3.4008303 -5.02418 1.5555164
00000000: 06c1 a9bf 4cba 503f 9418 13c0 f5a1 68bf
00000010: a477 56bf 59f8 b1bc 1a62 a1bf cf05 60be
00000020: e110 6abf 04c7 7e3f 34b9 84bf c069 acbe
00000030: 01c7 ecbb 1e37 92be 6bd1 99bf 63d7 d1be
00000040: fc25 3bbe 8d17 41bd c9c0 8a3e 888b 61bd
00000050: a564 8e3e 0d03 c9bf 0a15 40bd 8ec2 19be
00000060: a5f7 37bf 7643 d2be 8312 62be 7784 28bb
00000070: e095 c0be c247 94bf 891a aebf 0693 36be
00000080: 23d4 97bc d71f 51bf e396 30bf c85a d2bf
00000090: 2266 c2bf dd77 3cc0 4254 b3be c94c 57bf
000000a0: 3289 19c0 208c 8b3f e1b2 46bf 9974 1bc0
000000b0: a7b2 2bba 4e35 6ebf c668 f9be c65c 33c0
000000c0: 70ec ccbf 049e c7bf 7e88 463f 98ff 4d3f
000000d0: 9334 98bf 050f 913e 8f26 723e 04ae b3be
000000e0: 2516 7b3f c0c5 103f 1f5c 9dbd 3e7a a5be
000000f0: 5e14 8abf 381e ddbf 550a 74be a7c3 42bf
00000100: 92ec b53c 152f da3b 8d61 e9bd 4817 a5be
00000110: 2810 9fbe ec3f 51bd 7a7f 75bf 6611 8fbe
00000120: b8b8 3e3c 020c 60bd 9621 61bf c08e 8dbf
00000130: a05c c4be b78a 6fbe 33a8 09be dd9b 7bbf
00000140: d5af e7be 7490 c8bf 9add 68be 6b17 10be
00000150: 3f34 35bd 4d9c 7fbf 4f86 1dbf 46e9 dcbe
00000160: 6cea 2fbf 8580 9dbd dce1 a53d 2ee2 473c
00000170: c31e f4bd 9d20 05be 676b a8bd f4d6 b0be
00000180: 322e b1bf 8074 c1bf 2526 7cbe a385 31bf
00000190: 9bb1 50bf d06d 2a3d d783 37bd d405 98bf
000001a0: 51fe 58be 4c7f 0cc0 d42e a0be 0615 be3e
000001b0: 093b bcbe 88ec 2dbf 3066 4ebf dd22 433e
000001c0: e152 2cbe 2d1a 00bf 197e b3bd 16db 73bf
000001d0: cf59 ce3c 5e65 e6bc cc00 0cbe 0912 14bf
000001e0: 436c 81be 6092 8fbe 0b31 d6bc d0ea f9bd
000001f0: 806e b7be 1816 f5be d5c0 06be 28ab 84bf
00000200: a47e 1abf f8e0 3dbf bdb9 f4be e7a0 a2be
00000210: 74fc 133f bb22 34be fe6d d33d c8ee 413e
00000220: e1c5 ef3d 0b27 0f3d c13d 303e b659 14bf
00000230: 461e d5be d075 4bbe ea18 89bf 9d06 d13e
00000240: b261 3a3e 7dc6 a33e 6e50 913e 2593 bd3e
00000250: 00f4 8b3e bb3f 643d bd6a e0be f173 34bf
00000260: 93f7 fe3e 315b 85bf e06d c03e 6203 b33e
00000270: 91f6 c73e 37b0 9abf 564b 483e 1fa1 3a3f
00000280: 3d9c 53bf 3c36 313f a6bc 9fbf 9153 56be
00000290: 0f53 1dbf 2a5b 0fbf 37cd 2dbf 2abf 753e
000002a0: 5ff5 acbe a97a 213d 692f 3c3f 3cde 49bf
000002b0: fc14 923e cc19 83be 8c11 f9bd 72f6 e1be
000002c0: f326 fe3e cfc0 70be a4bb bb3e 8897 8dbe
000002d0: 13e7 3c3f eebb 0abf b7d1 d83e 1328 903d
000002e0: 7604 943e 88b2 1ebe 8cf9 a53e 1670 123f
000002f0: 7810 0bbf f55f 30bd 0503 ac3e ec40 233f
00000300: 1fd7 95bf d5fe 223f 223d 193f 6a67 8740
00000310: f5a5 3b3f 360b 0fc0 9873 43be fdf5 5740
00000320: 69b5 0ec0 372f 2640 1330 d5bf 2b49 983f
00000330: 9081 7840 cacb 1f40 386e bdbf 8d15 4c3f
00000340: 91d5 fe3d 0d98 433f 485e 09c0 d992 2cc0
00000350: e02b 4240 2ea7 4c3f f9cc 5c3f dbda 8740
00000360: 7a38 873f 4635 48c0 d1e0 46bf b3a5 9dbf
00000370: 7d84 a840 0379 c83e 27e6 773e 840d 873f
00000380: 453d adbf aa18 8b3f 48ab 27bf 5cd9 2ac0
00000390: 13bd d63f 221d d4bf 7fb1 87c0 745c d5bf
000003a0: fb72 0dbe 627c 333f bb1c f5bf 8b2d a63f
000003b0: 69d5 76bb 26ee b5be 02d2 08c0 de7d 0cbe
000003c0: f8e8 89be 483a 07bf c8bf 82bf 8354 57bc
000003d0: c1b3 87c0 7feb 3bbf 38c9 4540 445b b93f
000003e0: cb9e 0240 22c4 aa3f 8b93 edbf 9029 1b40
000003f0: 0aff ac40 34a7 59c0 15c6 a0c0 291b c73f

mu_2.weight f4 [64, 64]
0.32036772 1.1370765 -0.07810089 -0.6464456 -0.9384283 -0.2860555 0.45001245 -1.4569068
0.6165016 -0.08427461 1.0255535 0.16382948 -1.1130221 -0.57365716 0.30783018 1.0824193
-0.3252504 1.1754421 -0.29932645 -1.2063829 -1.8140464 -1.1266778 -0.24048135 -0.39447716
1.0607572 -0.76861364 0.0833398 1.0049307 -1.3992707 -0.11133273 0.28958338 0.22864425
0.05314272 0.6179656 -0.7025495 0.60386175 -0.6111101 0.88253707 0.2297484 -0.3706276
0.57811624 -0.1620906 1.8694688 0.33312976 0.032531075 -0.7926972 -0.5973229 0.1385041
0.85162055 0.7436706 0.09891666 -0.6675613 0.23645277 -0.3030686 -0.27092803 -0.02421437
-0.13562708 -0.06279286 1.0913225 0.14956611 -4.1181455 0.05734493 1.1187791 0.31879985
-1.1942176 -0.08316116 0.4687677 -0.40464544 -0.111371145 0.4310126 -0.6109031 -0.5704517
-0.6592104 -0.45537215 -0.23299792 -0.31185147 -1.1712745 1.0482352 -0.3970022 -0.9735797
-0.63723576 0.03538347 -0.44690973 -0.25160125 -1.1382576 -0.07070719 0.46789324 0.10934689
-1.5637378 -0.45584875 -1.1354867 0.278287 -0.8954222 -1.1595966 -1.8494091 -0.40289214
0.655414 0.18612036 -2.0946763 -0.71420974 -1.3941895 -1.9686038 1.4965293 -0.28048542
-1.0050714 -0.051198125 -1.1764523 -0.15213908 -0.6967733 -1.7049462 -1.3669703 0.15208083
-0.06689596 -0.04102763 -1.1964505 -1.2972025 0.689828 0.10192418 -0.82363015 -0.971461
-0.56180024 0.22420155 1.8338916 0.28745615 0.47232103 -2.069487 -0.06065708 -0.41742817
0.48165563 0.48802873 -0.6747983 -1.3041973 0.3181891 0.93339556 1.4500878 -0.9255006
1.0970037 0.5343011 0.8344204 0.07909591 -0.57663786 0.27489418 -0.40791777 0.2700642
-1.3930881 -0.59507865 0.3735226 0.67478615 -0.105912514 1.1487305 0.25650582 -0.40432137
0.1604256 0.10044219 -0.6285172 -1.162155 0.037711777 0.53961223 -0.5061312 0.52110136
0.47735858 0.4035295 0.25656646 -0.41900682 -0.5013342 0.36034122 0.6860119 0.21298853
1.1029943 -0.3828868 0.21938524 1.122752 -2.1313279 0.05714429 0.43392807 1.3967947
-1.6335304 0.7699149 1.1956115 -0.1285396 -1.9852724 0.2821049 -0.6062603 -0.24490094
1.2083153 -1.1905947 -0.6581414 0.6095672 -0.3916648 -0.01626618 -1.4296118 -0.06646554
-0.009773808 2.5776272 -0.58072966 -1.3938253 -0.8223882 -0.255721 -1.3807712 -0.8565247
-1.3023627 0.15888253 -1.0858252 -1.3636267 -0.5161788 -0.41035536 -0.9317878 -2.857851
0.17808129 -0.20432536 0.84827554 -0.14346403 0.67214495 0.09010317 -0.39906913 0.4108186
-1.5850326 -2.2808964 0.4562066 0.022871314 -0.7439407 -0.12239021 -0.26978537 -1.0367794
-1.0327498 -0.8881248 -0.32560334 0.33229533 -1.055115 -0.43285152 -0.27906513 0.7770781
-0.36591566 -0.2508995 0.6300357 -0.5922282 -1.8245114 -0.0678553 0.58246803 -1.1661388
-0.13991077 -0.6557045 1.0935173 -0.22702405 0.3552633 -0.4825264 0.64310557 -0.71943194
-0.24511051 -0.071319595 1.1826135 -0.48844996 -1.044138 0.17890982 0.521977 0.025903316
00000000: 3d07 a43e b98b 913f 5cf3 9fbd 757d 25bf
00000010: d63c 70bf de75 92be 0868 e63e ec7b babf
00000020: 0dd3 1d3f 2b98 acbd 5645 833f eac2 273e
00000030: 8277 8ebf 32db 12bf eb9b 9d3e b78c 8a3f
00000040: 3887 a6be e374 963f 5141 99be c16a 9abf
00000050: ac32 e8bf fa36 90bf be40 76be e9f8 c9be
00000060: e4c6 873f ddc3 44bf 0fae aa3d 92a1 803f
00000070: 4d1b b3bf 6a02 e4bd 4644 943e b821 6a3e
00000080: 2eac 593d fe32 1e3f 49da 33bf af96 1a3f
00000090: b671 1cbf f3ed 613f 2a43 6b3e e7c2 bdbe
000000a0: 6dff 133f 14fb 25be c14a ef3f fc8f aa3e
000000b0: 4e3f 053d 34ee 4abf 27ea 18bf 05d4 0d3e
000000c0: ce03 5a3f 3261 3e3f d194 ca3d 4ce5 2abf
000000d0: ad20 723e cf2b 9bbe 14b7 8abe 375d c6bc
000000e0: d3e1 0abe 8b99 80bd 75b0 8b3f dc27 193e
000000f0: d9c7 83c0 84e2 6a3d 2734 8f3f bc39 a33e
00000100: 1fdc 98bf 6650 aabd 5202 f03e b02d cfbe
00000110: 8e16 e4bd afad dc3e 2564 1cbf 1f09 12bf
00000120: 03c2 28bf 8a26 e9be 0297 6ebe ffaa 9fbe
00000130: 53ec 95bf 922c 863f df43 cbbe 853c 79bf
00000140: e221 23bf 42ee 103d 5ad1 e4be e1d1 80be
00000150: 6db2 91bf eece 90bd b48f ef3e 43f1 df3d
00000160: 8f28 c8bf 0265 e9be a157 91bf a27b 8e3e
00000170: 643a 65bf a96d 94bf 70b9 ecbf e147 cebe
00000180: 36c9 273f 5696 3e3e 2d0f 06c0 73d6 36bf
00000190: cd74 b2bf 36fb fbbf 468e bf3f c99b 8fbe
000001a0: 2ea6 80bf 20b5 51bd fd95 96bf 59ca 1bbe
000001b0: bc5f 32bf ad3b dabf e2f8 aebf 14bb 1b3e
000001c0: c000 89bd 970c 28bd 4a25 99bf bb0a a6bf
000001d0: 9198 303f a0bd d03d 6dd9 52bf abb1 78bf
000001e0: 24d2 0fbf 1795 653e f6bc ea3f 742d 933e
000001f0: 10d4 f13e 7a72 04c0 8f73 78bd 25b9 d5be
00000200: 919b f63e e7de f93e 95bf 2cbf f0ef a6bf
00000210: afe9 a23e 03f3 6e3f 7a9c b93f 9bed 6cbf
00000220: 9e6a 8c3f f5c7 083f 939c 553f 09fd a13d
00000230: 8a9e 13bf eebe 8c3e 99da d0be db45 8a3e
00000240: b650 b2bf 1357 18bf 5b3e bf3e c9be 2c3f
00000250: a9e8 d8bd 9a09 933f bb54 833e 3603 cfbe
00000260: 9c46 243e a3b4 cd3d 81e6 20bf 7fc1 94bf
00000270: aa77 1a3d 0724 0a3f d091 01bf e666 053f
00000280: 5868 f43e 6b9b ce3e ae5c 833e 1088 d6be
00000290: 7057 00bf a57e b83e 7a9e 2f3f aa19 5a3e
000002a0: eb2e 8d3f bd09 c4be 86a6 603e 56b6 8f3f
000002b0: ad67 08c0 2210 6a3d d22b de3e 2bca b23f
000002c0: 8617 d1bf 2519 453f cc09 993f e39f 03be
000002d0: 681d febf 0e70 903e e033 1bbf 50c7 7abe
000002e0: 13aa 9a3f 6865 98bf f47b 28bf 990c 1c3f
000002f0: 4a88 c8be a740 85bc 85fd b6bf 161f 88bd
00000300: 5222 20bc d8f7 2440 b3aa 14bf de68 b2bf
00000310: 0888 52bf dded 82be 1cbd b0bf 3445 5bbf
00000320: d2b3 a6bf 1ab2 223e 52fc 8abf 528b aebf
00000330: 4b24 04bf 191a d2be a589 6ebf 08e7 36c0
00000340: f15a 363e ab3a 51be 9628 593f 3ce8 12be
00000350: b111 2c3f 0388 b83d ca52 ccbe d156 d23e
00000360: 59e2 cabf 35fa 11c0 e993 e93e 9f5c bb3c
00000370: e672 3ebf b8a7 fabd 4f21 8abe 30b5 84bf
00000380: 2531 84bf 265c 63bf 7bb5 a6be 9d22 aa3e
00000390: 020e 87bf b79e ddbe a0e1 8ebe 97ee 463f
000003a0: 4c59 bbbe e675 80be 054a 213f 449c 17bf
000003b0: 9789 e9bf b8f7 8abd a01c 153f 0944 95bf
000003c0: c544 0fbe 40dc 27bf 60f8 8b3f fe78 68be
000003d0: 12e5 b53e b30d f7be 91a2 243f b12c 38bf
000003e0: 40fe 7abe 0210 92bd e15f 973f 1d16 fabe
000003f0: 50a6 85bf 2334 373e 49a0 053f 3133 d43c

mu_2.bias f4 [64]
1.6822294 0.40591228 -0.7810207 -0.32541668 0.6010824 0.28530556 0.5681317 1.2528862
1.9581293 -0.4952103 1.4045799 0.11929075 -0.36649624 0.2982528 0.96026295 0.9541216
0.28552923 0.42867237 0.9556044 1.7059853 0.41238323 0.58686584 0.45830557 0.80183154
-0.079543196 0.45124933 -0.632715 0.9040221 0.060945973 0.08305801 -1.3460513 0.60581964
-0.15607882 0.66137934 -0.005358865 1.3936603 0.2702145 0.32742512 0.48880717 0.073837094
0.48763132 0.24910468 0.80541897 0.20879312 1.4062927 -0.25378028 0.6347681 1.0793884
-0.05696834 1.0703213 0.41473743 -0.18480381 0.8697341 -0.04997296 0.42052642 0.54541165
0.7229039 0.79830086 0.99275875 0.8512597 -0.7441157 -0.3110644 0.5544442 0.20822613
00000000: 4b53 d73f bcd3 cf3e f9f0 47bf 049d a6be
00000010: 89e0 193f 9213 923e 1471 113f 935e a03f
00000020: fba3 fa3f 348c fdbe 46c9 b33f b54e f43d
00000030: 65a5 bbbe 97b4 983e cbd3 753f 5041 743f
00000040: e330 923e f27a db3e 7da2 743f ba5d da3f
00000050: e523 d33e d73c 163f 07a7 ea3e d544 4d3f
00000060: 8be7 a2bd 270a e73e 9cf9 21bf fe6d 673f
00000070: 7ca2 793d 511a aa3d 694b acbf ff16 1b3f
00000080: 20d3 1fbe 2850 293f 6b99 afbb 7663 b23f
00000090: 8e59 8a3e 44a4 a73e ef44 fa3e e737 973d
000000a0: d0aa f93e 4c15 7f3e f02f 4e3f ddcd 553e
000000b0: 6601 b43f 7def 81be 2a80 223f 6629 8a3f
000000c0: a257 69bd 4a00 893f 7758 d43e 363d 3dbe
000000d0: e5a6 5e3f 72b0 4cbd 3d4f d73e 19a0 0b3f
000000e0: 3b10 393f 725d 4c3f 7025 7e3f 28ec 593f
000000f0: 5e7e 3ebf d543 9fbe 0ef0 0d3f 3b39 553e

mu_3.weight f4 [1, 6]
-0.26995 -0.038917255 0.63991284 2.6806254 3.1583066 0.010714187
00000000: e336 8abe b367 1fbd 54d1 233f 5e8f 2b40
00000010: b221 4a40 8f8a 2f3c

q_1.weight f4 [64, 64]
0.27097008 -1.1461159 -0.7863138 -0.5610778 -0.27612922 0.27878392 -0.4049109 -1.0272776
0.5978282 -0.8417468 -1.4018312 -0.011096767 0.6605543 -1.0527183 0.08070417 -0.6133799
1.0296025 -0.85982376 -0.19833419 0.5467689 0.35019484 -0.59576946 -0.06123321 0.33057958
1.041364 -1.1392938 0.07690529 -0.92091066 0.24272555 -1.2569485 -1.046355 -2.2228165
0.20234668 -0.4510515 1.1956893 1.2692417 0.73990023 0.58434355 0.41314185 0.71927327
-1.2270814 -0.29354733 1.0597564 -2.4077563 1.7467043 0.12568238 2.2015634 -2.1757417
-1.5769981 -0.29358125 -0.30657634 1.5684973 -0.15815195 1.0683365 -0.34851107 -1.510055
0.5269047 1.0873034 1.7974705 -1.3630233 -0.1440835 -0.70176214 -0.84198004 1.600016
-3.0197313 -1.2746794 -0.38836047 0.005485023 -1.6893717 2.589449 -1.9200896 -1.1777322
-1.2261044 -1.1239729 0.2038161 -1.1501322 1.6816984 0.19383274 0.55726594 -1.2866236
-0.11753549 -0.8318611 -2.7401557 0.9500359 -0.7322877 0.49696314 -2.4458141 -3.0905905
-1.1704047 -0.49908575 -0.6142871 0.07587796 0.69731104 1.6675328 -1.1507019 0.4792843
0.029810043 -0.087465465 2.294425 -0.25510076 3.1840074 -0.19402851 1.307562 2.3349106
0.6264255 0.83135504 -1.8104068 -1.719712 0.02787903 -0.4717742 2.7217538 0.007264954
-1.9805939 -1.3786594 0.3430781 1.2462206 0.33502448 -0.88421655 -0.026524637 1.1113058
0.13801102 2.858716 0.16715497 -1.3935758 0.092022926 1.4871268 -0.4532458 -0.30959803
-0.7958243 -0.60075146 -0.29754996 -1.7144709 -0.74963003 2.2196882 0.4678368 0.9659431
-0.4845364 0.12209271 -0.03802811 1.2098963 0.16863315 1.0768715 0.7773481 0.5421135
0.6679957 -1.9769977 0.99492496 -0.9822276 -1.1914775 -0.79839385 -1.9909716 0.19911899
-0.7235031 -1.8319606 0.70576257 1.1511505 -0.22017804 2.0200388 -1.949435 0.76358455
-1.7674376 -0.45012748 1.661028 -1.4469107 -0.63864195 -1.1408794 -0.5015755 2.9339204
2.1009898 -0.21063864 -0.75810426 -0.54254794 0.13323359 -0.26692337 -0.6987936 -2.682656
-0.2864553 0.5524814 1.0403823 -1.1363076 0.9256983 -2.2790167 -0.7994408 1.0960983
0.050520767 -0.045853402 3.294243 -1.0833743 1.7805314 -0.19676794 -1.1055098 0.4865109
-2.141067 1.5980144 0.15413132 1.5000539 -0.15743375 0.7636637 -1.3890743 -1.5823324
-1.508961 0.6595129 -0.105999395 1.5596073 0.6664919 -0.5234226 -0.7561488 0.84187067
-1.6965381 0.019954091 -0.621384 0.6449895 -0.58807653 -0.41567773 0.18946716 1.4195739
1.0795685 0.64349693 -1.6903969 -0.51007426 -1.2319117 0.34378996 -0.32507336 -0.010667018
1.4041166 -1.4614706 -0.5090059 0.91634214 1.7486315 0.6575261 -0.0056423545 -0.81550294
0.24624735 -0.21303776 -0.030953886 -0.17892218 1.0602199 1.3998948 1.4150167 -1.9821895
-0.30865964 -0.50898856 1.71406 -1.9944644 0.68607116 -0.643746 -1.919942 0.27868095
-0.40424713 -0.10710706 0.66246194 -2.174155 -0.4741572 -0.06705946 2.1541657 1.4209231
00000000: 97bc 8a3e edb3 92bf dc4b 49bf cba2 0fbf
00000010: cf60 8dbe c4bc 8e3e 7b50 cfbe d57d 83bf
00000020: 450b 193f b87c 57bf 346f b3bf 37cf 35bc
00000030: 161a 293f 79bf 86bf 3a48 a53d 7706 1dbf
00000040: 04ca 833f 691d 5cbf 1e18 4bbe 0cf9 0b3f
00000050: bd4c b33e 5984 18bf adcf 7abd ba41 a93e
00000060: 6a4b 853f 61d4 91bf 8580 9d3d cdc0 6bbf
00000070: 0c8d 783e b0e3 a0bf f6ee 85bf a042 0ec0
00000080: f833 4f3e 39f0 e6be 590c 993f 8376 a23f
00000090: 1a6a 3d3f 8a97 153f 5487 d33e 4b22 383f
000000a0: 0111 9dbf d64b 96be 19a6 873f ae18 1ac0
000000b0: 0294 df3f e2b2 003e 6ae6 0c40 5a3f 0bc0
000000c0: 13db c9bf 4850 96be 93f7 9cbe 85c4 c83f
000000d0: 96f2 21be 40bf 883f 0b70 b2be 7b49 c1bf
000000e0: 3ae3 063f c22c 8b3f 8313 e63f 8c77 aebf
000000f0: a08a 13be afa6 33bf 018c 57bf 53cd cc3f
00000100: 4743 41c0 b228 a3bf 2fd7 c6be b5bb b33b
00000110: 553d d8bf 88b9 2540 7fc5 f5bf eebf 96bf
00000120: fdf0 9cbf 58de 8fbf 2bb5 503e 8837 93bf
00000130: e541 d73f 177c 463e fba8 0e3f 15b0 a4bf
00000140: 72b6 f0bd d9f4 54bf b65e 2fc0 8e35 733f
00000150: 3577 3bbf f471 fe3e 3888 1cc0 3ccc 45c0
00000160: d2cf 95bf 2b88 ffbe eb41 1dbf e765 9b3d
00000170: fa82 323f b771 d53f 334a 93bf c064 f53e
00000180: 3134 f43c 1821 b3bd dcd7 1240 919c 82be
00000190: c7c6 4b40 69af 46be 315e a73f 2d6f 1540
000001a0: 6c5d 203f afd3 543f 69bb e7bf 861f dcbf
000001b0: 9062 e43c 638c f1be 3731 2e40 da0e ee3b
000001c0: 1a84 fdbf e977 b0bf efa7 af3e 2884 9f3f
000001d0: 5488 ab3e 045c 62bf 324a d9bc 453f 8e3f
000001e0: c352 0d3e 34f5 3640 ac2a 2b3e b160 b2bf
000001f0: 8476 bc3d 2c5a be3f d50f e8be a283 9ebe
00000200: 24bb 4bbf d9ca 19bf 7858 98be c873 dbbf
00000210: c1e7 3fbf 5f0f 0e40 4e88 ef3e 0c48 773f
00000220: 2815 f8be be0b fa3d 5dc3 1bbd e2dd 9a3f
00000230: 2bae 2c3e edd6 893f 4900 473f f3c7 0a3f
00000240: c401 2b3f 430e fdbf 67b3 7e3f 4573 7bbf
00000250: 5682 98bf 8a63 4cbf 28d8 febf d9e5 4b3e
00000260: 8037 39bf af7d eabf dbac 343f e658 933f
00000270: 5a76 61be 5148 0140 1687 f9bf 477a 433f
00000280: 653b e2bf 1c77 e6be 919c d43f 5f34 b9bf
00000290: 0a7e 23bf 5608 92bf 4167 00bf 5ac5 3b40
000002a0: 9e76 0640 a8b1 57be 1f13 42bf 6ce4 0abf
000002b0: 636e 083e 2eaa 88be 23e4 32bf a3b0 2bc0
000002c0: 45aa 92be 6c6f 0d3f 3f2b 853f 8772 91bf
000002d0: 90fa 6c3f 69db 11c0 27a8 4cbf f34c 8c3f
000002e0: ddee 4e3d c7d0 3bbd e1d4 5240 02ac 8abf
000002f0: 74e8 e33f 897d 49be 5881 8dbf f517 f93e
00000300: 3e07 09c0 bc8b cc3f 9ad4 1d3e c401 c03f
00000310: 5036 21be 777f 433f 30cd b1bf de89 cabf
00000320: a225 c1bf d6d5 283f 3616 d9bd 36a1 c73f
00000330: 379f 2a3f 06ff 05bf f892 41bf d684 573f
00000340: 2928 d9bf c376 a33c 0613 1fbf 081e 253f
00000350: 2f8c 16bf b6d3 d4be ae03 423e 99b4 b53f
00000360: 4d2f 8a3f 37bc 243f ed5e d8bf 3a94 02bf
00000370: 48af 9dbf 3d05 b03e 0470 a6be b7c4 2ebc
00000380: 18ba b33f 7811 bbbf 364e 02bf 6695 6a3f
00000390: 28d3 df3f a153 283f 80e3 b8bb cdc4 50bf
000003a0: 4428 7c3e 9226 5abe 0193 fdbc 6037 37be
000003b0: 49b5 873f c12f b33f 441f b53f 63b8 fdbf
000003c0: a308 9ebe 134d 02bf 5166 db3f 9c4a ffbf
000003d0: 5ca2 2f3f 8acc 24bf a9c0 f5bf 45af 8e3e
000003e0: 7bf9 cebe f25a dbbd 1b97 293f 5b25 0bc0
000003f0: bcc4 f2be 7856 89bd dadd 0940 cfe0 b53f

q_1.bias f4 [64]
-0.58436495 1.6775179 2.0593014 -0.08914732 1.1838125 -1.458279 -0.928735 -0.62721026
-0.3025669 -0.77930814 0.19407046 0.6473552 0.3007062 -1.2978237 2.0304446 -2.5018673
-0.19572069 1.3502349 -0.71937495 -0.6875374 0.5758125 -1.776805 0.9063073 -0.7476994
1.3694367 2.6457326 0.6646421 -0.45326933 1.9752836 -4.8639884 0.7959579 -0.7000662
1.2409871 0.87292194 -0.30072638 2.1098866 1.2405754 -0.20765829 0.9724893 -0.6792716
0.9619947 0.45888245 0.7502987 1.2814686 -1.1106436 -1.0573312 -2.2577744 1.1311009
0.63800806 -1.0171729 0.20134507 0.26372495 -0.013770824 1.5914669 -0.4469504 0.67280865
-1.2113757 -0.7746695 -0.4691731 0.27671817 1.383756 -0.60598147 1.998018 2.454584
00000000: f198 15bf e8b8 d63f 98cb 0340 df92 b6bd
00000010: 2b87 973f e3a8 babf 94c1 6dbf da90 20bf
00000020: 0cea 9abe bd80 47bf 68ba 463e 12b9 253f
00000030: 2af6 993e 161f a6bf cef2 0140 981e 20c0
00000040: 016b 48be 7fd4 ac3f f528 38bf 7302 30bf
00000050: 7368 133f 596e e3bf c103 683f 3a69 3fbf
00000060: b449 af3f af53 2940 fc25 2a3f eb12 e8be
00000070: 18d6 fc3f cba5 9bc0 e6c3 4b3f 8a37 33bf
00000080: aad8 9e3f d077 5f3f cff8 99be 6208 0740
00000090: 2dcb 9e3f 60a4 54be 0ff5 783f bee4 2dbf
000000a0: 4945 763f a4f2 ea3e 9313 403f 2a07 a43f
000000b0: 9229 8ebf a156 87bf 607f 10c0 eac7 903f
000000c0: 7f54 233f b932 82bf 672d 4e3e f506 873e
000000d0: 069f 61bc 30b5 cb3f afd6 e4be 303d 2c3f
000000e0: 5c0e 9bbf be50 46bf 7537 f0be 01ae 8d3e
000000f0: eb1e b13f 9a21 1bbf 0ebf ff3f e717 1d40

q_2.weight f4 [64, 64]
-0.5223989 -0.21627413 -0.006901803 -0.9849831 0.12336607 0.5863439 0.09750006 -0.34664172
-0.90742034 -0.25148296 0.6939152 0.18467265 -0.362804 0.5029484 -0.5452975 -0.093474425
0.1733912 0.028181199 -0.21577355 0.3887193 0.6743913 0.1589482 -0.45457798 0.14206216
-0.49965084 -0.30178252 -0.726005 1.6234401 -0.07398449 0.24319209 -0.19100687 0.20799784
1.3534622 0.15099746 0.7847096 0.07678945 0.5995922 0.4017104 0.6780191 0.4138301
0.14580397 -0.21362466 -0.15337786 -0.05273097 -0.24688494 0.2794712 0.29894254 0.96934754
0.26940814 0.5592843 -0.22313485 0.12953024 0.72039413 -0.31152505 -0.17062269 -0.012991325
0.50884885 0.32460177 -0.14550276 -0.88605803 1.2591368 0.09033795 -0.5452459 0.1802454
0.98384726 -0.123541504 0.43073928 -0.036456008 -0.12395515 0.6393521 0.109412536 0.525638
-0.33461687 -0.36610702 -0.45870084 0.13645446 -0.22843997 -0.1509942 -0.37926537 0.07980826
-0.826553 0.12575662 0.52421945 0.024369309 -0.23841433 0.5803401 0.20300293 -0.4762076
1.7835467 -1.0422878 0.21420585 0.26863775 0.13266297 0.87509227 -0.110160016 -0.68768644
0.19790271 0.26659316 0.33221218 0.73120624 -0.6301654 0.25102296 0.4401712 0.85726386
0.99862725 -0.29672807 0.228625 0.45202106 0.17421137 1.338062 -0.37801725 -0.9984703
1.219318 -0.48346275 0.042000495 1.4141645 0.03125042 -0.62462527 0.66197264 1.0824717
-0.3836257 -0.024957314 1.177426 -0.32502735 0.6756585 -0.6344663 0.66307324 -0.21570691
0.34378392 -0.2105951 -0.94246864 -0.35302928 0.21398965 0.22956707 -0.24749571 0.45228857
-1.1607192 0.47919235 0.5616709 0.9688434 -0.57154983 0.669558 -0.6636838 -0.39302093
-0.90984166 -1.3719317 0.44930813 -1.047883 0.4658927 1.3156344 -0.12923719 0.031551816
0.67669284 -0.08339212 0.31917822 0.67877877 -0.02868993 0.4086963 -0.21593983 0.55316335
0.8405751 -0.7439008 0.25788578 0.13095194 -0.380194 0.40932977 0.5952061 -0.19901599
0.71724707 -0.25872374 0.9746949 0.6955622 -0.7200738 -0.2305283 0.06527492 0.17186736
-1.0155255 0.104449965 0.07444501 0.5915958 0.44132155 -0.51766574 0.015674988 0.6174858
-0.39802986 -0.8096339 -0.2565047 0.09331605 0.47596914 0.0368025 -0.22531402 -0.123379335
-0.27368563 0.062836334 0.0075860564 -0.565957 -0.9445841 -0.58433163 -0.57340425 -0.9973622
0.8722697 0.08757014 0.28352422 -0.33308455 0.28774336 -0.5668777 -0.795819 -0.23715176
0.11432993 0.6198281 0.28237852 -0.08747969 0.29033443 0.3432412 -1.1867017 -0.20736915
-1.8846698 0.85701954 -0.1823937 0.90043026 -0.13845904 -1.0058336 0.6746581 0.23308948
-0.28906542 0.31931338 0.502053 -0.52624524 -0.26778206 -1.251334 -0.14833382 0.10912594
0.91659147 1.4671377 -0.8826506 0.5487754 1.1874473 0.70998895 -0.55662405 -0.5240206
0.35485113 0.616707 -0.6374335 -0.7292377 0.4080115 0.43047276 0.124796756 -0.27342772
0.7204842 -0.16831434 0.62832034 0.5376002 -1.236609 -0.16317436 -0.49211833 0.09329902
00000000: efbb 05bf f776 5dbe 8528 e2bb da27 7cbf
00000010: 5aa7 fc3d a21a 163f 1dae c73d 067b b1be
00000020: b34c 68bf 60c2 80be 6da4 313f d41a 3d3e
00000030: 72c1 b9be 3ac1 003f 9e98 0bbf 856f bfbd
00000040: 768d 313e 42dc e63c bef3 5cbe 3706 c73e
00000050: e9a4 2c3f 51c3 223e 72be e8be be78 113e
00000060: 3cd2 ffbe 3d83 9abe 77db 39bf e3cc cf3f
00000070: 2e85 97bd 5907 793e 4e97 43be 63fd 543e
00000080: 403e ad3f 149f 1a3e bae2 483f ca43 9d3d
00000090: e07e 193f fcac cd3e a992 2d3f 8ae1 d33e
000000a0: a34d 153e 6cc0 5abe 160f 1dbe 6efc 57bd
000000b0: 68cf 7cbe d916 8f3e ff0e 993e 2927 783f
000000c0: ddef 893e 422d 0f3f 767d 64be 93a3 043e
000000d0: c06b 383f 3680 9fbe b7b7 2ebe 91d9 54bc
000000e0: eb43 023f 3432 a63e adfe 14be b3d4 62bf
000000f0: 652b a13f 1a03 b93d 3c95 0bbf 4092 383e
00000100: 6add 7b3f 5403 fdbd dc89 dc3e e552 15bd
00000110: 33dc fdbd 94ac 233f ae13 e03d 3690 063f
00000120: e752 abbe 6172 bbbe d6da eabe b8ba 0b3e
00000130: 2bec 69be 399e 1abe 122f c2be 8372 a33d
00000140: fa98 53bf 58c6 003e 3f33 063f 25a2 c73c
00000150: e322 74be 2b91 143f 00e0 4f3e 7cd1 f3be
00000160: 424b e43f b069 85bf c758 5b3e e38a 893e
00000170: cdd8 073e 0c06 603f 939b e1bd 380c 30bf
00000180: 02a7 4a3e e67e 883e b717 aa3e 5530 3b3f
00000190: 8552 21bf 1586 803e 1f5e e13e a575 5b3f
000001a0: 09a6 7f3f beec 97be ac1c 6a3e 4e6f e73e
000001b0: 7764 323e 9e45 ab3f 7a8b c1be c09b 7fbf
000001c0: 9d12 9c3f 6e88 f7be b608 2c3d 5803 b53f
000001d0: 7100 003d 71e7 1fbf 0a77 293f 6f8e 8a3f
000001e0: 966a c4be 4873 ccbc e5b5 963f fc69 a6be
000001f0: f5f7 2c3f 626c 22bf 2bbf 293f 46e2 5cbe
00000200: 7204 b03e 3ea6 57be a045 71bf 41c0 b4be
00000210: 1a20 5b3e a113 6b3e 846f 7dbe 5e92 e73e
00000220: 7292 94bf b358 f53e aac9 0f3f 1f06 783f
00000230: 1751 12bf 2768 2b3f 2ee7 29bf 0a3a c9be
00000240: 62eb 68bf 759b afbf b70b e63e 0821 86bf
00000250: 7d89 ee3e b566 a83f c156 04be 7a3c 013d
00000260: be3b 2d3f 7dc9 aabd 546b a33e 72c4 2d3f
00000270: 2507 ebbc a440 d13e 551f 5dbe 1d9c 0d3f
00000280: ee2f 573f 4870 3ebf 9b09 843e 4418 063e
00000290: caa8 c2be ac93 d13e 6d5f 183f d9ca 4bbe
000002a0: 819d 373f 7077 84be 9b85 793f 5d10 323f
000002b0: c256 38bf 9c0f 6cbe dbae 853d fffd 2f3e
000002c0: bdfc 81bf dde9 d53d a076 983d d372 173f
000002d0: e6f4 e13e be85 04bf d568 803c 8d13 1e3f
000002e0: 92ca cbbe 2b44 4fbf 9654 83be 7c1c bf3d
000002f0: 3ab2 f33e 38be 163d b8b8 66be 4eae fcbd
00000300: 8620 8cbe 56b0 803d 7494 f83b 8fe2 10bf
00000310: 43d0 71bf c296 15bf 9fca 12bf 2153 7fbf
00000320: 114d 5f3f f957 b33d 162a 913e 0f8a aabe
00000330: 1953 933e e61e 11bf cbba 4bbf e9d7 72be
00000340: cf25 ea3d 0ead 1e3f eb93 903e 8d28 b3bd
00000350: b7a6 943e 50bd af3e d7e5 97bf 9458 54be
00000360: dc3c f1bf a265 5b3f 6ac5 3abe 9982 663f
00000370: 35c8 0dbe 28bf 80bf 65b6 2c3f 02af 6e3e
00000380: 6200 94be 0b7d a33e 8c86 003f 02b8 06bf
00000390: bb1a 89be b62b a0bf d2e4 17be 6c7d df3d
000003a0: bda5 6a3f 2bcb bb3f 64f5 61bf 8b7c 0c3f
000003b0: 46fe 973f d6c1 353f ea7e 0ebf 3726 06bf
000003c0: 0caf b53e 83e0 1d3f d82e 23bf 52af 3abf
000003d0: e2e6 d03e ed66 dc3e 7195 ff3d b8fe 8bbe
000003e0: a771 383f 985a 2cbe 9ad9 203f 2ba0 093f
000003f0: 3449 9ebf 2e17 27be eff6 fbbe 8e13 bf3d

q_2.bias f4 [64]
-3.511741 0.8149792 -3.325617 0.8753171 0.004776466 -0.9658175 0.8649814 1.8837168
2.8298013 -1.7798082 0.08348499 -0.027669122 1.7259362 -2.3602824 -1.0042089 -0.97810686
-0.30276573 1.1085691 -3.1282492 1.4961624 -1.0366772 1.5430019 0.90714186 2.3441787
2.3691773 -3.4954379 0.78569156 -2.3251188 1.6665916 -0.3885549 -0.26949582 1.367786
-0.34840378 -1.1473265 -0.05899304 1.5090508 -1.2887449 -0.42582813 -2.7822514 1.2111996
0.7276363 0.9164338 -0.29091707 -0.55552995 -1.2904912 -0.39413372 0.6497517 -1.0668908
-0.6837615 -3.385883 -0.573652 -0.8147035 1.1619047 -0.7014927 0.24519539 -1.2710721
2.5749736 1.6758759 -3.4575362 2.786747 3.3202002 0.602704 2.0474184 1.014042
00000000: 5dc0 60c0 7aa2 503f e9d6 54c0 c814 603f
00000010: e783 9c3b d13f 77bf 6c6f 5d3f a21d f13f
00000020: 771b 3540 c1d0 e3bf 2efa aa3d 5baa e2bc
00000030: 7aeb dc3f de0e 17c0 eb89 80bf 3665 7abf
00000040: 1c04 9bbe 98e5 8d3f 3c35 48c0 4082 bf3f
00000050: d7b1 84bf 1681 c53f 733a 683f 0607 1640
00000060: 9aa0 1740 41b5 5fc0 1523 493f bfce 14c0
00000070: e052 d53f abf0 c6be 5bfb 89be 9d13 af3f
00000080: fb61 b2be 98db 92bf b0a2 71bd 9428 c13f
00000090: 98f5 a4bf 2506 dabe 6810 32c0 9708 9b3f
000000a0: 5f46 3a3f 689b 6a3f 15f3 94be 3637 0ebf
000000b0: d12e a5bf e5cb c9be 2156 263f e18f 88bf
000000c0: fe0a 2fbf 4fb2 58c0 dcda 12bf 6990 50bf
000000d0: 4bb9 943f 0795 33bf 8014 7b3e 7eb2 a2bf
000000e0: 5ecc 2440 1a83 d63f 4648 5dc0 105a 3240
000000f0: 297e 5440 cf4a 1a3f e708 0340 21cc 813f

q.weight f4 [1, 64]
-0.56343824 -0.84304714 -0.451873 0.09988255 0.82324713 -0.5647411 0.16206132 -0.6103017
-0.9614229 0.7266298 -0.42893896 -0.69435763 0.87813973 -0.7191654 -0.45794377 0.56510276
1.0276743 0.45671347 -0.35339135 0.47716743 0.9045341 -0.6411272 0.40876305 -0.12538984
0.4576178 1.1036323 -0.49497062 0.60043967 0.7509004 0.7483503 0.7412896 -0.33738646
-0.5540124 0.4277069 0.5908989 0.40951747 -0.22299242 -0.6222568 0.67751396 1.0244977
0.8861075 0.87648034 0.7366422 -0.7841334 0.4383893 0.43169084 -0.38552907 -0.9212887
-0.37999418 0.35187057 0.5190061 0.4774778 0.67679566 0.86674553 -0.80546564 -0.40516245
-0.48624983 -0.46164238 0.52943575 0.43063796 0.12001421 -0.6085414 -0.537119 -0.502312
00000000: 7d3d 10bf f0d1 57bf e65b e7be 398f cc3d
00000010: 53c0 523f df92 10bf 67f3 253e bb3c 1cbf
00000020: d01f 76bf 6904 3a3f e39d dbbe 6cc1 31bf
00000030: c4cd 603f 391b 38bf 9b77 eabe 93aa 103f
00000040: d58a 833f 59d6 e93e b6ef b4be 4a4f f43e
00000050: 8c8f 673f ea20 24bf 6449 d13e 3266 00be
00000060: e14c ea3e d343 8d3f ca6c fdbe 6ab6 193f
00000070: 023b 403f e393 3f3f 28c5 3d3f ebbd acbe
00000080: c2d3 0dbf 66fc da3e 2645 173f 46ac d13e
00000090: 2058 64be 394c 1fbf 8e71 2d3f be22 833f
000000a0: f1d7 623f 0461 603f 9594 3c3f f7bc 48bf
000000b0: 9074 e03e 9506 dd3e 1164 c5be 94d9 6bbf
000000c0: 998e c2be 6128 b43e 95dd 043f f877 f43e
000000d0: 7b42 2d3f 09e3 5d3f ff32 4ebf 7471 cfbe
000000e0: bdf5 f8be 645c ecbe 1a89 073f 947c dc3e
000000f0: 03ca f53d 5fc9 1bbf a180 09bf 8597 00bf

q_reg.weight f4 [64, 128]
0.111347444 1.2185199 -0.35447133 -0.11155946 -1.5278147 0.31672424 0.9785014 0.5846383
-0.63307905 1.0228164 0.5485835 -0.14417113 1.1984982 0.6912922 0.3057006 -0.3311896
0.3819373 -0.76558805 -0.8831334 0.7449337 -0.16506849 0.74518126 0.21488453 -0.82518625
1.2469484 -0.82152414 -1.010239 1.141798 0.08788843 -0.32571194 -0.620938 -1.0741751
0.43447742 0.0027893006 1.7377467 -0.079571925 -0.5688251 0.45330173 -0.63852787 0.30033383
-0.1677834 -1.4332933 -0.4767122 -0.08919686 -0.4892934 0.17012492 -0.2235748 1.0244579
0.14308488 -0.05057699 -0.34904227 0.08430015 0.61444646 0.51844865 0.18616088 1.3938109
1.1012796 0.7887826 -0.5982631 -0.1034582 -0.20912708 -0.30728325 0.9129916 0.016013213
0.67979056 0.9119572 0.34546095 -0.66768384 1.1345394 -0.9402909 0.0612869 1.5736319
-0.30102906 0.26348338 -0.6009686 -0.23009945 -0.33459443 1.3849378 0.9780675 0.3712708
0.53052527 -0.45086643 0.30384648 -0.4054055 1.0349131 -1.1454967 0.16778399 0.068524905
-0.47115493 0.7931391 1.0438868 -0.8051413 -0.81187177 0.13343973 0.16560987 0.61373127
1.3638856 1.2239032 0.3789248 0.6083083 -0.27171087 0.91966605 -0.09253684 -0.2016898
-0.6187278 -0.44241726 0.47848114 0.6762758 0.09416612 0.8434964 -0.49584794 0.2448168
0.3545722 0.6283938 0.22175762 0.013231926 -0.8129996 0.7242224 -0.778778 -0.6477494
-0.9636304 -0.4725614 1.1958181 -0.49328247 -0.5893748 -0.9911499 0.36127698 1.9146287
0.38033468 1.4054012 -0.31970143 -0.32742348 -0.3010336 -0.08591258 0.9411286 0.069803976
-1.2431383 -0.28575236 0.34392962 -0.8187922 0.9961718 0.7712339 0.16505392 -0.8812051
0.14457771 0.030492062 -0.32822368 0.3399586 -0.48543376 0.030449085 -0.10377704 -0.9014318
1.2768947 -0.4645087 -1.3574235 -0.73732495 -0.28400484 -1.0413444 0.81828797 -0.09179332
0.2133817 0.65334845 -0.036946177 -0.7351099 -0.65795404 1.2728388 0.5108181 0.062078685
0.08406069 -0.11003363 -0.9210498 -0.29962757 0.9806974 0.002742251 -1.5984535 1.3334849
-0.4760225 0.23703098 1.1293913 -0.079923585 0.8351967 0.99724954 0.78713584 1.3362652
0.13608062 -0.8876616 -0.16408804 1.1159856 -0.06132204 -1.211156 0.97138375 1.533444
-0.2080994 -0.37870643 -0.11394977 -0.0708621 -0.057444435 -0.2544282 0.45777425 0.8624139
-0.28088215 0.29945126 -0.29440597 -0.12281295 -0.08123029 -1.1820107 0.045885336 0.055155963
0.6227165 1.394288 -0.086147636 0.5587519 1.0293031 0.19756618 0.12906909 0.1515636
-0.97400004 0.20895013 -0.7495164 0.94471526 0.30718565 0.38271144 -0.16464253 1.0099603
-0.040460683 0.38773662 0.6212958 0.12941863 -0.37376916 0.72808653 -0.5096731 -0.3020184
-0.53527975 -0.93034875 0.0120551335 0.4415111 -0.4778875 -0.18821967 0.40172124 1.2397188
-0.04719978 -0.110636085 0.08801415 -0.15100631 -0.990317 0.05129619 -0.3834172 0.10234408
-0.034387086 -0.4877231 0.17309685 -0.18057364 0.5127416 0.3829415 0.39568785 0.53474283
00000000: 210a e43d 76f8 9b3f 447d b5be 4979 e4bd
00000010: 6f8f c3bf ae29 a23e 117f 7a3f dbaa 153f
00000020: 7811 22bf a6eb 823f f86f 0c3f 99a1 13be
00000030: 6468 993f 87f8 303f ca84 9c3e af91 a9be
00000040: 498d c33e 94fd 43bf 0815 62bf fab3 3e3f
00000050: b707 29be 33c4 3e3f b10a 5c3e 683f 53bf
00000060: 019c 9f3f 684f 52bf 834f 81bf 7026 923f
00000070: d9fe b33d b7c3 a6be cbf5 1ebf 927e 89bf
00000080: d373 de3e b3cc 363b 7c6e de3f 9bf6 a2bd
00000090: 869e 11bf 2a17 e83e 9076 23bf 5bc5 993e
000000a0: 69cf 2bbe 2876 b7bf 9f13 f4be d8ac b6bd
000000b0: aa84 fabe 3a35 2e3e cbf0 64be 7021 833f
000000c0: d884 123e d129 4fbd abb5 b2be 8fa5 ac3d
000000d0: 5d4c 1d3f 0db9 043f f5a0 3e3e 6568 b23f
000000e0: bbf6 8c3f a8ed 493f c527 19bf e5e1 d3bd
000000f0: 6925 56be 3b54 9dbe d1b9 693f 242e 833c
00000100: c106 2e3f 0776 693f 42e0 b03e 54ed 2abf
00000110: 9638 913f e8b6 70bf f907 7b3d c56c c93f
00000120: 7b20 9abe 4be7 863e 14d9 19bf 319f 6bbe
00000130: f64f abbe a445 b13f a262 7a3f 3517 be3e
00000140: 81d0 073f f7d7 e6be c491 9b3e 4f91 cfbe
00000150: 0878 843f a39f 92bf 91cf 2b3e c956 8c3d
00000160: 383b f1be 2a0b 4b3f 159e 853f be1d 4ebf
00000170: d4d6 4fbf 6da4 083e a295 293e 7e1d 1d3f
00000180: ce93 ae3f dca8 9c3f 6e02 c23e 18ba 1b3f
00000190: b01d 8bbe 3c6f 6b3f f483 bdbd c587 4ebe
000001a0: f264 1ebf 8484 e2be 7bfb f43e 6920 2d3f
000001b0: 2bda c03d 61ef 573f c8df fdbe 41b1 7a3e
000001c0: 7d8a b53e 6bde 203f 6e14 633e b8ca 583c
000001d0: be20 50bf a466 393f ff5d 47bf e8d2 25bf
000001e0: 7bb0 76bf 91f3 f1be 9110 993f 858f fcbe
000001f0: 44e1 16bf 00bc 7dbf 4cf9 b83e 8e12 f53f
00000200: 3abb c23e 30e4 b33f e8af a3be 0da4 a7be
00000210: 1321 9abe eff2 afbd ceed 703f 63f5 8e3d
00000220: 281f 9fbf 224e 92be 8b17 b03e 5e9c 51bf
00000230: 1d05 7f3f 966f 453f e503 293e a896 61bf
00000240: 2e0c 143e 7dca f93c ef0c a8be 0e0f ae3e
00000250: c68a f8be 5c70 f93c 0f89 d4bd 3cc4 66bf
00000260: 4971 a33f 16d4 edbe 0ec0 adbf 54c1 3cbf
00000270: 1569 91be c64a 85bf 527b 513f 23fe bbbd
00000280: bb80 5a3e d841 273f e054 17bd 2a30 3cbf
00000290: ad6f 28bf 62ec a23f fac4 023f 3846 7e3d
000002a0: 0328 ac3d 5059 e1bd ebc9 6bbf c968 99be
000002b0: fc0e 7b3f 56b7 333b 209a ccbf a2af aa3f
000002c0: 39b9 f3be 40b8 723e e58f 903f faae a3bd
000002d0: 73cf 553f bf4b 7f3f bc81 493f bd0a ab3f
000002e0: b858 0b3e ca3d 63bf b206 28be 9ed8 8e3f
000002f0: d22c 7bbd 2907 9bbf 9bac 783f e547 c43f
00000300: 0218 55be cfe5 c1be 7f5e e9bd 2620 91bd
00000310: db4a 6bbd 6a44 82be 6361 ea3e 28c7 5c3f
00000320: c9cf 8fbe ad51 993e 61bc 96be 5b85 fbbd
00000330: 115c a6bd 204c 97bf 43f2 3b3d 38eb 613d
00000340: 596a 1f3f 0778 b23f 2c6e b0bd 5d0a 0f3f
00000350: 34c0 833f ca4e 4a3e b02a 043e 7d33 1b3e
00000360: 1158 79bf 06f7 553e 4fe0 3fbf dcd8 713f
00000370: 7047 9d3e c1f2 c33e 0d98 28be 6146 813f
00000380: 1aba 25bd 6a85 c63e 3e0d 1f3f 5186 043e
00000390: ac5e bfbe e163 3a3f f079 02bf 28a2 9abe
000003a0: 1808 09bf 562b 6ebf e582 453c be0d e23e
000003b0: acad f4be a8bc 40be 68ae cd3e 1baf 9e3f
000003c0: 8e54 41bd 2c95 e2bd c340 b43d 66a1 1abe
000003d0: 6a85 7dbf f41b 523d 424f c4be c699 d13d
000003e0: 79d9 0cbd d8b6 f9be 4d40 313e 4ce8 38be
000003f0: 0943 033f e910 c43e 9997 ca3e e8e4 083f

q_reg.bias f4 [64]
0.009898239 0.8046928 -0.08939016 -2.6500216 -3.0640666 0.35875678 -3.195164 0.68259996
-0.48611945 -1.7693723 0.31733137 0.5276509 -1.6493422 -0.118529506 0.99491966 0.71898013
-0.2592396 -1.6280097 -2.3646686 -2.525183 -0.8684008 -2.6606505 -0.71374536 0.97194
-1.3495265 -0.5660563 2.0168247 -1.4248921 -2.9881084 -2.6456363 -1.2958091 -0.96373886
-0.5417142 -2.8861973 -0.43563572 -0.0035231744 0.5214756 0.10802382 -1.5381268 0.01933267
-1.9779571 -2.0204759 -1.2999914 1.3660065 -2.1289692 -2.5672483 0.7843823 1.4924854
-0.5150181 -2.8567803 -1.1790099 -2.1739006 0.95146805 -1.7059249 -1.461138 0.18934903
-1.2936388 -1.2159473 -0.35600093 -1.6346314 -2.3006668 1.4878672 0.7842373 -0.2176458
00000000: 392c 223c 5900 4e3f 3012 b7bd f499 29c0
00000010: ab19 44c0 f8ae b73e 917d 4cc0 dfbe 2e3f
00000020: a6e4 f8be cb7a e2bf 4279 a23e 2114 073f
00000030: a51d d3bf 99bf f2bd 0eb3 7e3f 150f 383f
00000040: 0ebb 84be 9f62 d0bf bb56 17c0 999c 21c0
00000050: 844f 5ebf 1948 2ac0 04b8 36bf 0fd1 783f
00000060: 49bd acbf 11e9 10bf a813 0140 dd62 b6bf
00000070: 2b3d 3fc0 1b52 29c0 13dd a5bf 97b7 76bf
00000080: c8ad 0abf 75b7 38c0 a50b dfbe 0fe5 66bb
00000090: 6d7f 053f 983b dd3d 57e1 c4bf 8c5f 9e3c
000000a0: b32d fdbf 7a4f 01c0 1e66 a6bf 4dd9 ae3f
000000b0: 0841 08c0 cc4d 24c0 47cd 483f c309 bf3f
000000c0: 3ad8 03bf 7dd5 36c0 cce9 96bf 3021 0bc0
000000d0: 6993 733f bf5b dabf 9206 bbbf b6e4 413e
000000e0: f595 a5bf 29a4 9bbf c145 b6be 9a3b d1bf
000000f0: 203e 13c0 6f72 be3f c7c3 483f 8ade 5ebe
