model.pt (torch, 58567 bytes, 9 tensors)

gat_layer1.linear_l.weight f4 [64, 8]
0	0xba9b88b2	-0.00118663
1	0xbc1b6236	-0.0094838645
2	0xbb06b3f6	-0.0020554042
3	0x3a686847	0.0008865636
4	0x398f03d0	0.00027277926
5	0xba90ee76	-0.0011057395
6	0xbc4f7049	-0.012661048
7	0xbc3d5aa0	-0.011557251
8	0xbbde3e41	-0.0067823236
9	0xbd574dfd	-0.05256461
10	0xbc69a8c1	-0.0142614255
11	0x3bb4080c	0.0054941233
12	0x3b08d7df	0.0020880622
13	0xbc09cd99	-0.008410835
14	0xbd9d0f7b	-0.07668968
15	0xbd8ded96	-0.069300815
16	0xb1efd3ef	-6.9799095e-09
17	0xb28054f0	-1.4939786e-08
18	0xb22ff40d	-1.0241831e-08
19	0x320dde07	8.257763e-09
20	0x3123d696	2.38416e-09
21	0x31e05243	6.52861e-09
22	0x312822e4	2.446705e-09
23	0xb255cd8d	-1.2444969e-08
24	0xbb0a9683	-0.002114684
25	0xbc898660	-0.016787708
26	0xbb625f9b	-0.0034541849
27	0x3ad5ab1a	0.0016301603
28	0x39faff5e	0.0004787398
29	0xbac9d2b9	-0.0015397883
30	0xbcb2b4e9	-0.02181478
31	0xbca27e15	-0.019835511
32	0x3b7eee2f	0.0038899293
33	0x3cebaa9f	0.028767882
34	0x3bbcdadd	0.005763395
35	0xbb4c0224	-0.0031129206
36	0xba4a69aa	-0.00077214336
37	0x3b044740	0.002018407
38	0x3d21d4cd	0.039509583
39	0x3d102db5	0.03519984
40	0x3920e9d3	0.00015345895
41	0x3a94bc04	0.0011347537
42	0x396d6680	0.00022640266
43	0xb900be3c	-0.00012277899
44	0xb7ff6915	-3.0447301e-05
45	0x38a73f9c	7.975029e-05
46	0x3acc4d0c	0.0015586927
47	0x3ab5fdb8	0.0013884818
48	0x3b8c3bf8	0.00427961
49	0x3d01492d	0.031563926
50	0x3bb8b772	0.0056371028
51	0xbb620ab4	-0.0034491243
52	0xba64978a	-0.0008720091
53	0x3b17cf33	0.0023164272
54	0x3d322326	0.04349055
55	0x3d1e560b	0.038656276
56	0x3aa11ffc	0.0012292857
57	0x3c14c64f	0.009080484
58	0x3aeec2ad	0.0018215977
59	0xba8091c0	-0.0009809062
60	0xb97ec250	-0.00024295715
61	0x3a267fc0	0.00063514337
62	0x3c4cab94	0.012492079
63	0x3c363105	0.011120086
64	0xbaf652dd	-0.0018793006
65	0xbc747a34	-0.014921714
66	0xbb5e930a	-0.0033962154
67	0x3ab850e3	0.0014062192
68	0x39f1e103	0.0004613475
69	0xbb099c2b	-0.0020997624
70	0xbca65eb6	-0.020308834
71	0xbc99ab60	-0.018758476
72	0xb78f4a45	-1.7081513e-05
73	0xb90aa5e5	-0.00013222506
74	0xb81171b0	-3.4676574e-05
75	0x37632006	1.353771e-05
76	0x36a94462	5.0445533e-06
77	0xb7b1eed0	-2.121125e-05
78	0xb94837a8	-0.0001909422
79	0xb9358df2	-0.00017314384
80	0xbb3bbb83	-0.0028645701
81	0xbcbb5dc3	-0.022871858
82	0xbba4e1d0	-0.0050318018
83	0x3b0b58f0	0.0021262728
84	0x3a346d13	0.00068827084
85	0xbb486130	-0.0030575506
86	0xbcfb8df0	-0.03070733
87	0xbce7b9aa	-0.028286774
88	0x322b02af	9.95412e-09
89	0x3381a268	6.036572e-08
90	0xb2870ecd	-1.5722799e-08
91	0x322c58df	1.0031925e-08
92	0xb1eff771	-6.9839463e-09
93	0x3194f969	4.3357216e-09
94	0xb2a3b8d1	-1.9059742e-08
95	0xb10b1ec7	-2.0244657e-09
96	0x3c2ca0bc	0.010536369
97	0x3d9f80f7	0.0778827
98	0x3c748527	0.014924324
99	0xbc0aceef	-0.008472188
100	0xbb0b6844	-0.0021271864
101	0x3bbb7372	0.0057205493
102	0x3ddb414c	0.10705814
103	0x3dc37e64	0.095455915
104	0xb23c2159	-1.0950623e-08
105	0xb338afa6	-4.300059e-08
106	0xb26f5e8b	-1.39331275e-08
107	0x3250982c	1.2141793e-08
108	0x3244955a	1.144266e-08
109	0xb1c998d4	-5.8672445e-09
110	0xb3c63c0e	-9.2310174e-08
111	0xb38f8fbf	-6.685104e-08
112	0x3add19da	0.0016868666
113	0x3c4c63c3	0.012474957
114	0x3b23a11c	0.0024967855
115	0xbab0ed94	-0.0013498538
116	0xb9af8a5f	-0.00033481696
117	0x3a6588fe	0.000875607
118	0x3c8c5b00	0.017133236
119	0x3c7a16f5	0.015264262
120	0xba0fa184	-0.0005479085
121	0xbb873f87	-0.004127446
122	0xba5ca0c6	-0.0008416291
123	0x39df4847	0.00042587725
124	0x38e373d8	0.00010845781
125	0xb9a77e77	-0.00031946946
126	0xbbb554c8	-0.0055337884
127	0xbba3d74f	-0.005000032
128	0x2d7f7544	1.452111e-11
129	0xb3599dd3	-5.066779e-08
130	0xb2be9ba2	-2.2189685e-08
131	0x327d3164	1.4737768e-08
132	0x326d144d	1.37998315e-08
133	0xb21a9afb	-8.999218e-09
134	0xb3cac131	-9.441499e-08
135	0xb3726f0b	-5.644601e-08
136	0x2f04dc63	1.2083627e-10
137	0xb2e6e9f9	-2.6881922e-08
138	0xb2e81580	-2.7018132e-08
139	0x32aa5910	1.9831106e-08
140	0x327951d4	1.4512313e-08
141	0xb1c46f4f	-5.717005e-09
142	0xb3ca9157	-9.432795e-08
143	0xb394d1c1	-6.929941e-08
144	0xb00be959	-5.089951e-10
145	0xaf18c089	-1.3892722e-10
146	0xb0058008	-4.856706e-10
147	0x3212314f	8.50953e-09
148	0x32308d73	1.027671e-08
149	0xad8d4357	-1.6059749e-11
150	0xb242ffbe	-1.1350435e-08
151	0xb10f5cd0	-2.0861997e-09
152	0x3b1111e7	0.0022135915
153	0x3c85fb50	0.016355187
154	0x3b55276a	0.0032524713
155	0xbae7a5f8	-0.0017673364
156	0xb9e5defe	-0.00043844426
157	0x3a9be55b	0.0011893915
158	0x3cb80bf7	0.022466643
159	0x3ca3feff	0.020019053
160	0xb9653e55	-0.00021862362
161	0xbaddb979	-0.0016916237
162	0xb9ee7c03	-0.00045487293
163	0x39384fee	0.00017577384
164	0x388b67d9	6.6473796e-05
165	0xb98f6561	-0.0002735062
166	0xbb217b1c	-0.002464003
167	0xbb12059d	-0.0022281178
168	0xb353695b	-4.9223086e-08
169	0x343ea39a	1.7754647e-07
170	0xb407ea48	-1.2658086e-07
171	0x33e17fc8	1.0500622e-07
172	0x32bd942f	2.2069882e-08
173	0x338b9b14	6.5009004e-08
174	0xb4d31b62	-3.9321736e-07
175	0xb4ade5a2	-3.239084e-07
176	0xb243d936	-1.1399882e-08
177	0xb32cc184	-4.0222872e-08
178	0x2ea3f4a2	7.455837e-11
179	0x31b952e1	5.393631e-09
180	0xb1ad4a1d	-5.0433884e-09
181	0x32086abe	7.940512e-09
182	0xb3976d65	-7.051384e-08
183	0xb37d10b6	-5.892135e-08
184	0x3bd5dd04	0.0065265913
185	0x3d44dcf0	0.048062265
186	0x3c045aba	0.0080782715
187	0xbbae2b49	-0.0053152186
188	0xbab1d6d0	-0.0013568047
189	0x3b62f1f1	0.0034629072
190	0x3d87e84a	0.066361025
191	0x3d712a38	0.058878154
192	0x33822164	6.0596705e-08
193	0x34b22d70	3.3188144e-07
194	0x33a216e5	7.547877e-08
195	0xb36c2dad	-5.4989574e-08
196	0xb2b5656f	-2.11173e-08
197	0xb201fc67	-7.566178e-09
198	0x351daae1	5.873572e-07
199	0x3502eccc	4.877336e-07
200	0xba156d1d	-0.0005700158
201	0xbb90a858	-0.0044145994
202	0xba9ba5a2	-0.0011874924
203	0x39f04831	0.00045830154
204	0x3935dbf8	0.0001734345
205	0xba3b13f0	-0.0007136455
206	0xbbd29c3c	-0.006427316
207	0xbbbe74f8	-0.0058122836
208	0xb09a0a12	-1.1207837e-09
209	0x332ed41e	4.070545e-08
210	0x32cd54c8	2.3903695e-08
211	0xb16cba45	-3.4448402e-09
212	0x2ec10d5a	8.7789956e-11
213	0x323b7ac2	1.09127445e-08
214	0x3393c219	6.880527e-08
215	0x33659b59	5.3459505e-08
216	0x3bcf6132	0.0063287253
217	0x3d3f7bdc	0.04674898
218	0x3c19c387	0.009384996
219	0xbba58279	-0.005050954
220	0xbaa42a03	-0.0012524727
221	0x3b610cf2	0.0034339991
222	0x3d8384d5	0.0642182
223	0x3d6a66f7	0.0572271
224	0x3190003c	4.1909782e-09
225	0xb1d92685	-6.3199104e-09
226	0xb1fd7531	-7.3765922e-09
227	0x320880a9	7.945496e-09
228	0xb17877cb	-3.6156844e-09
229	0x32628920	1.318611e-08
230	0xb34afb24	-4.72602e-08
231	0xb2baab07	-2.1731024e-08
232	0x3c05e51b	0.008172299
233	0x3d775d1e	0.060391538
234	0x3c3c9042	0.011509003
235	0xbbd745a4	-0.006569581
236	0xbad8183b	-0.0016486713
237	0x3b9157e7	0.0044355276
238	0x3daa05e8	0.08301908
239	0x3d979227	0.07400923
240	0x3b8d2df0	0.0043084547
241	0x3d025be1	0.031825904
242	0x3bd0e542	0.006374986
243	0xbb61599f	-0.0034385694
244	0xba5f83ae	-0.00085263967
245	0x3b193628	0.0023378227
246	0x3d331291	0.04371888
247	0x3d1f9375	0.038958985
248	0x3bca3eea	0.0061720507
249	0x3d3ac9b8	0.04560253
250	0x3c0cf8b6	0.008604219
251	0xbba28efe	-0.0049608937
252	0xbaa33493	-0.0012451581
253	0x3b5b7dce	0.0033491733
254	0x3d80625c	0.062687606
255	0x3d64e69e	0.055883996

gat_layer1.linear_r.weight f4 [64, 8]
0	0x3c2f79d6	0.0107102
1	0x3ca7cf9b	0.020484736
2	0xbc69ba23	-0.01426557
3	0x3ae8b434	0.00177539
4	0x3a9a48bd	0.0011770945
5	0xbc494a44	-0.012285773
6	0x3d7f4c60	0.062328696
7	0x3d76b942	0.06023527
8	0x3d468874	0.048469976
9	0x3dbbd086	0.09170632
10	0xbd847037	-0.06466716
11	0x3c06b333	0.008221435
12	0x3bb33af2	0.0054696733
13	0xbd60b869	-0.054863367
14	0x3e8f9e8a	0.28050643
15	0x3e8b5253	0.27211246
16	0xbae43fc2	-0.0017414021
17	0xbb7590a1	-0.0037470239
18	0x3b1a62a5	0.0023557332
19	0xb9a201a1	-0.00030900261
20	0xb958f730	-0.0002069145
21	0x3aca6861	0.0015442484
22	0xbc290fac	-0.010318678
23	0xbc237f68	-0.0099791065
24	0x3cc43728	0.023952082
25	0x3d3c0d97	0.045911398
26	0xbd04c574	-0.03241487
27	0x3b81a9cf	0.0039570103
28	0x3b2c4ed4	0.0026292102
29	0xbce25119	-0.027626561
30	0x3e0f1989	0.13974585
31	0x3e0a5699	0.13509597
32	0x3cf9ed8c	0.030508779
33	0x3d6f9e70	0.058500707
34	0xbd2baef0	-0.04191488
35	0x3ba4f8b8	0.0050345324
36	0x3b5ad77d	0.0033392601
37	0xbd111dbc	-0.035428748
38	0x3e365969	0.17807545
39	0x3e305687	0.17220508
40	0x3a5f80fd	0.00085259957
41	0x3ad5fe5e	0.0016326418
42	0xba99af60	-0.001172524
43	0x39137b57	0.0001406496
44	0x38c390c2	9.325288e-05
45	0xba82257c	-0.0009929384
46	0x3ba307b7	0.004975285
47	0x3b9da686	0.004811111
48	0xba9286ae	-0.0011179054
49	0xbb2b8e5c	-0.0026177382
50	0x3ab30c6e	0.001366032
51	0xb95572e7	-0.00020356067
52	0xb9021f32	-0.00012409387
53	0x3a881668	0.0010382654
54	0xbbe12697	-0.0068710553
55	0xbbded7da	-0.006800634
56	0x3cd2acd0	0.025717169
57	0x3d49fc3e	0.049312823
58	0xbd1073a9	-0.035266552
59	0x3b8b1f93	0.0042457073
60	0x3b3890e9	0.0028162545
61	0xbcf3cbd6	-0.029760282
62	0x3e19b0a8	0.15008795
63	0x3e149fc7	0.14514075
64	0x3c755eca	0.014976213
65	0x3ce9b693	0.028529441
66	0xbca15f48	-0.019698754
67	0x3b2420ed	0.002504404
68	0x3ad897c5	0.0016524723
69	0xbc8c0091	-0.017090114
70	0x3db1d0c9	0.08682401
71	0x3dabff93	0.08398356
72	0x39010799	0.00012305229
73	0x3974cfd1	0.00023347071
74	0xb92b99ba	-0.00016365098
75	0x37ae91b5	2.0810267e-05
76	0x3767dd24	1.3820161e-05
77	0xb9123660	-0.00013943901
78	0x3a3acee1	0.0007126164
79	0x3a350e4c	0.00069067325
80	0x3cc0f5af	0.023554651
81	0x3d382d51	0.044965092
82	0xbcff32fc	-0.031152241
83	0x3b8088e7	0.00392257
84	0x3b29fa9d	0.002593673
85	0xbcdcb98e	-0.026943948
86	0x3e0c1b81	0.13682367
87	0x3e0772fd	0.13227458
88	0xba978eff	-0.0011563002
89	0xbb1c5fb6	-0.002386076
90	0x3ace051c	0.0015718075
91	0xb951dc9d	-0.00020013978
92	0xb90c0872	-0.00013354587
93	0x3a953857	0.0011384588
94	0xbbdf5627	-0.00681569
95	0xbbd7f663	-0.006590651
96	0xba835466	-0.001001966
97	0xbb0c0701	-0.002136648
98	0x3a9aa382	0.0011797997
99	0xb92ab3ea	-0.00016279487
100	0xb8d84b5b	-0.00010313719
101	0x3a9d9649	0.0012022938
102	0xbbc7f21a	-0.006101859
103	0xbbc03cd5	-0.0058666267
104	0xba6c8705	-0.0009022805
105	0xbaeff45e	-0.001830708
106	0x3aa1166b	0.0012290006
107	0xb9220efd	-0.00015455107
108	0xb8d7ebd6	-0.00010295927
109	0x3a723a59	0.0009240262
110	0xbbade407	-0.005306724
111	0xbba825ec	-0.0051314738
112	0x3c472d34	0.012156773
113	0x3cbef597	0.023310466
114	0xbc88db27	-0.016706062
115	0x3b03799f	0.0020061505
116	0x3aae6417	0.0013304976
117	0xbc6756bf	-0.014119803
118	0x3d915228	0.07095748
119	0x3d8c87d7	0.06861847
120	0x3c586fbb	0.013210232
121	0x3ccf81de	0.02533048
122	0xbc946cf4	-0.01811836
123	0x3b0edc88	0.0021798927
124	0x3abd88f8	0.0014460376
125	0xbc7a2bc8	-0.015269227
126	0x3d9de07b	0.07708832
127	0x3d98a818	0.07453936
128	0xbb01498d	-0.0019727678
129	0xbb8dcec4	-0.004327627
130	0x3b2e8a51	0.0026632736
131	0xb9b97489	-0.00035372775
132	0xb978c228	-0.00023723452
133	0x3ad9e926	0.001662527
134	0xbc3ff6d4	-0.011716563
135	0xbc39abe0	-0.011332482
136	0xbb05921c	-0.0020381277
137	0xbb935458	-0.0044961385
138	0x3b3437cd	0.002749908
139	0xb9c029e3	-0.00036652302
140	0xb980ef8d	-0.00024592542
141	0x3addb4d8	0.0016914858
142	0xbc4673ae	-0.012112541
143	0xbc3ff474	-0.011715997
144	0xbac50741	-0.0015032069
145	0xbb503d86	-0.0031774952
146	0x3b058986	0.002037616
147	0xb98a6cae	-0.00026402384
148	0xb9391650	-0.00017651287
149	0x3ab6df5b	0.0013952063
150	0xbc119d92	-0.008887665
151	0xbc0cd04f	-0.0085945865
152	0x3bbab9e3	0.005698429
153	0x3c32eabc	0.010920223
154	0xbc0087fd	-0.007844922
155	0x3a769d05	0.0009407553
156	0x3a238737	0.0006238105
157	0xbbd85ed1	-0.0066031
158	0x3d083363	0.03325213
159	0x3d03b632	0.032156177
160	0x3acd6288	0.0015669623
161	0x3b42982e	0.0029692757
162	0xbb08f6dd	-0.0020899095
163	0x398b3d18	0.00026557664
164	0x393931a0	0.00017661462
165	0xbae87630	-0.0017735418
166	0x3c149e8a	0.009071002
167	0x3c102471	0.008797751
168	0xba8fb021	-0.0010962525
169	0xbb12ec2f	-0.0022418608
170	0x3ac36ea4	0.0014910293
171	0xb94656e0	-0.00018915115
172	0xb9043d0e	-0.00012611246
173	0x3a8fee45	0.0010981044
174	0xbbd373ff	-0.006453037
175	0xbbcc71fe	-0.006239175
176	0xbae36610	-0.0017349143
177	0xbb74c237	-0.0037347206
178	0x3b19d165	0.0023470756
179	0xb9a164ad	-0.00030783322
180	0xb95820be	-0.00020611563
181	0x3ac992f3	0.0015378877
182	0xbc2870f8	-0.01028084
183	0xbc22e6e2	-0.009942742
184	0xbb10dd35	-0.0022104506
185	0xbb6c5862	-0.0036063422
186	0x3b29dd0f	0.0025919115
187	0xb9d77e39	-0.0004110204
188	0xb972eafd	-0.00023166458
189	0x3b45902a	0.0030145743
190	0xbc5aa78a	-0.0133456085
191	0xbc58a588	-0.0132230595
192	0xbaf06eb1	-0.0018343535
193	0xbb8271b2	-0.0039808387
194	0x3b227d48	0.0024793912
195	0xb9ab623c	-0.00032688852
196	0xb965ad21	-0.00021903637
197	0x3ad0ad83	0.0015920851
198	0xbc324485	-0.010880594
199	0xbc2c69b7	-0.010523251
200	0x3b8610c3	0.0040913536
201	0x3bfd2caf	0.007726274
202	0xbbb2d0f9	-0.0054570404
203	0x3a35c4e4	0.0006933941
204	0x39f1afc3	0.00046098055
205	0xbb9841e6	-0.0046465276
206	0x3cc1e318	0.023667857
207	0x3cbc093e	0.022953626
208	0xbac1dc52	-0.0014790392
209	0xbb4cab89	-0.0031230173
210	0x3b036a14	0.002005224
211	0xb9881051	-0.00025952098
212	0xb935ed55	-0.00017349918
213	0x3ab48511	0.0013772567
214	0xbc0f4170	-0.008743629
215	0xbc0a8848	-0.008455344
216	0x3b0d95e9	0.0021604246
217	0x3b87a1d8	0.0041391663
218	0xbb42738b	-0.002967092
219	0x39bb0f77	0.00035678942
220	0x3977d505	0.00023635112
221	0xbb23c635	-0.0024989967
222	0x3c4e8b12	0.012606399
223	0x3c4786df	0.012178152
224	0xbb0c18da	-0.0021377117
225	0xbb9be29b	-0.004757238
226	0x3b3cd990	0.00288162
227	0xb9ca7954	-0.0003861884
228	0xb987f617	-0.00025932558
229	0x3ae2efe9	0.001731393
230	0xbc50593b	-0.012716587
231	0xbc498aec	-0.012301188
232	0xba857768	-0.001018268
233	0xbb0b9dfb	-0.002130388
234	0x3aab414f	0.0013065728
235	0xb931241d	-0.00016893489
236	0xb8e67a56	-0.000109900415
237	0x3a9d4624	0.0011999053
238	0xbbccd0cc	-0.0062504765
239	0xbbc57535	-0.006025935
240	0x3b3211fa	0.002717136
241	0x3baab0b2	0.005209052
242	0xbb73fca4	-0.0037229443
243	0x39eb2aa8	0.00044854474
244	0x399bfa7f	0.00029750538
245	0xbb4dda77	-0.0031410733
246	0x3c81e587	0.015856517
247	0x3c7b369b	0.015332843
248	0xba68085d	-0.0008851344
249	0xbaf1b160	-0.0018439703
250	0x3a9530dd	0.001138236
251	0xb91d8e3b	-0.00015025672
252	0xb8ce76fd	-9.845009e-05
253	0x3a8747d1	0.0010321086
254	0xbbb348fe	-0.005471348
255	0xbbad9237	-0.005296971

gat_layer1.attn.weight f4 [1, 64]
0	0xbca10835	-0.019657234
1	0xbdf8d897	-0.12150686
2	0xb2637f06	-1.3242021e-08
3	0xbd0c8c7d	-0.034313668
4	0x3d790a4a	0.060800828
5	0x3b1d1fa3	0.0023975156
6	0x3d889cbe	0.06670521
7	0x3c9d6f9d	0.01921826
8	0xbd02537d	-0.031817902
9	0xb99e480e	-0.00030189793
10	0xbd44955c	-0.047994003
11	0x2f23b218	1.4888035e-10
12	0x3e287b8c	0.1645338
13	0xb4048a1e	-1.2343705e-07
14	0x3cd7f7d4	0.02636329
15	0xbc0c6276	-0.008568397
16	0xb403fd1f	-1.229241e-07
17	0xb4037c65	-1.224558e-07
18	0xb232e738	-1.0413537e-08
19	0x3d0d7d47	0.034543302
20	0xbb7f7862	-0.0038981666
21	0xb4fbc9be	-4.689918e-07
22	0xb3d5d2aa	-9.956905e-08
23	0x3dd025cf	0.101634614
24	0x356094a5	8.366281e-07
25	0xbc269e7e	-0.010169623
26	0x33d22958	9.7864074e-08
27	0x3dca3622	0.09873606
28	0xb3579a85	-5.0199123e-08
29	0x3e02a38e	0.12757704
30	0x3d89a8e7	0.06721669
31	0x3dc54a09	0.09633262
32	0x3cda072e	0.026614752
33	0xb3ce7596	-9.614011e-08
34	0x3df8bb3a	0.12145086
35	0xbd2e4313	-0.042544436
36	0x3de87918	0.11351222
37	0xb43ccd56	-1.7583565e-07
38	0xb88d95e5	-6.751324e-05
39	0x3de7742e	0.113014564
40	0x3d493416	0.04912194
41	0x33b49f6c	8.410902e-08
42	0x33f8cb62	1.1585395e-07
43	0x3dbc7aec	0.09203133
44	0xb361b470	-5.2551e-08
45	0x3dc155c4	0.094401866
46	0xbd41fbf5	-0.047359426
47	0xbd44df3f	-0.048064467
48	0x3da50d2c	0.08059153
49	0xb3ad5853	-8.072006e-08
50	0x3e03ce2f	0.12871622
51	0x3bd782f8	0.006576892
52	0xbc5b2c3c	-0.0133772455
53	0xbd54e29b	-0.05197392
54	0x32b2c44b	2.0811191e-08
55	0x3d1b5f15	0.037932474
56	0xbd8bfa31	-0.068348296
57	0xb1b636d6	-5.3031313e-09
58	0x32ed31f0	2.761314e-08
59	0x3b00344c	0.0019562421
60	0x3cff30bc	0.031151168
61	0xb14a143f	-2.9406377e-09
62	0x3149ac36	2.934724e-09
63	0x32d0f267	2.4324619e-08

gat_layer.linear_l.weight f4 [64, 64]
0	0x3b11e8e9	0.002226407
1	0x3c23c712	0.0099961925
2	0xb9b9ade8	-0.0003541552
3	0x3ba38520	0.004990235
4	0x3bd06c39	0.0063605574
5	0x393a3629	0.00017758519
6	0xb97d216b	-0.0002414041
7	0x3bafad87	0.0053612622
8	0x3b4b4735	0.0031017784
9	0x37d5446b	2.5423438e-05
10	0x3ba029f6	0.0048878146
11	0xb978eb8f	-0.00023738875
12	0xb963088d	-0.00021651592
13	0xb942fbf0	-0.00018595136
14	0x3b261979	0.0025344773
15	0x3b3478e5	0.002753788
16	0xb9d1a441	-0.00039985965
17	0xb9d85ea4	-0.00041269243
18	0xb9a0e597	-0.00030688636
19	0x3a9ba2aa	0.0011874039
20	0x39a99a7e	0.00032349298
21	0xb96b82bc	-0.00022460049
22	0xb9b9179e	-0.00035303546
23	0xb9cea7c1	-0.00039416368
24	0xb9c36953	-0.0003727177
25	0x3a5ce60b	0.0008426613
26	0xb99e6d79	-0.00030217672
27	0x39ebeab4	0.0004499756
28	0xb9e29566	-0.0004321739
29	0xb964f269	-0.00021834079
30	0x3a147354	0.0005662937
31	0xb9470f17	-0.0001898374
32	0x3bdbcda2	0.006707863
33	0xb9e52eee	-0.0004371325
34	0xb9412e4c	-0.00018423161
35	0x3b63c74e	0.0034756246
36	0x3a8ffe5e	0.0010985842
37	0xb9c0117f	-0.0003663413
38	0x36bd9a22	5.6505824e-06
39	0xb935ebfe	-0.00017349419
40	0x3bf8c434	0.0075917486
41	0xb9e0db0c	-0.00042887812
42	0xb9d9ebf3	-0.0004156526
43	0xb966e42d	-0.00022019511
44	0xb9d520d0	-0.00040650973
45	0xb940ed4e	-0.0001839895
46	0x3b81956e	0.003954581
47	0x3b81e763	0.003964351
48	0x3b03fa27	0.0020138116
49	0xb9595346	-0.00020725754
50	0x3b5422fa	0.003236948
51	0x3b3c04fe	0.00286895
52	0x3a906f22	0.0011019448
53	0x3bb01e46	0.0053747026
54	0xb9e70869	-0.0004406602
55	0x3ba76bc7	0.0051092836
56	0x3bb8b6b8	0.005637016
57	0xb9c725b8	-0.0003798434
58	0xb9d594a0	-0.0004073726
59	0x3ba6f8e1	0.0050955866
60	0x3b98e437	0.004665877
61	0xb9d44d2d	-0.0004049329
62	0xb9a73d6b	-0.00031898482
63	0xb9ea8e37	-0.00044737916
64	0xb0e58392	-1.6699337e-09
65	0xb1f6a6e0	-7.178514e-09
66	0x315953a1	3.1625194e-09
67	0xb214d891	-8.663975e-09
68	0xb20163b8	-7.531462e-09
69	0x309ecc86	1.1554142e-09
70	0x3183d5bf	3.836902e-09
71	0xb2018a50	-7.540237e-09
72	0xaee4ec2a	-1.0410191e-10
73	0x3180a426	3.743952e-09
74	0xb1f8ddcb	-7.242965e-09
75	0x31691154	3.3915812e-09
76	0xb0b99221	-1.3502054e-09
77	0x3167d7f5	3.3737682e-09
78	0x2f121db5	1.3289177e-10
79	0x30aeaa92	1.2708645e-09
80	0xb01f2352	-5.7894056e-10
81	0x305b9150	7.987824e-10
82	0xb1279a88	-2.438954e-09
83	0xaf215643	-1.4673511e-10
84	0x30b8ffea	1.3460497e-09
85	0xb120d298	-2.3402773e-09
86	0xb127cddf	-2.4418723e-09
87	0xb12ae0e5	-2.4866094e-09
88	0x31241cf3	2.3881597e-09
89	0x316143ee	3.2780423e-09
90	0x2fbe23e9	3.4586314e-10
91	0x31734ff2	3.5406598e-09
92	0x30cd012e	1.4916048e-09
93	0xb167447b	-3.365385e-09
94	0xafde7e60	-4.047136e-10
95	0xb17173b1	-3.5135879e-09
96	0xb19a121c	-4.4840487e-09
97	0xaf7ec31b	-2.3170481e-10
98	0xaff075ff	-4.3739587e-10
99	0xb1ecce35	-6.891947e-09
100	0x30466ec8	7.218941e-10
101	0x30e9a9ae	1.7001207e-09
102	0x315215aa	3.0571337e-09
103	0xb142074d	-2.8234866e-09
104	0xb1aec23e	-5.0861493e-09
105	0x312819e2	2.446193e-09
106	0xae86f102	-6.136426e-11
107	0x31712254	3.508963e-09
108	0x306ac243	8.5404767e-10
109	0xb0d69a72	-1.5614445e-09
110	0xb076e38f	-8.981766e-10
111	0xb1969622	-4.3826427e-09
112	0x30142135	5.3889276e-10
113	0x3129452c	2.4632056e-09
114	0xb1c9cfef	-5.8735092e-09
115	0xb0f8f74c	-1.8114661e-09
116	0xb03c8c94	-6.8593775e-10
117	0xb17a0b1c	-3.6386103e-09
118	0xb1181a70	-2.213394e-09
119	0xb0ac7ade	-1.2549568e-09
120	0xb1fa0238	-7.27621e-09
121	0xb124af78	-2.3964883e-09
122	0xb0fe6d88	-1.8512063e-09
123	0xb1f2acba	-7.0627637e-09
124	0xb1e89801	-6.7693695e-09
125	0x319b065f	4.511818e-09
126	0x312078e0	2.3351774e-09
127	0x314fad0b	3.0220828e-09
128	0xb25e3f1a	-1.2936448e-08
129	0xb3634fac	-5.2925017e-08
130	0x319bdc6f	4.536154e-09
131	0xb2d77af2	-2.5085203e-08
132	0xb31af5aa	-3.607935e-08
133	0xb13af38a	-2.7204998e-09
134	0xaf8df8f6	-2.5824648e-10
135	0xb2e876cb	-2.7062375e-08
136	0xb2a1f82a	-1.8855719e-08
137	0x30e7199b	1.681474e-09
138	0xb2bebb7b	-2.2204167e-08
139	0x314ea9e0	3.0073508e-09
140	0xb016a4aa	-5.4803684e-10
141	0x308989e8	1.0007257e-09
142	0xb2432479	-1.1358787e-08
143	0xb285b4e9	-1.5565506e-08
144	0x310d8418	2.0593287e-09
145	0x31783329	3.611783e-09
146	0x3118570f	2.2168398e-09
147	0xb21d654a	-9.161633e-09
148	0xb1b0d39b	-5.146331e-09
149	0x318b7fce	4.059962e-09
150	0xb05c7ab8	-8.020993e-10
151	0x31a7143a	4.862639e-09
152	0x30f61638	1.7905171e-09
153	0xb1e15294	-6.55775e-09
154	0x317d2447	3.6836967e-09
155	0xb1c361af	-5.6863523e-09
156	0x31af0e6e	5.094811e-09
157	0x3113a2ee	2.148393e-09
158	0xb08b422e	-1.013239e-09
159	0x318fc3fd	4.184129e-09
160	0xb3225b9f	-3.7801893e-08
161	0x31f197c5	7.0312773e-09
162	0x31816494	3.7658285e-09
163	0xb29ca0bf	-1.8233889e-08
164	0xb1beeed9	-5.5568816e-09
165	0x309665d9	1.0942883e-09
166	0xb005f622	-4.8734894e-10
167	0x319d8ed2	4.585538e-09
168	0xb33860e8	-4.2928974e-08
169	0xb09130aa	-1.056397e-09
170	0x3199f7e6	4.481069e-09
171	0x31b440eb	5.24607e-09
172	0x3042e946	7.090829e-10
173	0x31241119	2.387486e-09
174	0xb2ce946d	-2.4049053e-08
175	0xb2ac7312	-2.0075763e-08
176	0xb246d5ca	-1.1573727e-08
177	0xb070a860	-8.7550767e-10
178	0xb278c262	-1.4479697e-08
179	0xb2823993	-1.5160174e-08
180	0xb2067da4	-7.828394e-09
181	0xb307e7ee	-3.1643076e-08
182	0x31dc3962	6.4093664e-09
183	0xb2c68e27	-2.3114877e-08
184	0xb2d6651b	-2.4958856e-08
185	0x3171b8d9	3.517519e-09
186	0x31c3cbd1	5.698418e-09
187	0xb3009fea	-2.9947763e-08
188	0xb2e4c4d1	-2.6632195e-08
189	0x31aed53a	5.0883076e-09
190	0x3191d1ca	4.2439057e-09
191	0x2fb5a76d	3.304267e-10
192	0x39721fd2	0.00023090772
193	0x3a87e3d3	0.001036758
194	0xb81a12b1	-3.673387e-05
195	0x3a07ad19	0.0005175635
196	0x3a2ceecc	0.0006596863
197	0x379a86a2	1.8420924e-05
198	0xb7d204c9	-2.5036179e-05
199	0x3a11c332	0.00055603974
200	0x39a8aa46	0.0003217032
201	0x3630dad2	2.6353414e-06
202	0x3a04e3d6	0.00050693506
203	0xb7ce8936	-2.4621007e-05
204	0xb7bc6157	-2.2456674e-05
205	0xb7a1cff6	-1.9289535e-05
206	0x3989d09b	0.000262861
207	0x3995be19	0.00028561128
208	0xb82df2b1	-4.1472438e-05
209	0xb8338710	-4.2802712e-05
210	0xb8057d4c	-3.1826363e-05
211	0x390121ff	0.00012315063
212	0x380cb800	3.3549964e-05
213	0xb7c3632d	-2.3291994e-05
214	0xb81995c5	-3.6617526e-05
215	0xb82b7398	-4.0877232e-05
216	0xb822200e	-3.8653663e-05
217	0x38b748ab	8.7396555e-05
218	0xb8036f49	-3.1336476e-05
219	0x3843c19f	4.6671947e-05
220	0xb83c025a	-4.4824883e-05
221	0xb7bdf338	-2.2643813e-05
222	0x38765c64	5.8737016e-05
223	0xb7a521e1	-1.9685309e-05
224	0x3a36604a	0.0006957097
225	0xb83e2720	-4.5335968e-05
226	0xb7a050f7	-1.9111189e-05
227	0x39bcfe11	0.00036047449
228	0x38eef112	0.00011393627
229	0xb81f5fbb	-3.799771e-05
230	0x351d3bdc	5.8574165e-07
231	0xb796ecfe	-1.7991752e-05
232	0x3a4e67b4	0.00078737293
233	0xb83a92fa	-4.448274e-05
234	0xb834cf60	-4.3108477e-05
235	0xb7bf98b8	-2.284009e-05
236	0xb830d1c6	-4.2157037e-05
237	0xb7a010c3	-1.9081292e-05
238	0x39d708e8	0.0004101463
239	0x39d791a7	0.00041116515
240	0x395b02be	0.00020886489
241	0xb7b44a74	-2.1492342e-05
242	0x39b0040f	0.0003357236
243	0x399c0130	0.00029755523
244	0x38efaf32	0.00011429041
245	0x3a122130	0.00055744033
246	0xb83fb02b	-4.5702018e-05
247	0x3a0ae97a	0.0005299073
248	0x3a194299	0.00058464106
249	0xb8253df1	-3.9396753e-05
250	0xb83138e4	-4.2253072e-05
251	0x3a0a89fe	0.00052848447
252	0x39fdb65b	0.00048391786
253	0xb830241d	-4.1995303e-05
254	0xb80ac111	-3.308157e-05
255	0xb8429b61	-4.6397912e-05

gat_layer.linear_r.weight f4 [64, 64]
0	0x380641b5	3.2009284e-05
1	0x390daeeb	0.0001351197
2	0xb70c2150	-8.352406e-06
3	0x38965d72	7.169963e-05
4	0x38c01d58	9.160739e-05
5	0x363e3f53	2.8349066e-06
6	0xb73718f4	-1.091346e-05
7	0x38a0d008	7.6681434e-05
8	0x3839a860	4.426425e-05
9	0x34aafed9	3.1850394e-07
10	0x38929cca	6.991027e-05
11	0xb6987c11	-4.5443962e-06
12	0xb6c1e3f6	-5.7783864e-06
13	0xb65aa25e	-3.2579042e-06
14	0x38194c3d	3.6549045e-05
15	0x3823a461	3.9015318e-05
16	0xb723f457	-9.772447e-06
17	0xb72b76a3	-1.02200165e-05
18	0xb6e10468	-6.7060355e-06
19	0x37955011	1.7799468e-05
20	0x3686a6da	4.0129353e-06
21	0xb6b3136e	-5.3368776e-06
22	0xb706320e	-7.998677e-06
23	0xb916f589	-0.00014396584
24	0xb7105167	-8.602022e-06
25	0x375f403f	1.3306794e-05
26	0xb6d5660a	-6.3597736e-06
27	0x36e6ff71	6.8842714e-06
28	0xb737a953	-1.0947074e-05
29	0xb6e6f7aa	-6.883366e-06
30	0x3709e8ae	8.220011e-06
31	0xb6af2043	-5.219162e-06
32	0x38c9a9af	9.616033e-05
33	0xb73c0779	-1.1207413e-05
34	0xb6a91b9b	-5.039806e-06
35	0x38400910	4.5784807e-05
36	0x37876350	1.61395e-05
37	0xb7147bce	-8.850313e-06
38	0x33ecf6cc	1.10344985e-07
39	0xb699f794	-4.588577e-06
40	0x38e607f5	0.00010968737
41	0xb737b764	-1.0950349e-05
42	0xb72d0e07	-1.03148695e-05
43	0xb7142b49	-8.8315655e-06
44	0xb727d735	-1.00040825e-05
45	0xb6a0c6d1	-4.791517e-06
46	0x3867cb8e	5.5264267e-05
47	0x38661edf	5.4865024e-05
48	0x37f7ceb7	2.9540954e-05
49	0xb68ca2c7	-4.191275e-06
50	0x38448741	4.6856007e-05
51	0x382c7567	4.1117335e-05
52	0x3789d61a	1.6431371e-05
53	0x38a254a0	7.7405246e-05
54	0xb73e5ed8	-1.1346965e-05
55	0x389aa6b9	7.374347e-05
56	0x38a57317	7.88925e-05
57	0xb71d0c2f	-9.360766e-06
58	0xb728e23e	-1.0066256e-05
59	0x389a195c	7.348016e-05
60	0x388e11dd	6.774415e-05
61	0xb724d156	-9.823902e-06
62	0xb6eaade6	-6.993988e-06
63	0xb743b840	-1.1665805e-05
64	0xbca0bda0	-0.01962167
65	0xbdb49122	-0.088167444
66	0x3b59fb5e	0.0033261399
67	0xbd34379b	-0.043998342
68	0xbd65ca17	-0.05610093
69	0xbacd71f3	-0.0015674218
70	0x3b110d26	0.0022133081
71	0xbd41aa22	-0.047281392
72	0xbcdfdd30	-0.02732715
73	0xb96ae64b	-0.0002240177
74	0xbd306785	-0.043067474
75	0x3b0ecf53	0.0021791055
76	0x3b01f5e0	0.001983039
77	0x3adda231	0.0016909299
78	0xbcb7210e	-0.022354629
79	0xbcc6efa4	-0.024284191
80	0x3b785f86	0.0037898733
81	0x3b808319	0.003921878
82	0x3b3b1d1a	0.0028551281
83	0xbc2ba269	-0.010475733
84	0xbb3ae197	-0.002851581
85	0x3b0714d1	0.0020611773
86	0x3b592b99	0.0033137558
87	0x3b8d373b	0.0043095625
88	0x3b662d92	0.0035122377
89	0xbbf3c9c6	-0.0074398248
90	0x3b3805cc	0.0028079627
91	0xbb821b8b	-0.0039705685
92	0x3b872181	0.004123867
93	0x3b03885e	0.0020070295
94	0xbba3ad0e	-0.004994995
95	0x3ae3346f	0.0017334352
96	0xbd724fef	-0.059158262
97	0x3b88d61c	0.0041759145
98	0x3adc5314	0.0016809427
99	0xbcfb1d44	-0.030653603
100	0xbc1ec6c9	-0.009690949
101	0x3b620f45	0.0034493965
102	0xb851a8ec	-4.9986804e-05
103	0x3acf0c60	0.0015796535
104	0xbd8921f7	-0.066959314
105	0x3b860635	0.0040900954
106	0x3b81831c	0.003952397
107	0x3b0493f7	0.0020229795
108	0x3b7cd94e	0.0038581672
109	0x3adbe51f	0.0016776657
110	0xbd0edeae	-0.034880333
111	0xbd0f3cc3	-0.034970056
112	0xbc9184aa	-0.017763454
113	0x3af83464	0.0018936512
114	0xbce9e21e	-0.028550204
115	0xbccf4496	-0.025301259
116	0xbc1f57ca	-0.00972552
117	0xbd41fad4	-0.04735835
118	0x3b8a0b7e	0.0042127958
119	0xbd389519	-0.045064066
120	0xbd4bafef	-0.04972833
121	0x3b6b0ae2	0.003586464
122	0x3b7d717c	0.0038672378
123	0xbd3812c1	-0.04493976
124	0xbd2891ae	-0.041154556
125	0x3b7bc20b	0.003841522
126	0x3b42ed9c	0.0029743677
127	0x3b8c5bc3	0.0042834
128	0xbca091c8	-0.019600764
129	0xbdb46008	-0.08807379
130	0x3b59be03	0.0033224828
131	0xbd340684	-0.043951526
132	0xbd658b9c	-0.056041345
133	0xbacd3a35	-0.0015657606
134	0x3b10e5bf	0.0022109596
135	0xbd417562	-0.047231086
136	0xbcdfa040	-0.027298093
137	0xb96aa43c	-0.00022377161
138	0xbd303749	-0.043021474
139	0x3b0ea796	0.002176737
140	0x3b01d1e8	0.0019808952
141	0x3add64d7	0.0016891015
142	0xbcb6ef21	-0.022330822
143	0xbcc6b95e	-0.024258312
144	0x3b781918	0.0037856754
145	0x3b805eca	0.0039175497
146	0x3b3ae8ba	0.0028520063
147	0xbc2b73ef	-0.010464652
148	0xbb3aaea5	-0.0028485444
149	0x3b06efaa	0.0020589628
150	0x3b58ee73	0.0033101111
151	0x3b8d24a3	0.004307346
152	0x3b65ec86	0.0035083606
153	0xbbf387c0	-0.007431954
154	0x3b37d21f	0.0028048826
155	0xbb81f860	-0.003966376
156	0x3b86fb01	0.0041192775
157	0x3b036465	0.0020048853
158	0xbba38086	-0.0049896864
159	0x3ae2f660	0.0017315857
160	0xbd720e05	-0.0590954
161	0x3b88af5b	0.0041712946
162	0x3adc16f6	0.0016791511
163	0xbcfad8f1	-0.030621024
164	0xbc1e9bfa	-0.009680742
165	0x3b61cf7e	0.003445595
166	0xb851720b	-4.9935694e-05
167	0x3aced3e1	0.0015779698
168	0xbd88fc8a	-0.06688793
169	0x3b85e00b	0.004085546
170	0x3b815e38	0.0039479993
171	0x3b047013	0.0020208403
172	0x3b7c9153	0.0038538768
173	0x3adba919	0.0016758769
174	0xbd0eb7ba	-0.034843184
175	0xbd0f15e5	-0.03493299
176	0xbc915cf2	-0.017744515
177	0x3af7efb4	0.0018916042
178	0xbce9a28d	-0.028519893
179	0xbccf0c3e	-0.025274392
180	0xbc1f2c98	-0.009715222
181	0xbd41c5cd	-0.04730778
182	0x3b89e41b	0.0042081005
183	0xbd3862ec	-0.045016214
184	0xbd4b788a	-0.049675502
185	0x3b6ac8c9	0.0035825244
186	0x3b7d2980	0.0038629472
187	0xbd37e0a9	-0.044891987
188	0xbd2863d6	-0.041110836
189	0x3b7b7a8a	0.00383726
190	0x3b42b6ea	0.0029711076
191	0x3b8c33a6	0.004278618
192	0x368ed29c	4.256448e-06
193	0x3795f566	1.7876457e-05
194	0xb598a69b	-1.1373371e-06
195	0x371fc89f	9.523849e-06
196	0x374c2961	1.2168982e-05
197	0x34cbf6b4	3.7991197e-07
198	0xb5d0da8d	-1.5560814e-06
199	0x372ad509	1.0182391e-05
200	0x36c585ba	5.8866253e-06
201	0x3339f396	4.329521e-08
202	0x371c037d	9.299137e-06
203	0xb524a728	-6.1338005e-07
204	0xb554b072	-7.9232916e-07
205	0xb4e89230	-4.3319733e-07
206	0x36a2f1a2	4.856106e-06
207	0x36ad8693	5.1714683e-06
208	0xb5b20627	-1.3263824e-06
209	0xb5ba34ed	-1.3873483e-06
210	0xb57577dc	-9.144403e-07
211	0x361f901f	2.3776736e-06
212	0x350d658f	5.267438e-07
213	0xb546e051	-7.408717e-07
214	0xb5917f3c	-1.0840372e-06
215	0xb7b51789	-2.158784e-05
216	0xb59c8015	-1.1660183e-06
217	0x35f1a4d1	1.8003867e-06
218	0xb567a985	-8.630089e-07
219	0x3577ce3a	9.231477e-07
220	0xb5c6ce01	-1.4812105e-06
221	0xb5806abc	-9.567807e-07
222	0x359340b8	1.0971189e-06
223	0xb5423d9b	-7.236028e-07
224	0x3756455b	1.2771542e-05
225	0xb5cb5fae	-1.5152525e-06
226	0xb53b8801	-6.986084e-07
227	0x36ca7ac4	6.034361e-06
228	0x36104fd9	2.150415e-06
229	0xb5a183fd	-1.2033848e-06
230	0x328038d6	1.4927007e-08
231	0xb528d2d2	-6.289166e-07
232	0x3774b285	1.4585098e-05
233	0xb5c78ca2	-1.4867585e-06
234	0xb5bb65e2	-1.3962238e-06
235	0xb5a7ffca	-1.2516914e-06
236	0xb5b5f32a	-1.3556321e-06
237	0xb53130e9	-6.600881e-07
238	0x36f681a5	7.346464e-06
239	0x36f46f6c	7.284738e-06
240	0x3683e378	3.930585e-06
241	0xb519aa1b	-5.724448e-07
242	0x36d12aec	6.233682e-06
243	0x36b71ce0	5.4571865e-06
244	0x36139dd6	2.199658e-06
245	0x372cd829	1.0302328e-05
246	0xb5cde1ee	-1.5339444e-06
247	0x37247908	9.8033415e-06
248	0x372ffa2a	1.0489059e-05
249	0xb5aaf25f	-1.2736526e-06
250	0xb5b6ea4d	-1.3628247e-06
251	0x3723db29	9.766584e-06
252	0x3717356e	9.012741e-06
253	0xb5b23b63	-1.3279317e-06
254	0xb57d76d6	-9.4422774e-07
255	0xb5d416bb	-1.5801846e-06

gat_layer.attn.weight f4 [1, 64]
0	0x3cc19e55	0.023635069
1	0xb2bb4a30	-2.1803402e-08
2	0xb4087939	-1.2710088e-07
3	0x3b20a63f	0.0024513153
4	0x33a705bc	7.7775866e-08
5	0x32487568	1.1668227e-08
6	0x3c9fe555	0.019518534
7	0xb9b71e3e	-0.00034927012
8	0x33239c21	3.8093393e-08
9	0xb9073453	-0.00012894096
10	0x3c47a949	0.012186357
11	0xb8c05956	-9.1719136e-05
12	0xb1baf224	-5.4408407e-09
13	0xb908b42d	-0.00013037091
14	0xb9449613	-0.00018747924
15	0x3cf63353	0.03005377
16	0xb91773df	-0.00014443648
17	0xb1213bc3	-2.3462554e-09
18	0x3b75e687	0.0037521438
19	0xb8b69464	-8.706076e-05
20	0xb9137a50	-0.00014064577
21	0x320781af	7.887521e-09
22	0xb372b417	-5.6508807e-08
23	0xb3e885e1	-1.0827694e-07
24	0xb3a32c2e	-7.598315e-08
25	0xb7e073f5	-2.6756878e-05
26	0xb9b631e4	-0.00034750917
27	0x3cfa564c	0.030558728
28	0x3c6d264a	0.014474461
29	0xb2315764	-1.0322626e-08
30	0xb37bc6ca	-5.862129e-08
31	0x32ed9e53	2.7662429e-08
32	0x3b7d73bc	0.003867372
33	0xba029081	-0.0004980639
34	0xb982efd8	-0.0002497423
35	0x3c2bc44c	0.010483813
36	0x3d0cb907	0.034356143
37	0xb986265b	-0.0002558705
38	0xb33aade7	-4.3464663e-08
39	0x3d9bda19	0.07609958
40	0xb2ae9836	-2.0325484e-08
41	0x3d9b88eb	0.075944744
42	0xb2ded283	-2.5939931e-08
43	0xb2b39780	-2.0907237e-08
44	0xb8d85fc6	-0.00010317522
45	0x3d5f5ba5	0.05453076
46	0xb9443e90	-0.00018715323
47	0x3d0bc1f2	0.034120508
48	0xb31e0a40	-3.6796564e-08
49	0x31cd68a1	5.97818e-09
50	0x3d97e9c4	0.07417634
51	0x32b467e1	2.1001997e-08
52	0xb80a0682	-3.2907825e-05
53	0xb9ce9d12	-0.00039408408
54	0xb2cf3e00	-2.4126166e-08
55	0xb2743edd	-1.4216963e-08
56	0xb8fcb99f	-0.00012050871
57	0x3c287c0e	0.010283483
58	0x3c6db4d2	0.014508443
59	0xb8240729	-3.9107315e-05
60	0x3d2cc447	0.042179372
61	0xb820f7ee	-3.8377875e-05
62	0x3d6ab67e	0.057302944
63	0x3b49b121	0.0030775743

linear_layers.0.weight f4 [64, 68]
0	0x38b1c587	8.47681e-05
1	0xbd55f1bc	-0.05223249
2	0xbd559dff	-0.05215263
3	0x3740a153	1.1481653e-05
4	0xbd55ea10	-0.052225173
5	0xbd55b41b	-0.052173715
6	0x37fd9685	3.0230041e-05
7	0x38bb79e9	8.9395624e-05
8	0xbd55d5a5	-0.0522057
9	0x38102127	3.436315e-05
10	0x37561835	1.276103e-05
11	0x37cf8bde	2.4741454e-05
12	0xbd55ebcd	-0.05222683
13	0x3810ca68	3.452078e-05
14	0x384ff674	4.9582173e-05
15	0x374b0ffa	1.2103463e-05
16	0x382cdcd6	4.1213665e-05
17	0xb5e2a708	-1.6886925e-06
18	0x38e293c6	0.00010804045
19	0x37c520a8	2.3499437e-05
20	0x381d522c	3.7508245e-05
21	0xbd554b10	-0.05207354
22	0xbd55c74a	-0.05219201
23	0xb5f1b935	-1.8009802e-06
24	0xbd55b415	-0.052173693
25	0x37073151	8.058109e-06
26	0x38c44b9e	9.360093e-05
27	0x3727c621	1.0000106e-05
28	0x383917a9	4.4129472e-05
29	0xbd558f8f	-0.05213886
30	0xbd55c6ac	-0.05219142
31	0xbd55db0a	-0.052210845
32	0xb751c456	-1.2503084e-05
33	0x39046113	0.00012624664
34	0x3887c6a7	6.4743035e-05
35	0x34fb62c3	4.6824252e-07
36	0x38e8dc5b	0.000111036665
37	0x38adc19d	8.285346e-05
38	0xbd558055	-0.05212434
39	0xbc119290	-0.008885041
40	0xbd55c8d7	-0.05219349
41	0xbc10ec40	-0.008845389
42	0xbd558d43	-0.05213667
43	0xbd55e818	-0.052223295
44	0x37e849d7	2.769094e-05
45	0xbbadc272	-0.0053027207
46	0x387f00ed	6.07976e-05
47	0x38b2362b	8.497791e-05
48	0xbd55de57	-0.052213993
49	0xbd55d5ad	-0.05220573
50	0xbc0adb28	-0.0084751025
51	0xbd55e85e	-0.052223556
52	0x371a2169	9.186894e-06
53	0x38da6bf3	0.00010415157
54	0xbd551fe7	-0.052032378
55	0xbd55e8fe	-0.05222415
56	0x3806a3c9	3.2100626e-05
57	0x38517431	4.9937695e-05
58	0x3935c3ac	0.00017334399
59	0x37379847	1.0943105e-05
60	0x369e649c	4.7204794e-06
61	0x37602002	1.3358893e-05
62	0xbbbca686	-0.005757156
63	0x37a94bd1	2.0181675e-05
64	0xb1088450	-1.9865816e-09
65	0x3b54fcda	0.0032499344
66	0x37db5489	2.61462e-05
67	0x398dfc46	0.00027081574
68	0xb12aa94f	-2.4834497e-09
69	0x302fd6ee	6.397006e-10
70	0xb15d3455	-3.218948e-09
71	0xb0e0d365	-1.6358227e-09
72	0x317671fd	3.5862506e-09
73	0x31236490	2.3776785e-09
74	0xb0e0e5c6	-1.6363451e-09
75	0xae4e2ed9	-4.6880586e-11
76	0x302f9131	6.387096e-10
77	0xb168ad63	-3.3859002e-09
78	0xb1252dd8	-2.403672e-09
79	0xae09c70b	-3.132698e-11
80	0x30cf0a5a	1.5064174e-09
81	0x31318bf6	2.5836449e-09
82	0xb125ee94	-2.4146276e-09
83	0xafc81cb9	-3.6400197e-10
84	0xb0ca2895	-1.4708968e-09
85	0x30c2c7b1	1.4172113e-09
86	0xb17ec01c	-3.7071066e-09
87	0x30902f88	1.0490888e-09
88	0x316441e3	3.321582e-09
89	0xb17767de	-3.6002272e-09
90	0xb18f97a1	-4.179086e-09
91	0x316219c9	3.2901986e-09
92	0xb0d63626	-1.5585939e-09
93	0xb073fa65	-8.8758717e-10
94	0x2fd913ce	3.9486142e-10
95	0xb024aebe	-5.9911176e-10
96	0xb130105a	-2.5620666e-09
97	0x30f11e3f	1.7543654e-09
98	0xb0d12152	-1.5216222e-09
99	0xb18b6283	-4.056632e-09
100	0xb15e7ce1	-3.2376237e-09
101	0xb1665a40	-3.3520706e-09
102	0x2f5f1bd9	2.0291625e-10
103	0x31302397	2.5631601e-09
104	0xb0baf719	-1.360351e-09
105	0x3047e55d	7.2721723e-10
106	0x3111a6f4	2.119518e-09
107	0xb163b40c	-3.3135192e-09
108	0x3177ee51	3.6078698e-09
109	0xb0bbb5d9	-1.3657725e-09
110	0xb1374896	-2.6671265e-09
111	0xb00d8712	-5.148745e-10
112	0x30782759	9.027779e-10
113	0xb122566d	-2.362323e-09
114	0xb0e355d4	-1.6540818e-09
115	0xb10696bc	-1.958525e-09
116	0xb0107e38	-5.256626e-10
117	0xb11a093f	-2.2415205e-09
118	0x312cc9e9	2.5144067e-09
119	0x30b9f88e	1.3531165e-09
120	0xb116bf1a	-2.1936502e-09
121	0x30dbb41a	1.5985535e-09
122	0x31017896	1.8840516e-09
123	0x30846601	9.633255e-10
124	0x306956c8	8.488823e-10
125	0x315f9318	3.2534384e-09
126	0x303994a9	6.7513867e-10
127	0xb09e1326	-1.1501455e-09
128	0xb0ba7dca	-1.3569033e-09
129	0xb087cdc0	-9.88102e-10
130	0x311fa5c0	2.3231763e-09
131	0xb0df0399	-1.6226408e-09
132	0x311f472a	2.3177997e-09
133	0x31e12951	6.553059e-09
134	0xb1879e94	-3.9470454e-09
135	0xb192606d	-4.2601216e-09
136	0x376e1649	1.4191094e-05
137	0xbc0f4c59	-0.00874623
138	0xbc0f145d	-0.008732882
139	0x3600e158	1.9204654e-06
140	0xbc0f4762	-0.008745046
141	0xbc0f2359	-0.008736455
142	0x36a9d2ec	5.061147e-06
143	0x377b32ce	1.4972595e-05
144	0xbc0f39b6	-0.008741787
145	0x36c0fcb1	5.751463e-06
146	0x360f4f3e	2.1354786e-06
147	0x368ae1bb	4.138999e-06
148	0xbc0f4886	-0.008745318
149	0x36c1dd9e	5.777648e-06
150	0x370b404d	8.300017e-06
151	0x36083841	2.0298323e-06
152	0x36e77453	6.8978784e-06
153	0xb497b9d3	-2.8261147e-07
154	0x3797c77b	1.8093493e-05
155	0x368413e9	3.9362244e-06
156	0x36d2ab46	6.2784266e-06
157	0xbc0edcd2	-0.00871964
158	0xbc0f3040	-0.008739531
159	0xb4a348be	-3.0414043e-07
160	0xbc0f2353	-0.008736449
161	0x35b47e79	1.3447853e-06
162	0x37837211	1.5669533e-05
163	0x35e14955	1.6785149e-06
164	0x36f7f1c1	7.3893175e-06
165	0xbc0f0ae8	-0.008730628
166	0xbc0f2fda	-0.008739436
167	0xbc0f3d56	-0.008742651
168	0xb60c6b51	-2.0924092e-06
169	0x37b14e08	2.113638e-05
170	0x3735d4e2	1.0838006e-05
171	0x33a7d4f4	7.8152794e-08
172	0x379bf13e	1.8589777e-05
173	0x3768cd4c	1.3876077e-05
174	0xbc0f0084	-0.00872815
175	0xbac3021f	-0.0014877951
176	0xbc0f314a	-0.008739779
177	0xbac22322	-0.0014811496
178	0xbc0f096a	-0.008730272
179	0xbc0f461c	-0.008744743
180	0x369b94a5	4.6366645e-06
181	0xba68c3f6	-0.0008879298
182	0x372adcc0	1.0184187e-05
183	0x376eb89d	1.4228889e-05
184	0xbc0f3f8f	-0.008743181
185	0xbc0f39be	-0.008741794
186	0xbaba02a1	-0.0014191457
187	0xbc0f4648	-0.008744784
188	0x35ce9f16	1.5394496e-06
189	0x37924877	1.74383e-05
190	0xbc0ebff9	-0.008712762
191	0xbc0f46b9	-0.008744889
192	0x36b4724f	5.3777253e-06
193	0x370c3a58	8.3582345e-06
194	0x37f382f5	2.9028839e-05
195	0x35f56419	1.8283055e-06
196	0x3553b06d	7.886036e-07
197	0x36165e8e	2.240678e-06
198	0xba7cb6dc	-0.0009640285
199	0x3662c92d	3.3793724e-06
200	0x3141d80a	2.8208e-09
201	0x3a0ea835	0.0005441935
202	0x3692f46d	4.379594e-06
203	0x383e3454	4.5348264e-05
204	0x38a714dc	7.967066e-05
205	0xbd491109	-0.04908851
206	0xbd48c258	-0.049013466
207	0x37352287	1.079648e-05
208	0xbd4909d0	-0.049081624
209	0xbd48d764	-0.049033538
210	0x37ee520b	2.8410015e-05
211	0x38b0320c	8.401656e-05
212	0xbd48f6b1	-0.04906339
213	0x38077370	3.2294018e-05
214	0x3749322f	1.1992218e-05
215	0x37c3115a	2.3253891e-05
216	0xbd490b7f	-0.04908323
217	0x38081798	3.24469e-05
218	0x38437060	4.659628e-05
219	0x373ece66	1.1372938e-05
220	0x38227896	3.8736114e-05
221	0xb5d5854d	-1.5908532e-06
222	0x38d4ee64	0.000101533515
223	0x37b94798	2.2087057e-05
224	0x3813d9e2	3.525045e-05
225	0xbd48748f	-0.048939284
226	0xbd48e955	-0.049050648
227	0xb5e34542	-1.6932975e-06
228	0xbd48d75c	-0.049033508
229	0x36fe0718	7.5706157e-06
230	0x38b87b30	8.796749e-05
231	0x371db806	9.4007755e-06
232	0x382df405	4.1473675e-05
233	0xbd48b4ff	-0.049000736
234	0xbd48e8ca	-0.04905013
235	0xbd48fb95	-0.049068052
236	0xb7452cf7	-1.1752584e-05
237	0x38f8d406	0.00011865054
238	0x387f38a5	6.0849492e-05
239	0x34ebde48	4.3933892e-07
240	0x38dad4b0	0.00010434666
241	0x38a34a42	7.786277e-05
242	0xbd48a691	-0.048986975
243	0xbc08cf83	-0.008350256
244	0xbd48eab3	-0.04905195
245	0xbc0832f6	-0.008312931
246	0xbd48b2d4	-0.04899867
247	0xbd490807	-0.04907992
248	0x37da5676	2.6027887e-05
249	0xbba34cd2	-0.004983523
250	0x386fac90	5.714275e-05
251	0x38a77d61	7.986534e-05
252	0xbd48feb7	-0.04907104
253	0xbd48f6b8	-0.049063414
254	0xbc027f8e	-0.007964982
255	0xbd490835	-0.049080092

linear_layers.0.bias f4 [64]
0	0x3dc09a74	0.094044596
1	0xb0d34fb0	-1.5374919e-09
2	0x3c810100	0.015747547
3	0x3db50271	0.08838356
4	0xb7b5a886	-2.1655356e-05
5	0xb94ae5c1	-0.00019349811
6	0x3ce4c518	0.027926013
7	0xb18c5ae2	-4.0848684e-09
8	0x3d30a603	0.04312707
9	0x2f9f8c7f	2.902176e-10
10	0x3e017ec0	0.12646008
11	0xb9027ffe	-0.00012445447
12	0x3bb30d52	0.0054642344
13	0x3c266fee	0.010158522
14	0xb784babe	-1.5822585e-05
15	0xb7e06b75	-2.675292e-05
16	0x3ca30545	0.019899974
17	0x3c2cf9af	0.010557576
18	0x3df34b94	0.1187965
19	0x3e07b9a7	0.13254414
20	0xb733c30d	-1.0714645e-05
21	0x3ccee0d5	0.025253693
22	0x3da0f12a	0.078584984
23	0x3dcafedb	0.09911891
24	0xb8750256	-5.8414727e-05
25	0xb7177226	-9.026879e-06
26	0x3d67e6cc	0.05661659
27	0x3d9e5196	0.07730405
28	0x3db305d7	0.08741348
29	0x3d91de43	0.07122471
30	0x3d9bfaa9	0.07616169
31	0xb71780e9	-9.030316e-06
32	0x3c6b2dae	0.014354153
33	0xb91e5674	-0.0001510026
34	0x389ed8e1	7.574424e-05
35	0xb774bcc7	-1.45874865e-05
36	0x3c9d9412	0.019235644
37	0x3e207ac0	0.15671825
38	0x39334f51	0.00017100318
39	0x3ca3d72e	0.020000067
40	0xb7e10a61	-2.6826923e-05
41	0x3737c366	1.0953145e-05
42	0x3dcaf252	0.099095
43	0x3cb6cf0f	0.02231553
44	0xb79e739a	-1.8888899e-05
45	0xb07faa6a	-9.301063e-10
46	0x30dd9b2f	1.6123972e-09
47	0xb7e8fc6b	-2.7774096e-05
48	0xb8033cb5	-3.128937e-05
49	0xb7c73354	-2.374655e-05
50	0x3861f488	5.3871918e-05
51	0x3ac2be3f	0.0014857723
52	0x3da329b2	0.07966937
53	0xb7c03f84	-2.291776e-05
54	0x3bbe76c0	0.005812496
55	0x3c2e8e98	0.010654114
56	0xb91d29ff	-0.00014988332
57	0x3af0ee0e	0.0018381493
58	0x3db15c0c	0.08660135
59	0x3c000b99	0.007815265
60	0x313f3c57	2.7828457e-09
61	0xb15e3c63	-3.2339578e-09
62	0xb0af043c	-1.2734129e-09
63	0xb7e128ec	-2.6841146e-05

linear_layers.2.weight f4 [1, 64]
0	0x3e8328a2	0.25616938
1	0xb20e83e3	-8.295475e-09
2	0x3d2fb2e4	0.042895213
3	0x3e768742	0.24075034
4	0xb895ea2d	-7.148492e-05
5	0xba5dc5c8	-0.00084599527
6	0x3d9bc9d2	0.076068535
7	0xb0c4dd1b	-1.4323719e-09
8	0x3df0968c	0.117474645
9	0xb2a52108	-1.9223549e-08
10	0x3eb05e0b	0.3444675
11	0xba0e9ffa	-0.00054407085
12	0x3c73dcb2	0.014884161
13	0x3ce2ae5c	0.027671032
14	0xb85b08e3	-5.2221945e-05
15	0xb8b93227	-8.830829e-05
16	0x3d5e071d	0.054206003
17	0x3d085712	0.03328616
18	0x3ea5adf5	0.3235928
19	0x3eb8da5a	0.3610409
20	0xb8145afd	-3.537069e-05
21	0x3da30e5d	0.07961724
22	0x3e5b3271	0.2140596
23	0x3e8a3c58	0.26999164
24	0xb985e941	-0.00025541525
25	0xb8257d13	-3.945555e-05
26	0x3e1deba0	0.15421915
27	0x3e579f96	0.21056971
28	0x3e73d281	0.2381077
29	0x3e46aab6	0.19401059
30	0x3e547032	0.20745924
31	0xb825a408	-3.949183e-05
32	0x3d2026e7	0.0390996
33	0xba2d0edd	-0.0006601641
34	0x39585a04	0.00020632899
35	0xb849ec25	-4.814206e-05
36	0x3d569da4	0.05239643
37	0x3eda9143	0.4268895
38	0x3a0d588f	0.00053919194
39	0x3d5f24f2	0.054478593
40	0xb8b9b4ca	-8.855162e-05
41	0x37fa4625	2.9834986e-05
42	0x3e8a33d0	0.26992655
43	0x3d78fa7b	0.06078575
44	0xb882c168	-6.234908e-05
45	0x32875b7c	1.575767e-08
46	0x30b955e8	1.3484938e-09
47	0xb8c041ab	-9.167505e-05
48	0xb8d8944b	-0.00010327304
49	0xb8a45f41	-7.837872e-05
50	0x3919db89	0.00014673
51	0x3b849db2	0.004047119
52	0x3e5e38a0	0.21701288
53	0xb89ea355	-7.56445e-05
54	0x3c81b3a6	0.015832733
55	0x3cedbd76	0.029021006
56	0xba2bc928	-0.0006553107
57	0x3bbde126	0.005794662
58	0x3e718eb6	0.23589596
59	0x3cae6471	0.021288129
60	0xb19001b2	-4.1911443e-09
61	0x3121b9a5	2.353411e-09
62	0x2f5a2676	1.9840649e-10
63	0xb8b9cca1	-8.8596025e-05
